models/ltc2_model.pth (torch, 59170 bytes, 14 tensors)

weight f4 [50, 2]
-0.25773886 -0.44870904 0.28171256 -0.03555441 -0.5532019 0.4580404 -0.2747783 0.08391204
-0.27999806 -0.15722907 0.056370784 0.6260408 0.47584978 0.43195838 0.43861234 -0.43882364
0.1644764 0.4910431 0.17037071 0.68004084 -0.01949265 -0.51148784 0.435207 0.4919532
-0.6554913 -0.6453316 0.6769393 -0.15906242 -0.6220051 0.28809753 -0.111459024 -0.27810785
-0.5741022 0.32378897 0.51903856 0.68100613 -0.6006936 0.59768236 -0.3678877 0.019627525
-0.3424703 -0.46149477 -0.05766774 -0.29287925 0.6902575 0.045996565 0.33567977 -0.5971639
-0.7172871 -0.32232365 0.0047581634 -0.6300354 0.0916039 -0.12615037 0.60616505 0.6187632
0.5451901 0.72586423 -0.23994449 0.58082587 -0.46177858 0.22619897 -0.09192586 -0.21098563
0.029732384 0.5609399 0.033851184 0.6067709 -0.4524604 0.17513683 0.62813497 0.6509454
0.50911367 -0.10380832 0.12973043 -0.570914 -0.26152948 0.6473853 0.5821675 0.14568403
-0.6417425 -0.3452719 -0.5358884 0.39084607 -0.10843246 -0.2798949 -0.24483818 0.27005288
-0.30455533 0.61984307 0.09402067 -0.6273625 -0.402311 0.66885334 0.5260356 0.21315655
0.27881357 0.5240752 -0.45012185 0.023199962
00000000: 59f6 83be 31bd e5be a13c 903e 80a1 11bd
00000010: a49e 0dbf 4584 ea3e beaf 8cbe 13da ab3d
00000020: e85b 8fbe a800 21be 0de5 663d 3644 203f
00000030: 95a2 f33e a629 dd3e cc91 e03e 7ead e0be
00000040: 806c 283e 006a fb3e a975 2e3e 2817 2e3f
00000050: 0daf 9fbc def0 02bf 74d3 de3e 4ae1 fb3e
00000060: 47ce 27bf 7434 25bf e54b 2d3f 42e1 22be
00000070: ba3b 1fbf 8581 933e a144 e4bd 2764 8ebe
00000080: 5df8 12bf abc7 a53e b6df 043f 6b56 2e3f
00000090: 0ec7 19bf b601 193f c75b bcbe e7c9 a03c
000000a0: 4458 afbe 0b49 ecbe 0235 6cbd 45f4 95be
000000b0: b7b4 303f e566 3c3d 38de ab3e bcdf 18bf
000000c0: 21a0 37bf 9b07 a5be 5eea 9b3b 004a 21bf
000000d0: d39a bb3d 902d 01be a22d 1b3f 4467 1e3f
000000e0: 9491 0b3f 3dd2 393f 02b4 75be 01b1 143f
000000f0: 3e6e ecbe b4a0 673e a043 bcbd 9e0c 58be
00000100: 5491 f33c c299 0f3f 8aa7 0a3d 5655 1b3f
00000110: e4a8 e7be 1257 333e 74cd 203f 5ca4 263f
00000120: 4655 023f 7599 d4bd 0ed8 043e 6b27 12bf
00000130: 31e7 85be 0bbb 253f ee08 153f 322e 153e
00000140: 3d49 24bf 7ac7 b0be fb2f 09bf fa1c c83e
00000150: d611 debd 624e 8fbe dcb6 7abe 5f44 8a3e
00000160: adee 9bbe 09ae 1e3f e98d c03d d49a 20bf
00000170: b5fb cdbe f939 2b3f 45aa 063f b645 5a3e
00000180: a7c0 8e3e cb29 063f 5f76 e6be d90d be3c

bias f4 [50]
-0.21513489 -0.041746818 -0.29502028 0.01841477 -0.60507333 -0.54529816 -0.102725156 -0.26196325
-0.30746758 -0.297847 0.15952708 0.66153157 0.05948879 -0.22289084 -0.35957417 0.24759972
-0.3141831 -0.48077115 -0.17646796 0.12644932 -0.43345928 0.5335055 0.42894462 0.6280306
-0.39646363 0.009429087 0.7059062 -0.16635169 -0.48743954 0.2668415 0.40145695 -0.010758503
-0.66457844 0.49399725 0.48547316 0.3955419 0.30400366 -0.5717914 0.6851369 -0.5664702
0.4799969 0.27984348 0.66201705 0.58754003 -0.67241144 0.302877 -0.08382134 -0.012858738
0.14151786 -0.16325915
00000000: 524c 5cbe b6fe 2abd e60c 97be 92da 963c
00000010: 16e6 1abf a998 0bbf 9161 d2bd 0c20 86be
00000020: 646c 9dbe 677f 98be 115b 233e 225a 293f
00000030: 84aa 733d 7f3d 64be 1b1a b8be c88a 7d3e
00000040: 9bdc a0be a327 f6be 04b4 34be ee7b 013e
00000050: 60ee ddbe d193 083f a19e db3e 9dc6 203f
00000060: 48fd cabe 757c 1a3c 45b6 343f 1958 2abe
00000070: ad91 f9be 739f 883e c48b cd3e 6f44 30bc
00000080: d021 2abf 35ed fc3e f08f f83e 7884 ca3e
00000090: 5ea6 9b3e ec60 12bf 2265 2f3f 3104 11bf
000000a0: 27c2 f53e a547 8f3e f379 293f 0669 163f
000000b0: 2823 2cbf b212 9b3e 86aa abbd 75ad 52bc
000000c0: 0fea 103e 682d 27be

weight f4 [50, 50]
0.12091127 -0.099127896 0.08299075 -0.09092698 -0.061963607 -0.011658639 0.024848355 0.01881699
0.01911254 0.01257469 -0.12436421 -0.07601345 0.12373308 0.1430805 0.122946784 -0.11169168
-0.004861173 0.03859314 0.104407854 -0.04010219 0.0067840684 0.005975876 -0.1355055 0.08593686
0.031428505 0.15473776 0.08640343 -0.07712388 0.030272476 -0.08117532 0.07669908 -0.0047986717
-0.11104889 -0.046520237 0.101322636 -0.018636309 0.03799294 -0.13590743 -0.13852085 0.09427426
0.11018141 0.03441946 -0.06895219 -0.104043454 -0.1274966 0.05640762 0.067695156 -0.08277322
0.04252554 0.11267789 0.12104234 -0.10173316 -0.05323223 0.021329762 0.037626468 -0.08501737
0.020751953 -0.056076176 0.0072599086 -0.08777246 0.10400529 0.095599 -0.11753514 0.019915935
-0.058022995 -0.059528716 -0.13208349 0.0154005075 0.0040898505 -0.04974668 -0.104023665 -0.070941344
-0.026696038 0.045415368 0.012904039 -0.021017317 -0.117411636 -0.14992546 0.037848394 0.05297832
0.13724129 0.09078365 -0.019241583 0.080869436 0.04602812 0.05678926 0.065607496 0.11559214
-0.0035517048 -0.07246366 -0.070549406 0.0360325 0.15038963 0.14327301 -0.017197508 -0.115931325
0.047759507 0.031481322 -0.079519525 -0.0315645 -0.09943752 -0.11980778 -0.013647816 -0.02275448
-0.07337217 -0.12274225 0.120861925 -0.024094203 -0.0016991429 0.09788933 0.051927272 -0.14414144
-0.12653776 -0.10820191 -0.026988061 -0.125578 -0.028826948 0.066267565 0.011638431 -0.09389684
0.005081771 -0.10750004 -0.10905611 -0.071144015 0.09845063 -0.10443597 0.10429936 0.12205841
0.12925406 0.0091707595 -0.046403095 0.04825187 0.022721093 0.11927859 -0.07165342 0.012163418
0.06776301 -0.12700139 -0.12997897 -0.055594295 -0.05340781 0.10418489 0.07543428 -0.09162486
0.059078585 0.064838186 -0.12139588 -0.08116415 -0.1280382 0.08627802 0.030582733 0.14180459
-0.09870966 -0.012603599 0.11846573 0.044429965 -0.02824829 0.1115873 -0.053295903 0.0034667205
0.04174106 -0.09694025 -0.0050411536 -0.034447752 -0.082256 -0.055872213 0.035131723 -0.029071992
-0.013777019 -0.0060389014 0.059949964 -0.086968265 0.07625718 -0.14147304 0.084920324 -0.06359048
0.15092154 0.09095153 -0.13208823 0.005041131 -0.09176367 0.06925731 -0.07443135 -0.074411154
0.045754455 -0.118162915 0.04366878 0.03184075 0.1087476 0.11172897 0.0893813 0.08510996
-0.055484034 0.027325213 -0.12154694 -0.14011987 0.07434922 0.06406592 0.09677274 -0.030791251
0.05827441 -0.004674563 -0.083814874 -0.022213345 -0.15414627 -0.055797677 -0.07644659 -0.10739191
-0.09430343 -0.054175533 0.1500388 0.12318043 0.049039844 -0.08719642 -0.022766087 0.07504333
-0.092628755 -0.05342606 0.08408862 0.038534928 -0.022357032 -0.088294044 -0.11216698 -0.11439475
0.09714238 -0.010195842 0.11004352 -0.06403445 -0.07105777 -0.10812532 0.05081473 -0.07049278
0.08470152 -0.122294605 0.04110721 -0.04674472 0.10093913 -0.107992254 0.083697714 -0.018290643
-0.07971909 -0.01849733 0.010454826 0.04235866 0.0048772143 0.1014822 -0.08582904 -0.14185078
-0.09383512 0.07039522 0.026467608 -0.016976617 -0.044375733 -0.01467898 0.1068036 -0.009421913
00000000: 54a0 f73d 9103 cbbd 0ef7 a93d ed37 babd
00000010: 8dcd 7dbd e003 3fbc c78e cb3c 1726 9a3c
00000020: e791 9c3c 1306 4e3c aab2 febd f1ac 9bbd
00000030: c567 fd3d b283 123e 86cb fb3d 9cbe e4bd
00000040: 7a4a 9fbb d713 1e3d c9d3 d53d 3242 24bd
00000050: e44c de3b 48d1 c33b f4c1 0abe aaff af3d
00000060: 2dbb 003d 9373 1e3e 48f4 b03d 20f3 9dbd
00000070: fcfd f73c 3f3f a6bd 6814 9d3d 2d3e 9dbb
00000080: 9a6d e3bd 018c 3ebd 3e82 cf3d 2cab 98bc
00000090: 7c9e 1b3d 512b 0bbe 69d8 0dbe dd12 c13d
000000a0: cba6 e13d 6bfb 0c3d ce36 8dbd bc14 d5bd
000000b0: 788e 02be ad0b 673d c2a3 8a3d 0285 a9bd
000000c0: 432f 2e3d aac3 e63d 0ce5 f73d 7a59 d0bd
000000d0: 0a0a 5abd c1bb ae3c 361e 1a3d 961d aebd
000000e0: 0000 aa3c 22b0 65bd 87e4 ed3b 0cc2 b3bd
000000f0: ba00 d53d 69c9 c33d 43b6 f0bd be26 a33c
00000100: 85a9 6dbd 62d4 73bd e540 07be 6952 7c3c
00000110: 2704 863b 2dc3 4bbd 5c0a d5bd b249 91bd
00000120: a6b1 dabc 7705 3a3d 766b 533c 822c acbc
00000130: 8375 f0bd 0f86 19be eb06 1b3d cbff 583d
00000140: fb88 0c3e c7ec b93d 86a0 9dbc e09e a53d
00000150: fb87 3c3d db9b 683d 395d 863d 92bb ec3d
00000160: b8c3 68bb d467 94bd 357c 90bd d196 133d
00000170: bdff 193e 29b6 123e cae1 8cbc 676d edbd
00000180: 799f 433d 8ff2 003d 22db a2bd c749 01bd
00000190: e6a5 cbbd c85d f5bd 179b 5fbc 9a67 babc
000001a0: 2644 96bd 4a60 fbbd 7586 f73d 3561 c5bc
000001b0: c6b5 deba 337a c83d b1b1 543d d099 13be
000001c0: 1d93 01be f798 ddbd 1116 ddbc 8597 00be
000001d0: 7e26 ecbc 4ab7 873d 1eaf 3e3c fd4c c0bd
000001e0: fc84 a63b fb28 dcbd cf58 dfbd f4b3 91bd
000001f0: 7ca0 c93d 87e2 d5bd e79a d53d c2f9 f93d
00000200: 2d5b 043e f440 163c 2c11 3ebd c1a3 453d
00000210: 9621 ba3c 5548 f43d 07bf 92bd 1349 473c
00000220: 55c7 8a3d a70c 02be 3519 05be d8b6 63bd
00000230: 26c2 5abd e35e d53d 4a7d 9a3d d1a5 bbbd
00000240: 63fc 713d e2c9 843d 679e f8bd 6439 a6bd
00000250: 721c 03be 88b2 b03d a488 fa3c 3935 113e
00000260: 4a28 cabd 537f 4ebc 299e f23d 32fc 353d
00000270: f568 e7bc e287 e43d ce4c 5abd eb31 633b
00000280: acf8 2a3d 9c88 c6bd 4330 a5bb 1619 0dbd
00000290: d575 a8bd 43da 64bd 48e6 0f3d 6328 eebc
000002a0: 02b9 61bc fae1 c5bb 188e 753d 6b1c b2bd
000002b0: b92c 9c3d 4fde 10be b5ea ad3d ba3b 82bd
000002c0: 2d8b 1a3e cc44 ba3d 2342 07be 1230 a53b
000002d0: 97ee bbbd c7d6 8d3d 776f 98bd e064 98bd
000002e0: 0669 3b3d 66ff f1bd 09de 323d 726b 023d
000002f0: 10b7 de3d 29d2 e43d 8b0d b73d 214e ae3d
00000300: 3a43 63bd 20d9 df3c 9aed f8bd 957b 0fbe
00000310: 6744 983d fe34 833d c930 c63d ef3d fcbc
00000320: 26b1 6e3d 142d 99bb 22a7 abbd c3f8 b5bc
00000330: 85d8 1dbe 1b8c 64bd 0890 9cbd 4af0 dbbd
00000340: 2822 c1bd 2ae7 5dbd c5a3 193e 0546 fc3d
00000350: 01de 483d 0994 b2bd f27f babc 51b0 993d
00000360: 25b4 bdbd 49d5 5abd a836 ac3d cdd6 1d3d
00000370: 1826 b7bc 82d3 b4bd cdb7 e5bd cb47 eabd
00000380: 96f2 c63d 760c 27bc 7f5e e13d 7e24 83bd
00000390: bc86 91bd cf70 ddbd 1b23 503d 855e 90bd
000003a0: fe77 ad3d 9875 fabd 0960 283d 6477 3fbd
000003b0: 2db9 ce3d 0b2b ddbd b569 ab3d 42d6 95bc
000003c0: c343 a3bd b687 97bc b84a 2b3c 4680 2d3d
000003d0: 0ad1 9f3b e6d5 cf3d 23c7 afbd 5541 11be
000003e0: a12c c0bd 5e2b 903d 99d2 d83c 8c12 8bbc
000003f0: 54c3 35bd 1b80 70bc d9bb da3d 5e5e 1abc

bias f4 [50]
0.0705896 -0.11920249 0.14461961 -0.01892174 -0.10904945 -0.1392039 0.071430996 0.09291601
-0.1306131 -0.1329115 0.12556718 -0.07158013 -0.03902304 0.09181857 0.084687725 -0.032276835
0.11469468 -0.07432644 -0.027270583 0.1084085 0.037100155 -0.113585345 0.0054947664 0.139015
0.050783418 -0.10164088 0.04319993 0.002041638 -0.013194371 0.14935407 0.15056647 0.15514106
-0.029327367 -0.03311399 -0.02550916 0.13685158 -0.06360699 -0.039428636 0.019593792 -0.12429268
-0.07461848 0.11278983 -0.0044441777 0.0319842 -0.007847767 -0.080739185 0.13014905 -0.05986113
0.024227172 0.11434852
00000000: 4891 903d 6f20 f4bd 2a17 143e c401 9bbc
00000010: 5155 dfbd 788b 0ebe 6a4a 923d c04a be3d
00000020: 71bf 05be f419 08be af94 003e 9a98 92bd
00000030: a0d6 1fbd 600b bc3d c270 ad3d b734 04bd
00000040: 0be5 ea3d 7638 98bd 8f66 dfbc 4705 de3d
00000050: 55f6 173d 6f9f e8bd 710d b43b f359 0e3e
00000060: 4602 503d 1829 d0bd 69f2 303d 00cd 053b
00000070: 342d 58bc 46f0 183e 192e 1a3e 4cdd 1e3e
00000080: f23f f0bc 89a2 07bd 96f8 d0bc d222 0c3e
00000090: 6244 82bd ec7f 21bd 2983 a03c 298d febd
000000a0: 93d1 98bd 5bfe e63d 77a0 91bb dd01 033d
000000b0: ec93 00bc 965a a5bd cb45 053e f230 75bd
000000c0: 1078 c63c 8f2f ea3d

weight f4 [50, 50]
0.0765782 -0.10533712 -0.04546963 -0.078290194 0.046059202 0.09007535 0.059465297 0.102160744
-0.15518025 -0.022102688 0.022977177 0.12556437 0.022971204 0.13639283 0.013298551 0.09348939
0.109900944 0.0779223 0.040629048 -0.083708465 -0.023661412 -0.01672599 -0.007564112 -0.13780563
-0.118160605 -0.13294344 0.06657178 0.019839913 -0.079085544 -0.075373776 0.0988018 0.040590864
0.013822873 -0.07906092 0.08369859 0.07401964 -0.13632634 0.07379348 -0.121787 0.06693698
0.13158461 0.11478663 0.067691974 -0.05743709 -0.10970037 -0.027627446 -0.14734058 -0.049598075
-0.0087260315 -0.09644352 -0.065154 0.113938935 0.13781814 -0.048873983 0.043245576 0.07497455
-0.10554539 -0.07473442 -0.104106195 -0.08754081 0.039340883 -0.007200759 0.12788469 -0.050372593
0.1326102 -0.10578741 -0.06496506 -0.027756521 0.03658209 0.055153638 0.12219094 -0.026751498
0.042473365 -0.011543975 0.14638178 0.11751698 0.06812759 -0.10376195 0.09824941 -0.114693396
-0.07700508 -0.10443857 -0.09477275 -0.12444153 -0.009504023 0.07721796 -0.038491018 -0.06540917
-0.080982395 -0.111404136 0.019133454 0.05388425 -0.14443606 0.10532784 -0.013917854 0.070138924
-0.04341539 -0.13813637 0.06541693 -0.024065532 0.12034705 0.016252179 0.04683506 -0.104718804
0.103667945 0.021201754 -0.026228761 0.059094887 0.07300239 0.13900383 -0.019498829 0.06867129
0.122681424 -0.10794746 0.05478778 0.008163886 0.07328417 0.01414763 -0.02367825 -0.014740993
0.0076009165 0.10219806 0.10539372 -0.086794816 -0.013734421 -0.07324609 0.086471304 0.046729706
0.11859296 0.090808764 -0.116342574 0.1104146 0.02719617 0.03947125 0.13011128 -0.13544382
-0.027592177 0.025477143 0.008645745 -0.06408792 -0.069067955 0.07739967 -0.0648236 -0.047825847
0.10783272 -0.049930036 0.092393324 -0.09386426 0.092861265 -0.11063275 0.09646362 -0.04758768
-0.011146138 -0.12996311 0.14140773 -0.0139578255 -0.015285787 -0.10117232 0.13029233 0.11528716
0.02357913 0.078984186 -0.020019041 0.124356315 -0.05602698 0.051188212 -0.020533834 -0.00091337174
-0.034279734 0.030196683 0.017067377 0.098111406 0.083621554 0.060608435 -0.031222973 0.14797166
0.005764614 0.082277 0.08627703 -0.0225844 -0.102179736 0.08536915 -0.025429264 -0.028202578
-0.114916004 -0.11276369 -0.105493926 -0.08449493 0.026769727 0.033819284 -0.02045473 0.09494867
-0.11923628 -0.13731487 -0.029167634 -0.03439719 -0.07838682 -0.053915203 -0.10551615 0.016287295
0.013413049 -0.059623588 -0.033098605 -0.031621173 -0.086306036 -0.024121886 -0.021414282 0.1023894
-0.12605752 -0.058742613 0.07486521 -0.0027279768 -0.10845785 0.0772857 0.117488414 0.07042154
-0.08933397 0.05539337 -0.07331038 -0.12444936 -0.13032281 0.03846164 -0.1297138 0.07189172
0.101697296 -0.014189448 -0.10807647 -0.09876024 -0.030172607 -0.07585156 -0.035297852 0.10024871
-0.008753971 0.02174174 0.08522324 0.010444377 -0.024233514 -0.13679862 -0.019315924 0.13078275
-0.0427444 -0.096671574 0.11607787 -0.0033041157 0.09633545 -0.00037903353 -0.047384124 -0.032542467
0.08678353 -0.09796228 0.10998696 -0.13799746 -0.06465708 -0.13900861 0.107539654 -0.14300829
00000000: 08d5 9c3d fdba d7bd 5d3e 3abd 9c56 a0bd
00000010: 93a8 3c3d 6d79 b83d e291 733d a739 d13d
00000020: 92e7 1ebe b210 b5bc a23a bc3c f293 003e
00000030: 1b2e bc3c 90aa 0b3e 2ae2 593c 5e77 bf3d
00000040: bf13 e13d ba95 9f3d a56a 263d 586f abbd
00000050: 94d5 c1bc f204 89bc 5fdc f7bb eb1c 0dbe
00000060: 30fe f1bd 5322 08be c956 883d 5087 a23c
00000070: 9af7 a1bd 915d 9abd 9958 ca3d 9b42 263d
00000080: 5579 623c b1ea a1bd 2b6a ab3d 9c97 973d
00000090: 2299 0bbe 0921 973d 766b f9bd 4116 893d
000000a0: 1ebe 063e 4115 eb3d 17a2 8a3d 2743 6bbd
000000b0: 96aa e0bd f452 e2bc 73e0 16be 5a27 4bbd
000000c0: a1f7 0ebc 2e84 c5bd 766f 85bd d158 e93d
000000d0: 3320 0d3e 1630 48bd 4622 313d 428c 993d
000000e0: 2e28 d8bd 5c0e 99bd a135 d5bd 9948 b3bd
000000f0: e823 213d 58f4 ebbb 34f4 023e 7e53 4ebd
00000100: f8ca 073e 12a7 d8bd 670c 85bd a561 e3bc
00000110: 1ad7 153d c8e8 613d 3e3f fa3d f525 dbbc
00000120: 8df8 2d3d f122 3dbc 1be5 153e beac f03d
00000130: 7a86 8b3d 2581 d4bd fd36 c93d 5fe4 eabd
00000140: d7b4 9dbd e4e3 d5bd 3718 c2bd 33db febd
00000150: c3b6 1bbc 7324 9e3d c2a8 1dbd 3ef5 85bd
00000160: 19da a5bd da27 e4bd c3bd 9c3c bbb5 5c3d
00000170: 0ce7 13be 1fb6 d73d b607 64bc ffa4 8f3d
00000180: 56d4 31bd 9f73 0dbe 50f9 853d 1425 c5bc
00000190: 8478 f63d 4a23 853c 1fd6 3f3d d076 d6bd
000001a0: dc4f d43d 4daf ad3c b3dd d6bc 7b0d 723d
000001b0: 4782 953d 0557 0e3e 02bc 9fbc 89a3 8c3d
000001c0: 6640 fb3d 8f13 ddbd 2769 603d d2c1 053c
000001d0: 0316 963d 76cb 673c e4f8 c1bc 3584 71bc
000001e0: 1c11 f93b 374d d13d aad8 d73d 7bc1 b1bd
000001f0: 5606 61bc 0c02 96bd de17 b13d a667 3f3d
00000200: dee0 f23d f2f9 b93d 0445 eebd 0d21 e23d
00000210: 81ca de3c 9bac 213d e43b 053e c9b1 0abe
00000220: fd08 e2bc 71b5 d03c e2a6 0d3c 8740 83bd
00000230: 8073 8dbd b883 9e3d 3cc2 84bd 09e5 43bd
00000240: 67d7 dc3d 7083 4cbd b638 bd3d e83b c0bd
00000250: 0c2e be3d 6c93 e2bd b88e c53d 4deb 42bd
00000260: 4b9e 36bc 0d15 05be 30cd 103e 5daf 64bc
00000270: 3d71 7abc 6f33 cfbd 5a6b 053e ad1b ec3d
00000280: 0529 c13c 76c2 a13d f9fe a3bc 86ae fe3d
00000290: 8c7c 65bd bbaa 513d 9236 a8bc 576f 6fba
000002a0: e868 0cbd 095f f73c e2d0 8b3c a2ee c83d
000002b0: c741 ab3d 8d40 783d 52c7 ffbc e285 173e
000002c0: 16e5 bc3b d880 a83d 03b2 b03d eb02 b9bc
000002d0: 9c43 d1bd 05d6 ae3d 0851 d0bc 1809 e7bc
000002e0: 1559 ebbd a6f0 e6bd 330d d8bd ae0b adbd
000002f0: 304c db3c 1786 0a3d ae90 a7bc 7374 c23d
00000300: 2732 f4bd 459c 0cbe f6f0 eebc 11e4 0cbd
00000310: 4589 a0bd 30d6 5cbd da18 d8bd ef6c 853c
00000320: 68c2 5b3c dd37 74bd 6792 07bd 3485 01bd
00000330: 38c1 b0bd 439b c5bc 016d afbc 89b1 d13d
00000340: 3915 01be 189c 70bd ee52 993d dbc7 32bb
00000350: 261f debd f747 9e3d c49d f03d 2b39 903d
00000360: baf4 b6bd 29e4 623d c123 96bd 4edf febd
00000370: 5873 05be f489 1d3d b2d3 04be f73b 933d
00000380: ac46 d03d dc7a 68bc 3257 ddbd cf42 cabd
00000390: 8b2c f7bc 1058 9bbd 7b94 10bd 324f cd3d
000003a0: d16c 0fbc bc1b b23c 8689 ae3d e41e 2b3c
000003b0: 5d85 c6bc f014 0cbe 6e3c 9ebc eaeb 053e
000003c0: c114 2fbd bffb c5bd 3cba ed3d dd89 58bb
000003d0: 854b c53d 05b9 c6b9 db15 42bd 404b 05bd
000003e0: 90bb b13d 73a0 c8bd d840 e13d 354f 0dbe
000003f0: ee6a 84bd 4658 0ebe c03d dc3d c470 12be

bias f4 [50]
-0.082680084 -0.03851426 -0.083657146 0.0011994735 0.058217786 0.017878463 0.004763837 0.10872752
-0.0846606 -0.025839213 0.11187866 0.07850809 0.011695763 0.0054170676 0.0776328 -0.07779557
-0.04599589 -0.081579335 0.07601076 0.1452998 -0.12710205 0.041685794 0.13264516 0.11754052
-0.024363194 -0.12597798 0.07327739 -0.040788166 0.06447947 -0.018287282 0.00874757 0.042790044
-0.004201274 -0.11606378 0.04010078 -0.08754869 0.04965866 -0.075544454 0.062141523 -0.06339004
-0.06327865 0.071649395 -0.068725415 -0.04685935 0.13605283 -0.10328611 0.06465052 -0.038486272
0.09130277 0.07014092
00000000: 2d54 a9bd 21c1 1dbd 7054 abbd a737 9d3a
00000010: c675 6e3d db75 923c f619 9c3b 89ac de3d
00000020: 8962 adbd c2ac d3bc a420 e53d d9c8 a03d
00000030: 969f 3f3c a881 b13b f2fd 9e3d 4953 9fbd
00000040: 3066 3cbd 1113 a7bd 88ab 9b3d 79c9 143e
00000050: 0a27 02be b9be 2a3d 22d4 073e 16b9 f03d
00000060: 5295 c7bc 5f00 01be 7512 963d 7e11 27bd
00000070: d00d 843d 36cf 95bc f851 0f3c 9d44 2f3d
00000080: d7aa 89bb d9b2 edbd b740 243d ba4c b3bd
00000090: e166 4b3d 0db7 9abd 1c88 7e3d a3d2 81bd
000000a0: 3d98 81bd ebbc 923d e9bf 8cbd 97ef 3fbd
000000b0: 6f51 0b3e ab87 d3bd 7e67 843d c8a3 1dbd
000000c0: f2fc ba3d 0ba6 8f3d

weight f4 [50, 50]
-0.13883658 -0.008711682 0.097365506 -0.077143855 0.049147535 -0.01640894 -0.093922004 0.09598633
0.1366149 0.038020317 0.08878219 -0.04526474 -0.0666298 -0.14309978 0.0749884 -0.13933322
0.083042674 0.111947656 -0.035658907 0.09120475 -0.14584173 0.04677687 -0.026091795 -0.004872553
0.11589939 0.09201519 -0.03030402 -0.07238792 0.05421754 -0.06421893 -0.017011765 -0.052402116
-0.10564931 -0.12904413 -0.03382042 0.084863715 -0.12841742 -0.09611364 0.10586454 -0.14786112
-0.112921886 -0.123510286 0.02214916 -0.11598061 0.08062742 -0.00011893849 -0.06392556 -0.004489138
0.06640267 -0.039362162 -0.106389634 0.14526097 0.0685859 -0.021591142 0.0120706 0.12742205
0.08517182 -0.08285369 0.021041024 0.012912353 -0.100296505 -0.061582 -0.109288745 -0.025876032
-0.12847342 -0.040234186 -0.018457223 0.08857098 -0.010750119 0.008544856 0.0917648 -0.13073051
-0.0970609 0.046033792 -0.011325701 0.039880015 0.040129863 -0.14074144 0.04131377 -0.012365097
-0.06039319 -0.02478837 -0.06234719 0.10836849 -0.09185307 -0.08755229 0.11060613 0.058792844
0.06915338 0.046097368 -0.1325223 -0.056903467 -0.010241852 0.11982711 -0.046843536 0.040121753
-0.039330475 -0.040844735 -0.055097338 -0.041440636 -0.036184896 0.10573993 0.07341106 0.022867141
-0.048768852 0.033744667 0.08398314 0.024958948 0.030295007 -0.1243096 -0.0021909697 0.13235341
-0.050967287 -0.047378834 0.0026088462 0.118348174 0.1076487 -0.14855231 -0.078954816 -0.01909575
0.009968295 0.0034835075 0.03141325 -0.045373082 0.048747323 -0.0684867 0.021252597 -0.030887898
0.05260343 0.05906843 -0.108803354 -0.050775684 -0.016834809 0.07601523 0.055567857 -0.12246453
-0.028678881 -0.15912934 -0.031963054 0.1299496 -0.10837356 -0.043216076 -0.11303813 0.11825648
0.055248663 0.014427725 0.02641446 0.008968337 -0.08390585 0.11396379 0.077951886 0.032074463
-0.08566949 0.056364637 -0.049629144 0.13347152 0.03794962 -0.11711783 0.042319484 -0.11822326
-0.023129579 -0.041489664 -0.06695469 -0.13084963 -0.012200021 -0.04241632 0.023503013 0.008038582
0.110454015 -0.10214601 0.08279784 0.09288245 0.09679602 -0.023666203 0.0069864583 -0.007709176
0.13552073 0.049951747 -0.03721999 -0.016481938 0.047267508 0.061648373 0.04907233 -0.12455866
0.05471472 -0.045931436 0.025052015 -0.097024776 -0.070531525 0.02240767 0.046896126 0.11055309
0.1322597 -0.12952094 0.01160742 -0.02095883 0.12650576 0.06342936 -0.0197364 -0.11618231
-0.045462303 -0.107828386 0.03370895 0.1061826 -0.010393583 -0.042787127 -0.027409313 -0.10545349
-0.08205659 0.06932933 -0.0014681306 0.007683437 0.042545054 0.023891078 0.07235757 -0.013048521
0.12151836 0.08338121 0.07760114 -0.14880711 -0.0038957961 0.11233661 -0.07645204 0.13243914
0.005215414 0.024437258 -0.05301253 0.13430046 -0.09263047 0.099475935 0.022001766 0.011973174
0.07107265 -0.09260285 0.0032349522 0.03219285 0.077718444 -0.06710125 0.062304508 -0.050874427
0.08338748 0.1378551 -0.12268842 -0.029161895 -0.029272225 -0.093554005 0.07561189 0.05684277
0.011442135 -0.033108108 0.04932079 -0.011826898 0.007506963 -0.06904414 -0.047124375 0.073148616
00000000: 2d2b 0ebe 71bb 0ebc 9167 c73d 99fd 9dbd
00000010: ed4e 493d 0b6c 86bc 2e5a c0bd 7b94 c43d
00000020: c7e4 0b3e 31bb 1b3d 70d3 b53d 8567 39bd
00000030: 3475 88bd c088 12be 8593 993d 5ead 0ebe
00000040: 4712 aa3d d044 e53d 130f 12bd 8ec9 ba3d
00000050: 8957 15be 1a99 3f3d 76be d5bc f0a9 9fbb
00000060: a95c ed3d 7672 bc3d 2340 f8bc 1e40 94bd
00000070: 3613 5e3d 3785 83bd 425c 8bbc 9aa3 56bd
00000080: aa5e d8bd 2524 04be 4887 0abd 07cd ad3d
00000090: db7f 03be 3ad7 c4bd 82cf d83d e868 17be
000000a0: 9743 e7bd f6f2 fcbd 2872 b53c 3e87 edbd
000000b0: fd1f a53d 9e6e f9b8 67eb 82bd 9e19 93bb
000000c0: 20fe 873d 383a 21bd cfe2 d9bd 4bbf 143e
000000d0: c476 8c3d e8df b0bc c4c3 453c ed7a 023e
000000e0: 906e ae3d 32af a9bd 3a5e ac3c 558e 533c
000000f0: 4168 cdbd 683d 7cbd c7d2 dfbd f9f9 d3bc
00000100: 898e 03be 9acc 24bd 9a33 97bc b464 b53d
00000110: 4421 30bc b9ff 0b3c 2fef bb3d 38de 05be
00000120: ddc7 c6bd ee8d 3c3d 6f8f 39bc 3a59 233d
00000130: 365f 243d 861e 10be a138 293d fa96 4abc
00000140: d95e 77bd fb10 cbbc c45f 7fbd 4df0 dd3d
00000150: 761d bcbd 9d4e b3bd 7785 e23d c4d0 703d
00000160: 4aa0 8d3d 98d0 3c3d edb3 07be 9c13 69bd
00000170: 71cd 27bc ea67 f53d 02df 3fbd b556 243d
00000180: fe18 21bd cf4c 27bd bfad 61bd a8bd 29bd
00000190: 9d36 14bd 2d8e d83d 8a58 963d df53 bb3c
000001a0: d9c1 47bd d937 0a3d 5aff ab3d b576 cc3c
000001b0: 3c2d f83c 0896 febd 5f96 0fbb a787 073e
000001c0: 13c3 50bd 4f10 42bd 2df9 2a3b 8760 f23d
000001d0: ec76 dc3d 191e 18be 10b3 a1bd b16e 9cbc
000001e0: 0f52 233c 8f4b 643b 2eab 003d 20d9 39bd
000001f0: 46ab 473d c142 8cbd ed19 ae3c 9e08 fdbc
00000200: b276 573d bdf1 713d 4bd4 debd 2afa 4fbd
00000210: 27e9 89bc dfad 9b3d 1f9b 633d afce fabd
00000220: f9ef eabc cdf2 22be b1eb 02bd 8211 053e
00000230: f5f2 ddbd 5703 31bd 8980 e7bd 7430 f23d
00000240: 6c4c 623d 4462 6c3c 2363 d83c efef 123c
00000250: d5d6 abbd d965 e93d 3da5 9f3d 8360 033d
00000260: 7c73 afbd 9bde 663d ee47 4bbd c2ac 083e
00000270: 1071 1b3d 79db efbd 3257 2d3d 091f f2bd
00000280: 3e7a bdbc 11f1 29bd 8a1f 89bd 72fd 05be
00000290: 99e2 47bc bcbc 2dbd 6489 c03c 42b4 033c
000002a0: b735 e23d ed31 d1bd ea91 a93d 2739 be3d
000002b0: fe3c c63d a0df c1bc a9ee e43b 419d fcbb
000002c0: f2c5 0a3e 349a 4c3d fd73 18bd 2105 87bc
000002d0: 939b 413d 0183 7c3d 1100 493d 9c18 ffbd
000002e0: 8b1c 603d 9a22 3cbd e239 cd3c edb4 c6bd
000002f0: d572 90bd 4a90 b73c 2716 403d a969 e23d
00000300: 166f 073e 23a1 04be 0c2d 3e3c dab1 abbc
00000310: ba8a 013e 41e7 813d 3bae a1bc fef0 edbd
00000320: ae36 3abd 21d5 dcbd 6512 0a3d 4376 d93d
00000330: d949 2abc 8e41 2fbd 7f89 e0bc 00f8 d7bd
00000340: 490d a8bd 89fc 8d3d 4a6e c0ba 57c5 fb3b
00000350: b943 2e3d 39b7 c33c 3530 943d 77c9 55bc
00000360: 9ede f83d c5c3 aa3d 59ed 9e3d e460 18be
00000370: 9d50 7fbb bd10 e63d e392 9cbd 209e 073e
00000380: 10e6 aa3b a530 c83c ab23 59bd 0f86 093e
00000390: 0bb5 bdbd 0aba cb3d 0c3d b43c 222b 443c
000003a0: 8a8e 913d 90a6 bdbd 7e01 543b a6dc 033d
000003b0: d92a 9f3d 616c 89bd 0333 7f3d b461 50bd
000003c0: 0ec7 aa3d e329 0d3e 1144 fbbd ede4 eebc
000003d0: 4ecc efbc 3e99 bfbd 68da 9a3d f7d3 683d
000003e0: cb77 3b3c 5e9c 07bd 9904 4a3d 9bc5 41bc
000003f0: f8fc f53b 0467 8dbd 7d05 41bd f1ce 953d

bias f4 [50]
-0.013465655 -0.024551567 -0.043351732 -0.12625818 0.0096716415 -0.12184203 -0.12168509 -0.13874288
-0.12206731 -0.037420176 0.12602562 0.045585018 0.13732368 0.09594618 0.020255413 -0.09100072
-0.084891066 0.07619772 -0.064773194 0.114841364 0.14374714 0.07927464 0.13278085 0.09062081
0.12635116 0.11530681 0.14120664 0.02602873 0.07637443 0.055457596 0.12128307 -0.010912741
-0.10403089 0.13612409 -0.014437487 0.0008542031 0.121564835 0.13437416 -0.11688624 0.13971508
0.0025801726 0.12708157 0.12336657 0.10965128 -0.107671976 0.10727146 -0.007896421 0.1384546
-0.016542751 -0.13851938
00000000: 0d9f 5cbc 5e20 c9bc 9691 31bd d349 01be
00000010: ce75 1e3c 5088 f9bd 0836 f9bd 9d12 0ebe
00000020: 6dfe f9bd e645 19bd dc0c 013e 5bb7 3a3d
00000030: 949e 0c3e 6e7f c43d aeee a53c 965e babd
00000040: 5edb adbd 8d0d 9c3d cfa7 84bd f331 eb3d
00000050: 7332 133e be5a a23d b4f7 073e 6797 b93d
00000060: 3362 013e fa25 ec3d 7998 103e 343a d53c
00000070: 326a 9c3d 8127 633d 4263 f83d 5acb 32bc
00000080: 260e d5bd 1d64 0b3e 368b 6cbc 9aec 5f3a
00000090: fcf6 f83d 6199 093e 0e62 efbd 7811 0f3e
000000a0: 1d18 293b ac21 023e 9da7 fc3d da90 e03d
000000b0: 2083 dcbd 24b1 db3d fd5f 01bc 0bc7 0d3e
000000c0: aa84 87bc 06d8 0dbe

weight f4 [50, 50]
-0.10123388 -0.029842513 0.13587354 0.09043634 -0.053661417 0.13138565 0.042318877 -0.05203449
-0.06513085 0.09350578 -0.02984909 0.12936118 -0.12356196 0.084000215 -0.13684534 -0.08555799
0.09910109 0.008431096 0.07416493 0.11821003 -0.029286643 -0.06043603 -0.06136446 0.04730937
0.049245104 -0.081803806 -0.09457662 -0.0155394 0.015287983 0.13747948 -0.11117151 -0.12863037
-0.037722085 0.040890355 -0.057772838 -0.053972192 0.040051516 -0.02609199 -0.03248747 0.1128486
-0.026142212 0.13302518 -0.0920557 0.08908678 0.06759721 0.05945868 -0.008394668 -0.12765421
-0.061050363 0.03127168 0.13764048 -0.02560794 -0.13221945 0.135963 -0.004327675 -0.117879316
0.10242913 0.050753538 0.1329779 0.07509229 -0.043788027 -0.017741794 0.022789482 -0.12738183
0.11646285 0.08838138 0.14618187 0.006353578 0.05715928 -0.10163012 0.03928199 -0.11043145
-0.12260848 -0.023682512 0.056233354 -0.081915684 -0.06574051 -0.0729012 0.0011788569 0.020794291
-0.13133714 -0.11790782 -0.07619082 -0.11359114 0.014146218 0.12566282 0.056256913 -0.121168
-0.043342784 -0.06268997 -0.068433404 0.035928827 0.12068213 0.015977364 -0.039948795 0.03325881
0.12696855 -0.07844819 -0.042245653 -0.07692123 -0.11178869 -0.061439272 0.053308863 0.016907712
0.10762531 -0.044203248 0.15687066 -0.02643867 -0.099515475 0.018022727 0.06565874 0.040068306
0.02514915 -0.07624243 0.086321615 0.1131174 0.10161615 0.012780232 0.034884486 0.047973886
0.027766714 -0.077976175 -0.12838301 0.09189306 0.10489551 -0.1080736 -0.05946742 -0.06963009
0.088956304 0.084181495 -0.14305882 0.0013891151 -0.122357346 0.12174314 -0.05370627 0.116169535
-0.0011805792 -0.113367766 0.12313702 0.13752387 -0.033442814 0.029705144 0.118866965 0.09924694
-0.08415603 0.089733824 -0.12992911 -0.08876842 0.11503855 0.12630165 -0.0012973454 0.096992195
0.06736545 0.07746347 -0.022983233 0.055787276 0.0031791674 0.11865976 0.0975319 0.03657047
-0.07294591 -0.11007287 -0.0878331 -0.14586127 0.035546638 0.041220754 -0.07649096 -0.013875811
0.11412964 -0.0007295968 0.010322005 -0.0687677 0.10888171 -0.0004446912 0.08077274 -0.021547347
0.037294105 -0.14988555 0.016121386 -0.065535486 0.13417307 -0.05155304 0.017179776 -0.098688826
-0.079863176 -0.0021994824 -0.095204845 -0.03404034 0.10473852 -0.14135319 0.092508055 0.13104965
-0.12530516 -0.08753955 -0.074875325 0.13145305 -0.10032891 -0.06652816 -0.092842706 -0.05877664
-0.027240595 -0.15301749 -0.09434184 -0.058880102 0.10779648 -0.05819891 -0.06156001 0.07774981
-0.040365454 0.06770549 0.0461004 -0.025678275 -0.064376324 -0.10540437 0.0023927577 0.034684647
0.06065657 -0.12112053 -0.028195484 -0.08965188 0.051574532 0.09676957 -0.07841069 0.050283227
-0.09914198 0.05195125 -0.05268279 -0.12040763 -0.025097042 -0.14308459 -0.054975126 -0.07265665
-0.11378996 -0.0033945597 -0.019530727 -0.06738198 -0.045543816 -0.0057122624 0.1312067 0.049687143
0.042458918 0.11739619 -0.024827711 -0.08817149 0.06996867 -0.11005283 0.038484916 0.13082445
-0.13845257 -0.056874245 -0.060751524 0.035705578 0.12751506 -0.010637307 -0.07539733 -0.04091185
00000000: b553 cfbd 4978 f4bc 6f22 0b3e b036 b93d
00000010: 13cc 5bbd f689 063e 8f56 2d3d 1e22 55bd
00000020: 5363 85bd f57f bf3d 1486 f4bc 4277 043e
00000030: 0e0e fdbd 4e08 ac3d 2f21 0cbe 0739 afbd
00000040: 83f5 ca3d 9422 0a3c c8e3 973d 1a18 f23d
00000050: 8bea efbc c58b 77bd 4d59 7bbd 78c7 413d
00000060: 3cb5 493d c188 a7bd 63b1 c1bd f898 7ebc
00000070: 737a 7a3c 6cc7 0c3e e3ad e3bd aeb7 03be
00000080: 7982 1abd a57c 273d 36a3 6cbd f211 5dbd
00000090: 0f0d 243d debe d5bc 9511 05bd 2b1d e73d
000000a0: 3128 d6bc c137 083e b387 bcbd 2173 b63d
000000b0: 6870 8a3d f28a 733d ca89 09bc c9b7 02be
000000c0: f20f 7abd bc16 003d a0f1 0c3e bec7 d1bc
000000d0: 8964 07be e239 0b3e 2bcf 8dbb b66a f1bd
000000e0: 5dc6 d13d f1e2 4f3d 5c2b 083e fdc9 993d
000000f0: 135b 33bd 3d57 91bc 02b1 ba3c 6270 02be
00000100: 1384 ee3d 4c01 b53d b3b0 153e ad31 d03b
00000110: d91f 6a3d 7423 d0bd 27e6 203d e229 e2bd
00000120: 281a fbbd d401 c2bc f254 663d 69c3 a7bd
00000130: f6a2 86bd 394d 95bd e083 9a3a ca58 aa3c
00000140: 3e7d 06be a879 f1bd ef09 9cbd 79a2 e8bd
00000150: 8ac5 673c c1ad 003e a66d 663d ee26 f8bd
00000160: 3488 31bd 9963 80bd d026 8cbd 1b2a 133d
00000170: 3128 f73d f6e2 823c 59a1 23bd 643a 083d
00000180: 0b04 023e 72a9 a0bd c709 2dbd e188 9dbd
00000190: 78f1 e4bd bfa7 7bbd 655a 5a3d 0b82 8a3c
000001a0: a96a dc3d 770e 35bd b4a2 203e e995 d8bc
000001b0: c5ce cbbd 66a4 933c 1778 863d aa1e 243d
000001c0: 9705 ce3c fe24 9cbd 63c9 b03d 18aa e73d
000001d0: 211c d03d 2e64 513c 09e3 0e3d 4480 443d
000001e0: 0577 e33c f9b1 9fbd d676 03be 6e32 bc3d
000001f0: 75d3 d63d b155 ddbd 1c94 73bd 389a 8ebd
00000200: b92e b63d 5967 ac3d 037e 12be f812 b63a
00000210: 7d96 fabd 7854 f93d 1bfb 5bbd 4bea ed3d
00000220: aabd 9aba 5c2d e8bd 432f fc3d 0fd3 0c3e
00000230: 55fb 08bd 3458 f33c 8670 f33d fb41 cb3d
00000240: ff59 acbd 5ec6 b73d 230c 05be 38cc b5bd
00000250: 5599 eb3d 3855 013e b00b aaba d8a3 c63d
00000260: e6f6 893d 2ba5 9e3d 5547 bcbc 3381 643d
00000270: 9459 503b e303 f33d cebe c73d ebca 153d
00000280: aa64 95bd e36d e1bd d7e1 b3bd a85c 15be
00000290: 5a99 113d 18d7 283d 4ba7 9cbd 5f57 63bc
000002a0: cdbc e93d 6a42 3fba a01d 293c 14d6 8cbd
000002b0: 60fd de3d 7125 e9b9 2e6c a53d 1084 b0bc
000002c0: b4c1 183d 997b 19be ff10 843c 7837 86bd
000002d0: aa64 093e 4829 53bd 9abc 8c3c 5e1d cabd
000002e0: 4e8f a3bd 3125 10bb c2fa c2bd e26d 0bbd
000002f0: 2681 d63d e4be 10be dd74 bd3d e131 063e
00000300: ff4f 00be f047 b3bd 3c58 99bd a19b 063e
00000310: 3e79 cdbd ea3f 88bd 5124 bebd c6bf 70bd
00000320: ab27 dfbc 9eb0 1cbe 4b36 c1bd 432c 71bd
00000330: 67c4 dc3d fb61 6ebd 5926 7cbd 4b3b 9f3d
00000340: 3f56 25bd 2da9 8a3d c6d3 3c3d 3f5b d2bc
00000350: bcd7 83bd 3fde d7bd d0cf 1c3b 7d11 0e3d
00000360: 0673 783d 0a0e f8bd 37fa e6bc 689b b7bd
00000370: d13f 533d 202f c63d c995 a0bd c9f5 4d3d
00000380: f30a cbbd d5ca 543d e9c9 57bd 4798 f6bd
00000390: 5098 cdbc c484 12be 992d 61bd 02cd 94bd
000003a0: b60a e9bd 4377 5ebb e7fe 9fbc 90ff 89bd
000003b0: 278c 3abd ee2d bbbb 0d5b 063e bf84 4b3d
000003c0: 67e9 2d3d 6a6d f03d 7c63 cbbc 4193 b4bd
000003d0: bc4b 8f3d 6163 e1bd 5ca2 1d3d d8f6 053e
000003e0: 83c6 0dbe f8f4 68bd 97d6 78bd 0340 123d
000003f0: 4f93 023e 1948 2ebc ea69 9abd 2f93 27bd

bias f4 [50]
0.06852953 -0.14110771 0.076381445 0.088963136 0.10920788 -0.13020477 -0.03715591 -0.08088501
-0.11184818 2.48493e-06 -0.1316202 0.017548803 0.113530375 -0.11602934 0.118425705 -0.008122455
0.070422396 -0.09093286 -0.13695703 0.08088652 0.07895113 0.08164734 -0.13053419 -0.025105787
0.088542536 0.046228442 -0.093488045 0.09039401 -0.042210836 -0.0013923425 -0.12960106 0.11869068
0.028626118 0.13883749 -0.04216575 -0.061283283 -0.05634171 0.09721308 -0.1109381 -0.020124476
0.016741155 -0.0087869745 0.11768342 -0.050324805 -0.0339443 0.1306223 -0.074715525 -0.09902744
0.07366826 -0.05387444
00000000: 3659 8c3d 8a7e 10be e06d 9c3d 4e32 b63d
00000010: 62a8 df3d 6654 05be cc30 18bd 0aa7 a5bd
00000020: a910 e5bd c6c2 2636 72c7 06be 82c2 8f3c
00000030: 9d82 e83d caa0 edbd 2d89 f23d 0c14 05bc
00000040: 9e39 903d 023b babd 773e 0cbe d5a7 a53d
00000050: 21b1 a13d b836 a73d c1aa 05be a7aa cdbc
00000060: ca55 b53d 095a 3d3d a976 bfbd 7f20 b93d
00000070: 45e5 2cbd 437f b6ba 24b6 04be 1914 f33d
00000080: 5281 ea3c 6a2b 0e3e feb5 2cbd 2e04 7bbd
00000090: 91c6 66bd a717 c73d 8433 e3bd 16dc a4bc
000000a0: bf24 893c 3ef7 0fbc 0104 f13d 6221 4ebd
000000b0: 2e09 0bbd dac1 053e 7404 99bd e6ce cabd
000000c0: 62df 963d 72ab 5cbd

weight f4 [50, 50]
0.070906945 -0.025346944 0.044497706 -0.050920494 -0.14551605 0.016601982 0.063983545 0.024448289
-0.13968752 -0.049894754 0.12202307 0.04233201 -0.030687727 0.08581416 -0.041137595 -0.13207406
0.0058944128 0.005956371 0.05327083 -0.085608855 -0.034580104 0.0006424311 -0.013867046 0.14040099
0.12838295 -0.11639794 -0.07162736 -0.07439001 -0.11445783 -0.092077 -0.09631143 0.09332208
0.10399815 -0.10057349 0.05780663 0.056101773 0.11817335 0.002239065 0.055800717 -0.0042920033
-0.025748804 -0.046673637 0.013236336 0.071561925 -0.060228884 0.085915044 -0.14134462 0.08542889
0.06194674 0.07148764 -0.12734418 -0.021792574 -0.04093685 -0.07662135 -0.103949316 0.11730639
0.068945 0.023338929 0.112176895 -0.043466136 -0.066710226 0.11819442 0.1054734 -0.10351953
-0.019475747 -0.071468286 -0.08421102 0.04345691 0.027290829 0.11198345 -0.106896564 0.0114938775
0.13361444 -0.04429058 -0.114411905 -0.029284725 0.016984215 -0.11469587 0.05930649 -0.06754091
0.013274144 -0.06467067 -0.12830426 -0.141554 -0.046829347 0.12645176 -0.013111495 -0.122735955
0.018642455 0.049004428 -0.033425286 0.111573175 0.14936103 -0.0022012596 0.011382979 -0.1172965
0.10074463 0.047993906 -0.023746552 -0.09315873 0.06676382 -0.076795064 -0.11973629 -0.009487772
0.045866553 -0.12501876 -0.11528191 0.009834167 0.08583719 -0.11537934 0.13159147 0.12502897
-0.13445608 -0.09341856 -0.084243536 0.08371069 0.11496316 -0.0027456086 -0.05989793 -0.067983165
-0.08254277 -0.08722808 0.07564085 0.09887412 -0.1209116 -0.04800971 0.09871661 -0.057062056
-0.014797947 0.085083365 -0.122329205 -0.111397676 0.12199231 -0.086443 0.04542418 0.10148136
-0.03461663 0.053912144 -0.024398925 0.07581235 -0.10446145 -0.0005315279 0.11552796 -0.076433204
0.07819999 -0.017593931 0.02828161 0.079552755 -0.044632934 -0.07574864 -0.017328588 -0.031083027
-0.013950886 0.05204241 0.085308984 -0.014312283 -0.009449781 0.07796603 -0.13883951 0.033183545
0.090694234 -0.010037232 0.07362954 0.062546045 0.12772979 -0.035775255 0.053589858 -0.010316593
-0.037654437 0.015980735 0.03745417 0.05196933 0.07033533 -0.087582834 0.10782059 0.0019893993
0.03477556 -0.12763931 -0.1259974 0.034798212 0.14707148 0.027562194 -0.12677489 0.12791523
0.029911976 0.010599947 -0.084667265 -0.0072179907 -0.08033665 0.10011732 0.058431577 -0.006775084
0.077647686 0.122396246 0.1320565 0.05484207 -0.10432219 -0.12346755 -0.027206266 0.020913495
0.012762809 -0.10064871 -0.10732735 0.050450988 -0.05091301 0.037311528 0.09898914 0.0926646
-0.10953461 -0.09343584 -0.051297512 0.089580595 -0.10947945 0.1054869 0.020571915 0.06280758
0.038155567 0.007236435 -0.048196692 0.116345085 0.097390264 -0.105086915 0.13255276 0.10957805
0.012711658 0.08174387 -0.10572832 0.083839305 0.08876438 -0.0970529 -0.11537587 0.106112346
0.040627703 0.012620242 0.112974286 0.10311929 -0.045842655 -0.08106766 0.10017234 0.08052828
-0.035086814 -0.03895357 0.09245617 0.06659825 0.12389805 0.12473352 -0.022419851 -0.10636098
-0.06888266 -0.095541395 0.060210835 -0.119388305 0.12692471 -0.10868021 -0.08767416 0.039125662
00000000: a937 913d 65a4 cfbc 3a43 363d 0292 50bd
00000010: 2902 15be e100 883c ce09 833d c747 c83c
00000020: 3f0a 0fbe 715e 4cbd 3be7 f93d 5464 2d3d
00000030: d464 fbbc 56bf af3d e57f 28bd 6c3e 07be
00000040: eb25 c13b a92d c33b 8432 5a3d b253 afbd
00000050: dea3 0dbd d268 283a 9b32 63bc 47c5 0f3e
00000060: d276 033e 0b62 eebd 5eb1 92bd ca59 98bd
00000070: de68 eabd de92 bcbd ed3e c5bd a61f bf3d
00000080: fbfc d43d 79f9 cdbd a5c6 6c3d f9ca 653d
00000090: df04 f23d 47bd 123b 4b8f 643d efa3 8cbb
000000a0: 28ef d2bc db2c 3fbd 38dd 583c 0f8f 923d
000000b0: 90b2 76bd 3af4 af3d a5bc 10be 58f5 ae3d
000000c0: ddbb 7d3d 1d68 923d 8366 02be 5786 b2bc
000000d0: 66ad 27bd a8eb 9cbd 61e3 d4bd 553e f03d
000000e0: 0933 8d3d 4831 bf3c 00bd e53d 8c09 32bd
000000f0: 5f9f 88bd eb0f f23d 7002 d83d 0c02 d4bd
00000100: 9a8b 9fbc f75d 92bd d476 acbd dfff 313d
00000110: 0491 df3c 9457 e53d 96ec dabd d150 3c3c
00000120: 39d2 083e 0a6a 35bd ca50 eabd 85e6 efbc
00000130: 7b22 8b3c abe5 eabd 5deb 723d e352 8abd
00000140: cc7b 593c 0e72 84bd 3162 03be 88f3 10be
00000150: 21d0 3fbd 927c 013e 99d1 56bc fd5c fbbd
00000160: 10b8 983c deb8 483d f4e8 08bd 7a80 e43d
00000170: 19f2 183e 0243 10bb ad7f 3a3c 2639 f0bd
00000180: 3353 ce3d 4295 443d 2188 c2bc 01ca bebd
00000190: 78bb 883d bb46 9dbd 4d38 f5bd 9a72 1bbc
000001a0: 91de 3b3d eb04 00be ec18 ecbd 7c1f 213c
000001b0: 69cb af3d 014c ecbd eabf 063e 9807 003e
000001c0: dbae 09be 3b52 bfbd e087 acbd 8370 ab3d
000001d0: ce71 eb3d abef 33bb 8857 75bd c23a 8bbd
000001e0: 2f0c a9bd a3a4 b2bd 97e9 9a3d 847e ca3d
000001f0: 80a0 f7bd d4a5 44bd ef2b ca3d e7b9 69bd
00000200: 1773 72bc 3040 ae3d bc87 fabd 7724 e4bd
00000210: 1bd7 f93d 0709 b1bd b40e 3a3d 76d5 cf3d
00000220: 2bca 0dbd fbd2 5c3d 41e0 c7bc 8143 9b3d
00000230: e2ef d5bd 3c56 0bba ec99 ec3d 0389 9cbd
00000240: 5127 a03d 2621 90bc d6ae e73c 8eec a23d
00000250: 06d1 36bd 1a22 9bbd aff4 8dbc d5a1 febc
00000260: 4292 64bc 6c2a 553d 7ab6 ae3d 117e 6abc
00000270: 41d3 1abc a7ac 9f3d f22b 0ebe 78eb 073d
00000280: e6bd b93d 3473 24bc 16cb 963d 2418 803d
00000290: 99cb 023e 1389 12bd 0a81 5b3d ed06 29bc
000002a0: 8a3b 1abd 08ea 823c 8b69 193d cbdd 543d
000002b0: f80b 903d a15e b3bd 0bd1 dc3d 9560 023b
000002c0: d170 0e3d e1b3 02be 7605 01be 9288 0e3d
000002d0: e899 163e 1cca e13c 47d1 01be 36fc 023e
000002e0: f609 f53c 66ab 2d3c 0866 adbd e584 ecbb
000002f0: 8b87 a4bd 4f0a cd3d f355 6f3d 8601 debb
00000300: c005 9f3d e2aa fa3d d239 073e 14a2 603d
00000310: dfa6 d5bd 8edc fcbd addf debc c752 ab3c
00000320: 1a1b 513c e920 cebd 71ce dbbd b2a5 4e3d
00000330: 298a 50bd f9d3 183d d1ba ca3d f0c6 bd3d
00000340: ae53 e0bd 4a5b bfbd 571d 52bd 0876 b73d
00000350: c336 e0bd 8409 d83d 6f86 a83c 43a1 803d
00000360: 0349 1c3d 9e1f ed3b e569 45bd 5546 ee3d
00000370: 8c74 c73d cf37 d7bd e9bb 073e 756a e03d
00000380: 8f44 503c 5569 a73d 1788 d8bd f1b3 ab3d
00000390: 19ca b53d acc3 c6bd 2f4a ecbd 6e51 d93d
000003a0: 3c69 263d 22c5 4e3c 105f e73d 3530 d33d
000003b0: 82c5 3bbd cd06 a6bd 2827 cd3d 03ec a43d
000003c0: 31b7 0fbd c78d 1fbd a959 bd3d aa64 883d
000003d0: 43be fd3d 4a74 ff3d d6a9 b7bc c9d3 d9bd
000003e0: 5a12 8dbd 35ab c3bd a39f 763d db81 f4bd
000003f0: 8df8 013e bb93 debd 838e b3bd 3b42 203d

bias f4 [50]
-0.10792832 0.08912551 -0.112151176 -0.095930666 0.06634021 -0.13233165 -0.0055497307 -0.14003038
0.09661814 0.11099985 0.111220896 -0.08655805 -0.119694926 -0.0673035 -0.10349553 -0.09056432
-0.11009877 -0.052859683 -0.14548574 0.0537266 0.038695436 0.070520364 0.09253226 -0.045406982
0.046726406 -0.0087374775 0.1280298 0.11636153 -0.086311534 0.021042483 0.040843993 0.06711952
-0.04558182 -0.018610554 0.033115707 -0.017441448 0.13338014 -0.039941195 -0.09767681 -0.028930314
0.06249059 -0.10825531 -0.11529759 0.1466593 -0.021621678 -0.06605111 0.06811865 0.09151202
0.030723322 0.042840205
00000000: 8609 ddbd 6f87 b63d 84af e5bd 4c77 c4bd
00000010: 60dd 873d f381 07be 84da b5bb 2064 0fbe
00000020: bbdf c53d e453 e33d c8c7 e33d 5945 b1bd
00000030: 9d22 f5bd 6bd6 89bd 77f5 d3bd c979 b9bd
00000040: 777b e1bd 6583 58bd 37fa 14be 6c10 5c3d
00000050: 1b7f 1e3d fb6c 903d 8e81 bd3d acfc 39bd
00000060: 3064 3f3d a327 0fbc 3e1a 033e f44e ee3d
00000070: 1ac4 b0bd 4961 ac3c 084c 273d f575 893d
00000080: 01b4 3abd 2975 98bc 56a4 073d 5ee1 8ebc
00000090: ce94 083e 6199 23bd c80a c8bd 44ff ecbc
000000a0: 22f6 7f3d f6b4 ddbd 2521 ecbd db2d 163e
000000b0: f21f b1bc ce45 87bd ca81 8b3d a76a bb3d
000000c0: 7aaf fb3c 3679 2f3d

weight f4 [2, 50]
-0.11261887 -0.08475772 0.027091933 -0.020061715 0.033334456 0.054138668 -0.025421632 0.08936377
0.036337245 -0.01576719 -0.117858894 0.053436596 0.018040344 0.035355877 -0.13031898 -0.13521414
0.04411778 -0.113305055 -0.13997291 0.11649969 0.077127196 -0.031943537 0.029443773 0.053807367
0.06583657 -0.018258555 -0.10904253 -0.13770297 0.11982416 -0.1390204 0.107716136 -0.06866362
-0.069801316 -0.13273232 0.021511266 0.06284919 -0.069154084 -0.12213187 -0.049493525 0.123306826
0.105806716 0.12956433 0.10992825 -0.026107501 -0.14177166 -0.03615825 -0.10624401 -0.02465707
0.08821639 0.019197585 0.01399223 -0.10728507 -0.0411856 -0.102870345 0.0583176 0.030959511
0.070922315 -0.07894129 -0.015454095 0.13109325 -0.028873302 -0.04104359 -0.106864214 -0.033791475
0.10698986 -0.034917235 0.09897231 -0.1435293 -0.13639116 -0.108801685 0.1469435 -0.089332104
-0.12357429 0.12500544 0.13076387 -0.022932576 0.013301046 0.054399367 0.0016821453 -0.0010024628
0.060747392 0.028159754 0.051253926 0.10741708 -0.081514806 0.13666008 0.12824382 -0.07947573
-0.03210204 0.017034503 0.05094157 -0.08089354 0.04185219 0.06467346 -0.14299254 -0.07751053
0.10876386 -0.03347699 -0.124474704 -0.059594434
00000000: b9a4 e6bd 7595 adbd e7ef dd3c 7758 a4bc
00000010: b689 083d 82c0 5d3d 0741 d0bc 5a04 b73d
00000020: 5dd6 143d 322a 81bc 0160 f1bd 55e0 5a3d
00000030: 58c9 933c 53d1 103d 5772 05be 9375 0abe
00000040: d8b4 343d 7b0c e8bd 0f55 0fbe 6497 ee3d
00000050: ddf4 9d3d 3ad7 02bd 1134 f13c 1d65 5c3d
00000060: 53d5 863d f792 95bc b151 dfbd 0202 0dbe
00000070: 5f66 f53d 5d5b 0ebe 479a dc3d 839f 8cbd
00000080: fef3 8ebd fbea 07be 6538 b03c 13b7 803d
00000090: a8a0 8dbd 4620 fabd b9b9 4abd 4a88 fc3d
000000a0: 31b1 d83d 83ac 043e 1022 e13d 66df d5bc
000000b0: 972c 11be ac1a 14bd 7696 d9bd a0fd c9bc
000000c0: cbaa b43d 4144 9d3c ab3f 653c 46b8 dbbd
000000d0: 3bb2 28bd b0ad d2bd 70de 6e3d cd9e fd3c
000000e0: b83f 913d f9ab a1bd 2c33 7dbc 4f3d 063e
000000f0: b487 ecbc 531d 28bd a0db dabd ee68 0abd
00000100: 801d db3d 6005 0fbd ffb1 ca3d 58f9 12be
00000110: 20aa 0bbe 6bd3 debd 5b78 163e c0f3 b6bd
00000120: 8414 fdbd 6d01 003e f7e6 053e 19dd bbbc
00000130: a1ec 593c dfd1 5e3d 6e7b dc3a 1265 83ba
00000140: 42d2 783d 49af e63c a3ef 513d 7cfd db3d
00000150: 3cf1 a6bd 9ff0 0b3e 5952 033e 2cc4 a2bd
00000160: 6e7d 03bd f18b 8b3c 1ca8 503d 83ab a5bd
00000170: 346d 2b3d 8573 843d a36c 12be d7bd 9ebd
00000180: 96bf de3d 2b1f 09bd 98ec febd 4b19 74bd

bias f4 [2]
0.078953594 -0.13036488
00000000: 6cb2 a13d 5f7e 05be
