models/ltc3_model.pth (torch, 59170 bytes, 14 tensors)

weight f4 [50, 2]
0	0xbf02d347	-0.51103634
1	0x3e80cdc3	0.25156984
2	0xbead12f0	-0.3380351
3	0xbf2799ef	-0.6546926
4	0x3f25c382	0.64751446
5	0x3f07aa97	0.52994674
6	0x3e559876	0.2085894
7	0x3dad5af4	0.084646136
8	0x3e94d78b	0.29070696
9	0xbeb53e4b	-0.35399088
10	0xbef83e98	-0.48485255
11	0xbeab503f	-0.3345966
12	0xbef2dde8	-0.47434926
13	0xbe02abfb	-0.12760918
14	0xbf398bda	-0.7247902
15	0x3d2c2b27	0.04203334
16	0x3d9a52af	0.07535302
17	0x3d8560c5	0.06512598
18	0x3eeabacd	0.45845643
19	0xbe92e95f	-0.28693673
20	0x3e88c5f7	0.26713535
21	0xbc9d006e	-0.019165244
22	0xbdfe3c21	-0.124138124
23	0xbf39427a	-0.7236706
24	0xbd98bdce	-0.07458077
25	0x3e9bdc1a	0.30441362
26	0x3e23302d	0.15936346
27	0xbc6721cc	-0.014107179
28	0x3f2293c7	0.6350674
29	0x3ef44c5a	0.47714502
30	0xbe1ffcce	-0.15623781
31	0x3e01ffec	0.12695283
32	0x3ee1b11f	0.44080445
33	0xbd82877f	-0.063735
34	0xbeae163d	-0.3400134
35	0xbe8c80b6	-0.2744195
36	0x3f321bec	0.69573855
37	0xbe2014fc	-0.15633005
38	0xbf0bf6b0	-0.5467329
39	0x3f1ca48d	0.61188585
40	0x3ef054b5	0.46939626
41	0x3f1247a1	0.5714055
42	0x3da5a063	0.08087232
43	0x3f1d39ac	0.61416125
44	0xbe812a73	-0.252277
45	0xbedae026	-0.42749137
46	0x3e801bfa	0.25021344
47	0xbf12d6e9	-0.57359177
48	0xbf0e086d	-0.55481607
49	0xbf2bae14	-0.670625
50	0xbe9fbc36	-0.3119828
51	0x3e27e8b9	0.1639737
52	0x3f1fa38f	0.62358946
53	0x3e004ce0	0.12529325
54	0x3e0e175d	0.138761
55	0xbf0e39e7	-0.555571
56	0xbec36aaf	-0.3816733
57	0x3dee2c04	0.11629489
58	0x3ec5d980	0.38642502
59	0xbe586c3b	-0.21135037
60	0xbf237ca1	-0.63862044
61	0x3e3a62c9	0.18201746
62	0x3e836d1e	0.25669187
63	0xbf197a1e	-0.5995196
64	0x3f2c51b5	0.67312175
65	0xbdc638e8	-0.09678823
66	0x3f255012	0.645753
67	0xbec2c156	-0.3803813
68	0xbe59ca8d	-0.21268673
69	0xbedbfd30	-0.42966604
70	0x3ea41ca4	0.320531
71	0xbf118fd8	-0.56860113
72	0x3ed8a0eb	0.4231027
73	0x3eead3e0	0.45864773
74	0xbeb5ffb4	-0.35546649
75	0x3f0c946e	0.54913986
76	0xbebb2c52	-0.3655725
77	0xbf37c62d	-0.7178677
78	0x3ec75d3b	0.38938317
79	0x3f22508a	0.6340414
80	0x3f34afe3	0.7058088
81	0x3f1b6275	0.6069711
82	0xbeb0f4ae	-0.34561676
83	0xbf17b0bc	-0.5925405
84	0xbeeb57ef	-0.45965526
85	0x3ed3a22d	0.41334668
86	0x3d35f81f	0.04442608
87	0x3dd4a4bd	0.10382984
88	0xbd66cc37	-0.0563471
89	0xbf29ca2f	-0.6632413
90	0x3e90f53d	0.28312102
91	0x3e765148	0.24054444
92	0xbedff872	-0.43744236
93	0xbebc9843	-0.36834916
94	0x3d8bd2fc	0.068273515
95	0x3f22608f	0.63428587
96	0xbe33d934	-0.17563325
97	0xbe2cc4ac	-0.168719
98	0xbf01b42a	-0.50665534
99	0xbcc3168b	-0.02381446

bias f4 [50]
0	0x3f18cf50	0.59691334
1	0xbf26ecac	-0.6520488
2	0x3ecb3073	0.396854
3	0x3e50e5cb	0.20400159
4	0xbf01906f	-0.50611013
5	0xbeb62f17	-0.35582802
6	0x3d68292e	0.056679897
7	0xbe263c22	-0.16233876
8	0x3eda496a	0.42634135
9	0xbf246b0b	-0.64225835
10	0xbec38bcc	-0.38192594
11	0xbeedbfdd	-0.46435443
12	0xbece7ba8	-0.40328717
13	0xbe7c3cc1	-0.24632551
14	0xbe71f8d0	-0.2363007
15	0x3ef0e231	0.4704757
16	0x3e241dba	0.16026965
17	0xbf391993	-0.7230465
18	0x3ae80722	0.0017702321
19	0x3f0f582a	0.559939
20	0xbdf40ddc	-0.11916706
21	0x3ec8012a	0.39063388
22	0x3e8504b5	0.25980154
23	0x3d8f6b26	0.07002859
24	0x3ee56794	0.44805586
25	0x3f1b3744	0.60631204
26	0x3d89f76c	0.06736645
27	0x3dc0f6f4	0.094221026
28	0x3efb1969	0.49042824
29	0xbef8894e	-0.48542255
30	0xbecae136	-0.39624947
31	0x3e0d5144	0.13800532
32	0xbbf9891c	-0.0076152217
33	0xbe6cf394	-0.23139793
34	0x3e79e40e	0.24403402
35	0x3eb152f8	0.34633613
36	0x3d988de1	0.07448936
37	0x3e3ea8fc	0.1861915
38	0x3ea91bd9	0.3302906
39	0xbebc9c37	-0.36837932
40	0xbe1215b3	-0.1426609
41	0x3e833676	0.25627488
42	0x3ebe59f0	0.37177992
43	0xbf039172	-0.51393807
44	0xbe904c2c	-0.28183115
45	0x3e87edc1	0.2654858
46	0xbee070fe	-0.43836206
47	0xbf06dc62	-0.5268003
48	0xbebc4d5e	-0.36777776
49	0x3f0e6bbc	0.5563314

weight f4 [50, 50]
0	0xbb9c67ee	-0.0047731316
1	0xbd61711e	-0.055039518
2	0xbbbe68af	-0.005810819
3	0xbcbe6e2d	-0.023245895
4	0xbdf5f067	-0.12008744
5	0xbda44934	-0.08021775
6	0x3dd52159	0.10406751
7	0x3e054be3	0.1301723
8	0xbccc8e8c	-0.024970315
9	0x3e185a6d	0.14878245
10	0x3d0dc994	0.034616068
11	0xbdc455fa	-0.09586711
12	0xbdef20db	-0.116761886
13	0xbde90e21	-0.11379648
14	0xbca7521f	-0.0204249
15	0xbdc60210	-0.09668362
16	0xbd46db5a	-0.048549034
17	0x3c9c2c91	0.01906422
18	0xbcd716fb	-0.026256075
19	0xbdd4a73b	-0.10383459
20	0xbe12914b	-0.14313237
21	0xbe1649e6	-0.14676628
22	0x3cfcaf9c	0.030845456
23	0x3d75fcf8	0.060055703
24	0xbcbb4dbe	-0.022864219
25	0x3d2b0552	0.04175312
26	0xbd758e37	-0.05995008
27	0xbd38ff8d	-0.045165587
28	0xbc414ee5	-0.011798595
29	0xbd523b76	-0.051326238
30	0xbcee8784	-0.029117353
31	0x3b19884c	0.0023427187
32	0xbc985395	-0.018594543
33	0x3d363514	0.044484213
34	0x3d36af71	0.044600908
35	0x3debe266	0.115177915
36	0xbde5e409	-0.11225135
37	0x3ddd7d47	0.108149104
38	0xbcbdca41	-0.023167731
39	0x3d97441d	0.073860385
40	0x3dae300d	0.08505259
41	0xbd1fd911	-0.03902537
42	0xbd0e8043	-0.03479029
43	0xbd5f8855	-0.054573376
44	0xbdf8bf6e	-0.12145887
45	0xbdb42746	-0.08796553
46	0x3cce27f7	0.025165541
47	0xbd919906	-0.07109265
48	0x3dbaeca1	0.09127165
49	0x3dccd8c4	0.10002282
50	0x3def88fd	0.1169605
51	0x3da824f6	0.08210175
52	0x3dbe9307	0.09305387
53	0x3d272c19	0.04081354
54	0x3d8fae4f	0.070156686
55	0x3ddbd553	0.10734048
56	0xbcd46a09	-0.025929468
57	0xbdc0d68d	-0.09415922
58	0x3cd8a841	0.026447417
59	0xbd903a78	-0.07042402
60	0xbc896ced	-0.016775573
61	0x3bbc416c	0.0057451036
62	0xbd8bffd2	-0.06835903
63	0x3d9edb15	0.0775663
64	0x3ca2b27c	0.019860499
65	0x3d0c5a5c	0.03426586
66	0xbded238f	-0.11579048
67	0xbd02d1e4	-0.03193845
68	0xbdcb6971	-0.09932221
69	0x3dc8b244	0.097996265
70	0x3d08516c	0.033280775
71	0x3dedbe21	0.1160853
72	0xbd2a8549	-0.041631017
73	0x3da55b11	0.0807401
74	0x3e270adb	0.16312735
75	0xbcc5adf8	-0.024130806
76	0xbd0be021	-0.034149293
77	0xbdc2d8f4	-0.09514037
78	0xbd3d3087	-0.046188857
79	0xbd696692	-0.056982584
80	0xbd07952b	-0.033101242
81	0x3aa6d837	0.0012729232
82	0x3d95e24d	0.07318554
83	0x3d654681	0.05597544
84	0xbc85e173	-0.016342854
85	0xbdcc4bcd	-0.09975395
86	0x3cb9df22	0.022689406
87	0xbd60a0f4	-0.054840997
88	0xbd11de47	-0.03561237
89	0xbd713e67	-0.058897402
90	0x3db875b4	0.09006825
91	0xbc14a24e	-0.0090719
92	0xbc81f06b	-0.01586171
93	0xbe16ed4f	-0.14738964
94	0xbd69dd99	-0.057096098
95	0x3d386130	0.04501456
96	0x3d165384	0.03670074
97	0xbd7f1888	-0.062279254
98	0x3d883dfb	0.06652447
99	0xbdce2dd0	-0.10067332
100	0x3daac14f	0.08337652
101	0xbd9122d8	-0.07086724
102	0xbc3217db	-0.010869945
103	0xbc837d71	-0.016051026
104	0xbd636653	-0.055517506
105	0xbd991b20	-0.07475877
106	0x3df6ef1f	0.120573275
107	0x3b4e16ce	0.0031446698
108	0x3b425703	0.0029653914
109	0xbdfc5092	-0.12320055
110	0xbb926187	-0.0044671926
111	0xbc805eaa	-0.01567014
112	0xbd88cd93	-0.06679835
113	0x3de28640	0.110607624
114	0x3e03236a	0.12806478
115	0x3c6e2955	0.0145362215
116	0xbd3d2f64	-0.046187773
117	0xbae51d54	-0.0017480054
118	0xbde6a055	-0.1126105
119	0xbddf81e3	-0.10913446
120	0x3cd80839	0.026371108
121	0x3d8dc034	0.069214255
122	0x3ba5b2d9	0.0050567207
123	0x3dd59081	0.104279526
124	0xbde7e004	-0.113220245
125	0xbdde198e	-0.10844718
126	0xbdacb4bb	-0.08432909
127	0xbcb4a9ef	-0.022053687
128	0xbde8402a	-0.11340363
129	0x3c8d4f8b	0.017249843
130	0xbd3ebc1c	-0.046566114
131	0x3ddea9da	0.1087224
132	0xbcb24ce9	-0.02176519
133	0x3e068129	0.13135208
134	0xbd16a336	-0.036776744
135	0xbca9bb4e	-0.020719197
136	0x3dcfc568	0.10145074
137	0xbdbb908b	-0.09158429
138	0x3cefd6d8	0.02927725
139	0xbdfb53f8	-0.12271875
140	0xbcb5eaa1	-0.022206606
141	0xbc541187	-0.012943632
142	0x3e092e5b	0.1339659
143	0x3debe326	0.115179345
144	0xbdd9335e	-0.10605501
145	0xbd9af0e4	-0.075654775
146	0x3d9245f8	0.07142252
147	0xbcf80016	-0.030273478
148	0xbdfa8abd	-0.122334935
149	0xbd3efda1	-0.046628598
150	0x3daff68e	0.085919484
151	0x3dfa3a2a	0.12218125
152	0x3e04ca92	0.129679
153	0x3deed862	0.116623655
154	0xbdf7607d	-0.120789506
155	0xbc201819	-0.00977137
156	0xbdf45c57	-0.11931675
157	0x3bf49a37	0.007464673
158	0xbc294ec3	-0.01033372
159	0x3ded18bc	0.11576983
160	0xbc183ce0	-0.0092918575
161	0xbdf6ece9	-0.12056906
162	0xbdc99991	-0.098437436
163	0xbd6a3869	-0.057182703
164	0x3e110653	0.14162569
165	0x3c7a8f8a	0.015293011
166	0x3dc0788e	0.09397994
167	0x3deba972	0.115069285
168	0xbd5632f5	-0.05229469
169	0xbd95a7b4	-0.073073775
170	0x3dd52e4a	0.104092196
171	0x3e1a8fef	0.15093969
172	0xbdbca81c	-0.09211752
173	0xbde0e6e8	-0.10981542
174	0x3c3946b9	0.0113083655
175	0x3d821722	0.063520685
176	0x3dec9b53	0.11553063
177	0xbd99d9a7	-0.07512217
178	0x3e040fbc	0.12896627
179	0xbd98bc63	-0.07457807
180	0x3cff0580	0.031130552
181	0xbda61bd3	-0.08110776
182	0xbd78c3ab	-0.06073348
183	0xbbbe1ba9	-0.005801637
184	0xbe20c9a7	-0.15701924
185	0x3ba3a984	0.004994573
186	0xbbab6b49	-0.0052312952
187	0x3dd5b8fb	0.10435673
188	0xbc986134	-0.018601038
189	0x3e0c1dbd	0.13683219
190	0x3d87c2c5	0.06628946
191	0x3d9d9acb	0.0769554
192	0x3db29b92	0.08721079
193	0x3dd6b359	0.104834266
194	0x3d5fd6ec	0.054648325
195	0x3dba8cf9	0.0910892
196	0x3d2a4c3f	0.04157662
197	0x3e1b0f07	0.15142451
198	0x3d9904fb	0.07471653
199	0x3d0cdd8c	0.03439097
200	0xbd94f190	-0.07272637
201	0x3db5c157	0.08874767
202	0x3e18c31d	0.1491818
203	0x3cca76dd	0.024714882
204	0x3c6fa7ca	0.014627406
205	0x3d06d506	0.032918
206	0xbd2e5846	-0.042564653
207	0xbdb751a0	-0.089511156
208	0x3d5a305f	0.053268787
209	0xbd65cfcf	-0.056106385
210	0x3d687940	0.056756258
211	0x3bb7ee4e	0.005613125
212	0x3b9d1559	0.0047938046
213	0xbdbb6173	-0.09149446
214	0xbd4e07f0	-0.05030054
215	0xbe072e52	-0.13201264
216	0xbdb8e049	-0.09027154
217	0x3dfa40c2	0.12219383
218	0x3d515795	0.051108915
219	0x3dacc5f6	0.084361956
220	0xbd86646e	-0.06562124
221	0x3caf4efc	0.021399967
222	0x3d8278ee	0.06370722
223	0xbdc025c2	-0.09382202
224	0x3d8eab3e	0.069662556
225	0x3e1006eb	0.14065139
226	0x3d8a9bca	0.06767996
227	0xbdc82712	-0.09773077
228	0x3c030c3d	0.007998523
229	0xbd21c40b	-0.0394936
230	0xbd911366	-0.07083778
231	0xbdf7c65c	-0.12098381
232	0x3d15f213	0.036607813
233	0xbd13876f	-0.03601783
234	0x3bf0eb3e	0.007352262
235	0xbd7b886b	-0.061409395
236	0x3dd029e2	0.101642385
237	0x3d98712d	0.074434616
238	0xbd9f2f75	-0.077727236
239	0xbdd3a9bb	-0.10335108
240	0x3dab55df	0.08365988
241	0x3d919e7a	0.07110305
242	0x3d97ed30	0.07418287
243	0x3d6f30e1	0.058396224
244	0x3ded9748	0.1160112
245	0x3d2f3006	0.042770408
246	0xbe0027ca	-0.12515178
247	0x3caf3a8b	0.02139022
248	0xbdda08bb	-0.106461965
249	0xbdea8105	-0.1145039
250	0x3ad4e966	0.0016243875
251	0x3d3e5f15	0.046477396
252	0x3d239377	0.039935555
253	0xbc9339ce	-0.0179719
254	0x3dc4d314	0.096105725
255	0x3ddb85a7	0.107188515

bias f4 [50]
0	0xbc0a77f8	-0.008451454
1	0x3db47f32	0.08813323
2	0x3dbbaf73	0.09164324
3	0xbcf6b381	-0.030114891
4	0x3dae4533	0.085092925
5	0xbcf92e18	-0.030417487
6	0x3d9685cd	0.07349739
7	0xbe0fd015	-0.14044221
8	0xbc9035e6	-0.017603826
9	0x3ddb8343	0.107183956
10	0x3e050833	0.12991409
11	0x3e118750	0.14211774
12	0x3de9970c	0.11405763
13	0xbdedca0c	-0.11610803
14	0xbd62ba7c	-0.055353627
15	0xbce347c9	-0.02774419
16	0x3deafe75	0.11474315
17	0xbdf23578	-0.118266046
18	0x3d958b6c	0.07301983
19	0xbda2bfdb	-0.0794675
20	0x3e122c79	0.14274777
21	0x3d625fbf	0.05526709
22	0x3d805613	0.06266417
23	0x3ddfabea	0.10921462
24	0xbdcaa255	-0.09894244
25	0x3dfb4337	0.122686796
26	0xbc270467	-0.010193921
27	0x3d088e6b	0.033338945
28	0x3dda1209	0.10647971
29	0xbc307dc7	-0.010772175
30	0x3d87c17c	0.06628701
31	0x3c228484	0.0099192895
32	0xbb464088	-0.0030250866
33	0xbb59bf7f	-0.0033225713
34	0x3d372488	0.044712573
35	0xbb3c3632	-0.0028718826
36	0x3d46cce2	0.048535235
37	0xbc895936	-0.016766172
38	0xbcb15a57	-0.021649523
39	0x3dae086b	0.08497699
40	0x3dabf416	0.08396165
41	0x3e0e3107	0.1388589
42	0xbcd4596f	-0.025921552
43	0xbd6787c9	-0.05652598
44	0xbd1169c0	-0.03550124
45	0xbe21c4bb	-0.15797703
46	0xbdba02fe	-0.09082602
47	0x3c671bf4	0.014105786
48	0x3d2ccdea	0.042188562
49	0x3d672c11	0.05643851

weight f4 [50, 50]
0	0xbdc2910a	-0.0950032
1	0x3d6746ea	0.056464113
2	0x3e13826e	0.14405224
3	0x3e1dea29	0.15421356
4	0xbd01724f	-0.031603154
5	0x3d8f6f2b	0.070036255
6	0x3bab47e7	0.0052270773
7	0x3d2608da	0.040535785
8	0x3d967faa	0.07348569
9	0xbd6e38b0	-0.05815953
10	0x3dd9c88e	0.10633956
11	0xbde9c333	-0.114141844
12	0x3d91e717	0.07124155
13	0x3e016d11	0.12639262
14	0x3deb2abb	0.114827596
15	0x3df0acb2	0.11751689
16	0x3d87b15b	0.06625625
17	0xbd769617	-0.06020173
18	0x3d821fb5	0.06353704
19	0xbdbd85f4	-0.09254065
20	0x3dc8894b	0.097918116
21	0x3d84492d	0.0645927
22	0x3dce956a	0.10087092
23	0xbe1dbd7d	-0.15404315
24	0x3d290638	0.041265696
25	0xbcf5d4d9	-0.03000872
26	0x3d6a6297	0.05722293
27	0xbe0354d6	-0.12825331
28	0xbdbb31de	-0.09140371
29	0x3e0059d1	0.12534262
30	0xbe04192a	-0.12900224
31	0x3d319eaf	0.043364223
32	0x3c8d0db1	0.017218443
33	0x3d8f21b7	0.069888525
34	0x3d592d3b	0.05302165
35	0x3dd24fa6	0.10269098
36	0x3e18c404	0.14918524
37	0xbd8e6801	-0.06953431
38	0xbd0ceced	-0.034405638
39	0x3d95941d	0.07303641
40	0x3d866d06	0.06563763
41	0xbd2ca90e	-0.04215341
42	0x3d110c4c	0.035412118
43	0xbcc5161a	-0.02405839
44	0x3dfb44d3	0.122689866
45	0x3e1c152e	0.15242454
46	0xbc75cc72	-0.015002357
47	0x3da9928a	0.08279903
48	0xbd4042af	-0.046938594
49	0x3c98b9dc	0.018643312
50	0xbdb8f061	-0.09030224
51	0x3cdc4f35	0.026893238
52	0x3d166321	0.03671563
53	0xbcc2c713	-0.023776567
54	0x3cfc57a0	0.030803502
55	0xbdb616a5	-0.08891038
56	0xbdd09ef4	-0.10186568
57	0xbd81af1f	-0.0633223
58	0xbc4f1a34	-0.012640525
59	0xbe045c7a	-0.12925902
60	0xbe05546f	-0.1302049
61	0x3d24208e	0.04007011
62	0xbca4885d	-0.020084554
63	0x3c670bb8	0.014101915
64	0x3df1a8fb	0.117998086
65	0xbd608a63	-0.054819476
66	0xbca7e42b	-0.020494541
67	0xbdb95893	-0.09050097
68	0x3d9e0a54	0.07716814
69	0xbb858b52	-0.004075446
70	0xbe16d94a	-0.14731327
71	0x3d52850b	0.05139641
72	0x3db0fe8d	0.08642302
73	0xbdd9859f	-0.10621189
74	0xbd3c174c	-0.045920655
75	0x3dbc5bd4	0.09197202
76	0xbdb9e363	-0.09076574
77	0x3cea40fa	0.028595436
78	0xbc4f1e9c	-0.012641575
79	0x3d0651be	0.0327928
80	0x3bfb14df	0.0076624
81	0xbd8fffaa	-0.07031186
82	0xbd68aa9a	-0.056803323
83	0x3d071af1	0.032984678
84	0x3dacb33c	0.08432624
85	0x3b1d9db5	0.00240503
86	0xbd86a4ae	-0.06574379
87	0x3daed084	0.08535865
88	0x3b4500fa	0.0030060397
89	0xbd7fb570	-0.06242889
90	0x3db2889c	0.087174624
91	0x3bbc6ecd	0.005750513
92	0x3dc2417c	0.094851464
93	0xbd40576d	-0.046958376
94	0x3e0cd7fe	0.1375427
95	0xbdeb4bf3	-0.114890955
96	0xbc5044fa	-0.012711758
97	0x3d903030	0.07040441
98	0xbd85f3b7	-0.065406255
99	0xbd2eba49	-0.042658124
100	0xbdfa4ac1	-0.122212894
101	0x3d27ca83	0.040964615
102	0x3e0da435	0.13832171
103	0xbda382b0	-0.07983911
104	0x3dd40cc1	0.10353995
105	0x3d23eeed	0.04002278
106	0xbdca5995	-0.09880368
107	0xbd6a638c	-0.05722384
108	0xbd49a3ac	-0.049228355
109	0xbdf17d7b	-0.117915116
110	0xbdb85612	-0.090007916
111	0xbd6c3bb4	-0.057674125
112	0x3daf8388	0.085700095
113	0xbd910ed6	-0.07082908
114	0x3d5943c7	0.053043153
115	0xbb9c2e21	-0.004766241
116	0x3cd341a6	0.02578814
117	0xbc828c78	-0.015936121
118	0xbcec5890	-0.028850824
119	0x3e15c2a4	0.14625031
120	0x3dbf75c7	0.09348636
121	0xbd6b0054	-0.05737336
122	0xbe0bdb14	-0.1365779
123	0xbced62a1	-0.028977694
124	0xbe115225	-0.14191492
125	0xbcde0957	-0.027104063
126	0x3df6b4c3	0.12046196
127	0xbccdb08e	-0.025108602
128	0x3dcbf911	0.09959615
129	0xbcea753c	-0.028620355
130	0xbe08f9a3	-0.13376479
131	0x3b6ce5bc	0.0036147675
132	0x3d0f7914	0.03502758
133	0x3cc1c1a7	0.023651911
134	0x3da03d76	0.07824223
135	0xbd95c284	-0.073124915
136	0x3e185efa	0.1487998
137	0x3d7ddcc2	0.06197811
138	0xbdf70d3f	-0.12063073
139	0xbc33c678	-0.010972612
140	0x3e018c46	0.12651166
141	0xbe119e6f	-0.14220594
142	0x3dce993b	0.1008782
143	0x3cd4d0a4	0.025978394
144	0xbc6a6470	-0.014306173
145	0x3d933204	0.07187274
146	0x3cd3ec95	0.025869647
147	0xbdcb93b0	-0.099402785
148	0xbe066530	-0.13124537
149	0x3b6178dd	0.0034404316
150	0xbd5d5a39	-0.05404112
151	0xbd4f193c	-0.050561175
152	0x3d8efc6a	0.06981738
153	0xbae0ef8b	-0.0017161233
154	0xbd813093	-0.06308093
155	0xbe09c1e7	-0.13452874
156	0xbd2f0b80	-0.042735577
157	0xbde90fd2	-0.113799706
158	0xbe09073b	-0.13381664
159	0xbd1c8123	-0.038209092
160	0x3db9f696	0.09080236
161	0xbdefc61b	-0.117077075
162	0x3d59fbef	0.05321878
163	0xbc92d4d2	-0.017923746
164	0xbaccbc5f	-0.0015620104
165	0xbd7c36d3	-0.061575722
166	0x3d6afbc9	0.057369027
167	0x3d8750e1	0.06607223
168	0xbd8a3edb	-0.0675027
169	0xbd84fcd7	-0.06493538
170	0x3c2b9294	0.010471959
171	0xbcb43336	-0.021997076
172	0x3d5fe6ca	0.054663457
173	0xbd5e5dde	-0.054288737
174	0xbe1793c1	-0.14802457
175	0x3cc71109	0.024300115
176	0x3ca75d53	0.020430243
177	0x3c9f26b1	0.01942763
178	0x3c28164b	0.010259221
179	0xbdf92b7d	-0.12166498
180	0xbe0f3864	-0.13986355
181	0xbdcad8b6	-0.099046156
182	0xbcdddaab	-0.027081808
183	0xbd2e0d59	-0.042493198
184	0x3ddb4e0a	0.10708244
185	0xbdf94990	-0.12172234
186	0x3cf5eadc	0.030019216
187	0xbdabaef6	-0.083829805
188	0x3db92915	0.09041039
189	0x3db88368	0.09009439
190	0x3e0071bd	0.12543388
191	0xbe0dae68	-0.13836062
192	0xbd2def57	-0.04246458
193	0xbd9ad2e9	-0.07559759
194	0x3d122af1	0.035685483
195	0xbd9f26b2	-0.077710524
196	0xbe00134d	-0.12507363
197	0xbd1c30ec	-0.038132593
198	0xbe107a90	-0.14109254
199	0xbd43cbf3	-0.047801923
200	0xbdf532a3	-0.11972549
201	0x3d8c4f0a	0.06851013
202	0xbdd96a4c	-0.10615978
203	0xbdc35d1a	-0.09539242
204	0xbd44f8d1	-0.048088852
205	0x3da16f50	0.07882559
206	0x3c6e913a	0.014560992
207	0x3d4ac33e	0.049502604
208	0xbda1a3ef	-0.07892596
209	0x3dbad572	0.09122743
210	0xbd194e59	-0.037428234
211	0x3df6e8ff	0.12056159
212	0x3d7fda99	0.06246433
213	0x3d8390fa	0.064241365
214	0x3d552cb1	0.052044574
215	0xbdd363f8	-0.10321802
216	0x3de7ae0f	0.11312496
217	0x3cdf0630	0.02722463
218	0x3d968b2a	0.07350762
219	0x3d71ea89	0.05906156
220	0xbd1c3017	-0.0381318
221	0xbe101a7f	-0.14072607
222	0x3de3fdc2	0.11132385
223	0x3dbc52dd	0.091954924
224	0xbda1844f	-0.07886564
225	0x3de6015a	0.112307265
226	0xbc3c44cd	-0.011491013
227	0x3d0d435a	0.03448806
228	0xbd117f5a	-0.035521843
229	0xbca24ac1	-0.019811036
230	0xbae37c4c	-0.0017355769
231	0xbdbf28c4	-0.09333947
232	0x3dd6c5a3	0.10486915
233	0x3c5675dd	0.013089624
234	0x3e13a3d7	0.14417969
235	0xbcc3bff9	-0.02389525
236	0x3c2a7715	0.010404368
237	0xbda9ef38	-0.082975805
238	0x3d22973f	0.03969502
239	0x3c82376b	0.015895566
240	0xbda1cadd	-0.07900021
241	0xbd2ece06	-0.042676948
242	0xbd72f420	-0.059314847
243	0x3db6997a	0.08915992
244	0x3deb9bef	0.11504351
245	0x3d29fc09	0.041500125
246	0x3dd80b81	0.10549069
247	0xbddfa340	-0.10919809
248	0x3b5e7f50	0.0033950396
249	0x3dc1a4e1	0.09455276
250	0x3dc99f90	0.09844887
251	0x3dd266d6	0.10273521
252	0x3dac3881	0.08409215
253	0xbe09a2ca	-0.13441005
254	0xbdeac01e	-0.11462425
255	0x3ddc019a	0.10742493

bias f4 [50]
0	0x3c0a23da	0.008431399
1	0xbcc4122d	-0.023934448
2	0xbb81b746	-0.0039586155
3	0xbdd827cc	-0.10554466
4	0x3d290be2	0.041271098
5	0x3c6cfda8	0.014464773
6	0xbc2c10c0	-0.01050204
7	0x3c865942	0.016399983
8	0xbcc6fe02	-0.024291042
9	0x3e155e2d	0.14586706
10	0x3ce172ed	0.027520621
11	0x3dee946d	0.11649404
12	0x3d471b7a	0.048610188
13	0x3d788f3c	0.060683474
14	0x3de3a785	0.11115936
15	0xbd7d7f94	-0.061889246
16	0x3d0fb7b3	0.0350873
17	0xbe0e76f9	-0.13912572
18	0xbcdcb1e8	-0.026940301
19	0x3e0b23eb	0.1358792
20	0x3d754ec9	0.05988959
21	0xbd58c098	-0.052918047
22	0x3e1057f9	0.14096059
23	0xbdaa5a28	-0.08317977
24	0x3dea7718	0.114484966
25	0xbd283480	-0.041065693
26	0x3d4119f1	0.04714388
27	0xbde1274d	-0.10993824
28	0x3d87b2fb	0.06625935
29	0xbd98f610	-0.07468808
30	0xbe0a8e40	-0.13530827
31	0x3d7c205d	0.0615543
32	0x3db00b35	0.085958876
33	0x3de10dc9	0.109889574
34	0x3cd5e06d	0.026107991
35	0xbdc18979	-0.09450049
36	0xbd360fdd	-0.044448722
37	0xbcae512d	-0.021278942
38	0xbe182205	-0.14856727
39	0x3d38e950	0.04514438
40	0x3df56b24	0.11983326
41	0xbe145d33	-0.14488678
42	0xbc43a07b	-0.011940117
43	0x3da08589	0.0783797
44	0x3de31fbc	0.11090037
45	0x3ccf675d	0.025317842
46	0xbc8a78b1	-0.016903253
47	0x3db92ba8	0.0904153
48	0x3de886d6	0.11353843
49	0xbc980fc3	-0.018562203

weight f4 [50, 50]
0	0xba77fbcb	-0.00094598223
1	0xbcf705a2	-0.030154053
2	0x3e117dfa	0.14208212
3	0xbdccfc89	-0.10009105
4	0xbe0c81f8	-0.13721454
5	0x3da33ad9	0.07970209
6	0x3c92895f	0.01788777
7	0x3d778002	0.060424812
8	0x3da97b42	0.08275463
9	0xbcac44a3	-0.021028822
10	0x3d4871ab	0.048936527
11	0xbde05ef7	-0.10955613
12	0xbd63cd72	-0.05561585
13	0xbdbc30c4	-0.09188989
14	0x3e1d88bc	0.15384191
15	0xbdfc7fbf	-0.12329053
16	0x3db5ea0f	0.08882534
17	0x3ded6af1	0.11592663
18	0x3d34ee9e	0.044172876
19	0x3e14ea79	0.14542569
20	0xbcff20cb	-0.031143567
21	0xbdcab6f1	-0.098981746
22	0xbe015674	-0.12630635
23	0x3d28f736	0.041251384
24	0xbdcffb7e	-0.1015539
25	0xbddffe72	-0.109372035
26	0xbdd5ec49	-0.104454584
27	0xbd3afc9d	-0.045651067
28	0xbc0ec91b	-0.0087149395
29	0xbdfd4323	-0.12366321
30	0x3cfc000e	0.030761745
31	0x3c1878f7	0.009306184
32	0xbc649bb5	-0.013953139
33	0x3d6fb1b0	0.058519065
34	0xbca496ef	-0.020091502
35	0x3b13664e	0.0022491398
36	0xbe257932	-0.16159514
37	0x3d8c38d2	0.06846775
38	0x3d2d23b9	0.042270396
39	0x3cedead3	0.029042637
40	0x3d040cf1	0.032238904
41	0xbd164928	-0.03669086
42	0x3bc07e74	0.0058744494
43	0x3c9daf5b	0.019248655
44	0xbd98bae0	-0.074575186
45	0x3dde7620	0.10862374
46	0xbb8168a5	-0.003949242
47	0xbd08e931	-0.033425514
48	0x3dd4e343	0.10394909
49	0x3e0e8363	0.13917308
50	0x3dc33d86	0.09533219
51	0xbd564533	-0.052312087
52	0x3d615d1d	0.05502044
53	0x3ded824e	0.11597119
54	0xbdd74e3c	-0.10512969
55	0x3d7b192b	0.0613033
56	0x3caad106	0.020851623
57	0xbdf7a3a5	-0.120917596
58	0x3d261788	0.040549785
59	0x3c3fa181	0.01169622
60	0xbcbccb53	-0.023046171
61	0x3d1c722c	0.03819482
62	0xbd6fc5ad	-0.058538128
63	0x3dd60664	0.10450438
64	0xbb307433	-0.002692473
65	0x3de3a37a	0.11115165
66	0xbbea7396	-0.007154892
67	0x3dc8eb2a	0.09810479
68	0x3dc30df8	0.09524149
69	0xbd1d6943	-0.038430464
70	0xbd2fad8b	-0.042890113
71	0xbd763770	-0.060111463
72	0x3e15145b	0.14558546
73	0x3c6ba70c	0.014383089
74	0x3d62eb4f	0.05540019
75	0xbcc413a6	-0.02393515
76	0x3dc0b94c	0.094103426
77	0x3e141643	0.14461617
78	0x3d3fd97f	0.04683828
79	0xbdfeafb2	-0.12435855
80	0xbd198c39	-0.037487242
81	0x3d3c6194	0.045991495
82	0xbd89bd7c	-0.067255944
83	0xbcb82840	-0.02248013
84	0xbda2d7a0	-0.079512835
85	0x3e0ca59a	0.13735047
86	0x3e10566d	0.14095469
87	0xbdea7cb7	-0.11449569
88	0xbc7d899e	-0.015474705
89	0xbd437c1d	-0.047725786
90	0x3c96bd33	0.018400764
91	0xbdf47eff	-0.11938285
92	0x3c8c325d	0.017113859
93	0x3df8b9ff	0.12144851
94	0x3d94e390	0.072699666
95	0xbd3fd108	-0.046830207
96	0x3b37a323	0.002802082
97	0x3c84e569	0.016222673
98	0x3d8e143b	0.069374524
99	0xbbcb9d88	-0.0062138475
100	0x3dba46cd	0.090955354
101	0xbcd081a0	-0.025452435
102	0x3d9e4779	0.07728476
103	0x3e13da62	0.14438775
104	0x3d243464	0.040089026
105	0x3d09f22b	0.033678215
106	0x3d33473b	0.043769103
107	0x3b4b7b90	0.003104899
108	0x3bac2a0e	0.0052540367
109	0x3e026a1b	0.12735789
110	0x3cdd6d8b	0.027029773
111	0xbdfe4cc9	-0.12416989
112	0xbdd45fec	-0.10369858
113	0xbd965e30	-0.073421836
114	0x3dcc007c	0.0996103
115	0xbdbbb7e8	-0.09165937
116	0x3ca4e8a5	0.020130465
117	0x3dc90494	0.09815326
118	0xbdee3b9d	-0.11632464
119	0xbbe1b2ed	-0.0068877847
120	0xbda8915b	-0.08230849
121	0xbd844d82	-0.06460096
122	0xbe1b9393	-0.15193014
123	0x3e0df239	0.13861932
124	0x3e1a355d	0.15059419
125	0x3dc892a6	0.09793596
126	0xbdf1b532	-0.118021384
127	0x3c14674f	0.009057834
128	0x3d8c490b	0.06849869
129	0x3d8b5656	0.06803577
130	0xbdf9e96d	-0.122027256
131	0xbdcbfa68	-0.099598706
132	0xbd3818a2	-0.044945367
133	0xbded9e6d	-0.11602483
134	0xbe1ae4ee	-0.15126392
135	0xbcd16965	-0.025562951
136	0x3d34fd44	0.044186845
137	0x3c576b15	0.013148089
138	0xbdec4458	-0.11536473
139	0x3cad6b18	0.02116923
140	0x3d38262c	0.04495828
141	0x3b258e63	0.002526187
142	0xbb365588	-0.0027821977
143	0x3d3d6db9	0.046247218
144	0xbcf19f12	-0.029494796
145	0xbd5f8ded	-0.05457871
146	0x3d9f9b9b	0.07793351
147	0xbdcfe802	-0.10151674
148	0xbdaefaf7	-0.085439615
149	0x3d4c0e6f	0.049818452
150	0xbd977ad7	-0.07396477
151	0x3d81d682	0.06339742
152	0x3ccf57e5	0.025310466
153	0x3e090f9d	0.13384862
154	0xbd488a61	-0.048960093
155	0xbe06bd8c	-0.13158244
156	0x3db654b5	0.08902875
157	0xbba470b9	-0.0050183204
158	0x3bed2152	0.007236638
159	0x3ccae93e	0.024769422
160	0x3ca9862a	0.020693857
161	0x3d9f7ff0	0.07788074
162	0x3dbbd922	0.09172274
163	0xbc0f3a65	-0.00874195
164	0x3d2be4d7	0.041966286
165	0xb8e5e066	-0.000109613684
166	0x3ddf6d0f	0.10909473
167	0xbde65df2	-0.112483874
168	0xbd0db7d9	-0.03459916
169	0xbc07479f	-0.008256822
170	0x3e1676e2	0.14693788
171	0xbde10939	-0.10988087
172	0x3d4ed788	0.050498515
173	0xbd0527f7	-0.032508817
174	0x3df79bc2	0.12090255
175	0x3de7bb52	0.113150254
176	0xbd96a4fb	-0.07355686
177	0x3df9942d	0.121864654
178	0xbdbbc95e	-0.09169267
179	0x3e1dfe84	0.15429121
180	0xbe0c5749	-0.13705172
181	0x3d3f7ca8	0.04674974
182	0xbe13ac15	-0.14421113
183	0xbdfa4d9d	-0.12221835
184	0xbdac7995	-0.084216274
185	0xbaec5986	-0.0018032051
186	0x3de20dc8	0.11037785
187	0xbe05268e	-0.13002989
188	0xbd2fae0d	-0.042890597
189	0xbdba3ae1	-0.090932615
190	0xbdbe8830	-0.093033195
191	0x3df69e91	0.12041963
192	0x3c941264	0.018075176
193	0x3cb15b07	0.02164985
194	0xbdebca79	-0.11513228
195	0xbd5aad24	-0.053387776
196	0xbdc54613	-0.09632506
197	0xbdf38661	-0.11890865
198	0xbe0b8b05	-0.1362725
199	0xbdbf39ab	-0.09337171
200	0xbe006768	-0.12539446
201	0xbe0ca3e2	-0.13734391
202	0xbdc2ecee	-0.09517847
203	0xbdc2ecc4	-0.09517816
204	0xbd7062f2	-0.05868811
205	0x3dc4dcbe	0.09612416
206	0x3b1239dd	0.0022312321
207	0xbda9aca1	-0.082848795
208	0xbdb65dd3	-0.08904614
209	0x3d43f9c1	0.047845606
210	0xbc82db68	-0.015973762
211	0xbcbd2f00	-0.0230937
212	0x3b2ccefa	0.0026368485
213	0xbcc13d0a	-0.023588676
214	0xbe05875b	-0.13039915
215	0x3cf35934	0.029705621
216	0x3cf7ab1d	0.03023296
217	0x3d7253c7	0.059161928
218	0x3dc7373e	0.097273335
219	0x3d19837e	0.037478916
220	0xbc181ca8	-0.009284176
221	0xbdacc444	-0.08435872
222	0x3dea46d1	0.114392884
223	0xbda8c2a6	-0.08240251
224	0x3e038094	0.12842017
225	0xbd250fe9	-0.040298376
226	0x3cf91b99	0.030408667
227	0xbdd395a7	-0.10331278
228	0x3dcf4eb1	0.10122431
229	0x3ca6e9fb	0.020375242
230	0xbd51f710	-0.051261008
231	0xbcce4394	-0.025178708
232	0x3d9cbfa1	0.07653738
233	0x3baf44e0	0.0053487867
234	0x3dc6eb9c	0.09712908
235	0x3d594415	0.053043444
236	0xbbe383f8	-0.006943222
237	0xbdbfa938	-0.09358448
238	0x3ddbd6dc	0.107343405
239	0x3cc132ed	0.023583854
240	0x3e0160ae	0.12634537
241	0x3d295478	0.04134032
242	0xbdc41adc	-0.095754355
243	0x3c579513	0.013158101
244	0xbd1c1398	-0.038104624
245	0x3caf5644	0.02140344
246	0xbdb0a7ec	-0.086257786
247	0xbcc68308	-0.024232402
248	0x3e1a04f3	0.1504095
249	0xbd11d1ab	-0.035600346
250	0x3dd61098	0.10452384
251	0x3d1def87	0.03855851
252	0xbddbd8f6	-0.107347414
253	0xbe09e58b	-0.1346647
254	0x3d87af2d	0.06625209
255	0xbd3b3b80	-0.04571104

bias f4 [50]
0	0x3e10720c	0.14106005
1	0xbe029f30	-0.12756038
2	0x3c551273	0.013004887
3	0x3d83525e	0.06412195
4	0xbd609448	-0.054828912
5	0x3e053861	0.13009788
6	0xbdbfa025	-0.09356717
7	0x3cca19c1	0.024670484
8	0xbd95249b	-0.072823726
9	0xbd31d989	-0.04342035
10	0x3d89fadd	0.067373015
11	0x3de1c6d9	0.11024255
12	0x3e0f7b76	0.1401194
13	0xbd80e31f	-0.0629332
14	0x3d47e0e3	0.048798453
15	0xbe1e325a	-0.15448895
16	0x3dbbda43	0.091724895
17	0xbdd3eeb8	-0.10348266
18	0x3d7a3fe1	0.061096076
19	0xbc10ccbd	-0.008837876
20	0x3d97c13b	0.07409903
21	0xbdb13257	-0.0865218
22	0xb9d5e775	-0.00040798975
23	0x3cdbbf70	0.026824683
24	0xbd84289b	-0.064530574
25	0x3dee2ee0	0.116300344
26	0xbd8a393e	-0.06749199
27	0x3dbc8bbf	0.09206342
28	0x3d82fa0c	0.06395349
29	0x3e0a24ed	0.13490649
30	0xbda0c2e8	-0.078496754
31	0xbd9a050c	-0.07520494
32	0xbdf1fed4	-0.11816183
33	0xbd7a5d89	-0.06112436
34	0xbc81e0bd	-0.015854234
35	0xbe0b8625	-0.13625391
36	0xbd47fb25	-0.048823494
37	0xbd000807	-0.031257655
38	0xbdca9d5e	-0.09893297
39	0xbd735882	-0.05941058
40	0xbd95aa21	-0.0730784
41	0xbd7f1f6d	-0.06228583
42	0x3c162fdd	0.009166685
43	0x3cbe6c5e	0.023245033
44	0xbd693d02	-0.056942947
45	0xbd81b8b1	-0.06334055
46	0xbd70aed0	-0.058760464
47	0xbd25d90c	-0.040490195
48	0xbd764c59	-0.060131405
49	0x3de3f961	0.111315496

weight f4 [50, 50]
0	0x3d1eec20	0.038799405
1	0xbd62c053	-0.055359196
2	0xbb3ad0f6	-0.0028505898
3	0x3d8113e3	0.06302621
4	0x3d80cfff	0.06289672
5	0x3dca5b94	0.098807484
6	0xbc97879f	-0.018497286
7	0xbcacf4ef	-0.021112887
8	0xbe037170	-0.12836242
9	0xbd9fb3be	-0.07797955
10	0xbd9ee228	-0.0775798
11	0x3d3e08ee	0.046395235
12	0x3d7735e5	0.060354132
13	0xbd2d1938	-0.04226038
14	0xbb84cc7c	-0.0040526967
15	0x3d047ea1	0.032347325
16	0x3dc80ed4	0.09768453
17	0xbd7df4d1	-0.062001053
18	0x3df598e9	0.11992056
19	0xbdd66671	-0.10468758
20	0xbde8dbb5	-0.11370031
21	0x3c8358cf	0.016033558
22	0x3dc5ea49	0.09663827
23	0xbdbe167d	-0.09281633
24	0xbdf781a6	-0.12085275
25	0xbdeda5a0	-0.11603856
26	0x3d88779a	0.06663437
27	0xbd076fa8	-0.033065468
28	0xbce37c18	-0.027769133
29	0x3c92c388	0.017915502
30	0x3db836a4	0.08994797
31	0xbd084af3	-0.033274602
32	0x3e0719c8	0.13193429
33	0x3d60c33a	0.054873683
34	0x3b97c1d9	0.0046312627
35	0x3d86b9ce	0.06578408
36	0x3d41bc42	0.047298677
37	0xbd83e5bd	-0.064403035
38	0x3e080991	0.132849
39	0x3d96f9cd	0.073718645
40	0x3cd71600	0.026255608
41	0xbe01651b	-0.12636225
42	0xbe1262d2	-0.1429551
43	0x3dc7f355	0.09763209
44	0xbdd077e2	-0.10179116
45	0x3caf5cfa	0.02140664
46	0x3da75e91	0.08172334
47	0xbd823235	-0.063572325
48	0x3d4173f4	0.047229722
49	0xbd4c8e17	-0.049940195
50	0xbd86099c	-0.065448016
51	0x3ca841e6	0.020539235
52	0x3d9ce318	0.07660502
53	0xbdf716a8	-0.12064868
54	0xbdf6a887	-0.12043863
55	0xbe002877	-0.12515436
56	0xbcddf65f	-0.027095018
57	0x3d1162ec	0.03549473
58	0xbcc6cb89	-0.024266975
59	0x3cc4fecf	0.024047283
60	0x3d6c7c41	0.057735685
61	0x3adcdab0	0.0016849842
62	0xbdae4e72	-0.08511056
63	0xbe033bdd	-0.12815805
64	0xbc8be585	-0.017077217
65	0x3cdf026e	0.027222838
66	0x3dff0318	0.12451762
67	0x3c1240cd	0.0089265825
68	0x3da2510f	0.07925617
69	0xbd9c46dd	-0.076307036
70	0xbcdf2739	-0.027240383
71	0x3da5dc00	0.08098602
72	0xbdc4240c	-0.09577188
73	0x3de14f8d	0.11001501
74	0x3cf5dcba	0.030012477
75	0x3dd2dea0	0.102963686
76	0x3e1872f4	0.14887601
77	0x3dc75459	0.09732885
78	0x3d192575	0.037389237
79	0xbdce0e6c	-0.100613445
80	0x3df652d7	0.12027519
81	0xbdc68a39	-0.09694333
82	0xbc63f690	-0.013913766
83	0x3cb598dd	0.022167617
84	0x3d3e3f52	0.046447106
85	0xbd281ac7	-0.041041162
86	0x3d914554	0.070933014
87	0x3d708e3a	0.058729388
88	0x3c791c86	0.015204554
89	0x3d7b33a4	0.061328545
90	0xbdbf7d39	-0.09350056
91	0x3bb1bdd2	0.0054242397
92	0x3ddfacd4	0.10921636
93	0xbd2a871b	-0.041632753
94	0x3b4ee91e	0.0031572054
95	0xbe137d09	-0.14403166
96	0xbdf83c67	-0.12120896
97	0x3bb27370	0.00544589
98	0x3d2ee341	0.042697195
99	0xbd4a056d	-0.04932158
100	0x3e03a0d4	0.1285432
101	0x3e19f2b0	0.15033984
102	0xbdd4df19	-0.10394115
103	0xbc8fbf9d	-0.017547423
104	0x3d2a6935	0.04160424
105	0xbd667d8a	-0.056272067
106	0xbd3b0e3b	-0.045667868
107	0x3d6fa807	0.058509853
108	0x3d8ffcce	0.070306405
109	0x3c048d6a	0.008090356
110	0xbd9ee1ba	-0.07757898
111	0xbdc249b8	-0.09486717
112	0xbdb494bd	-0.08817432
113	0x3cd31f42	0.02577174
114	0x3b9c5595	0.0047709444
115	0x3d13f530	0.0361225
116	0x3c4a1e64	0.012336347
117	0xbdd07291	-0.10178102
118	0x3da79250	0.08182204
119	0x3e0e58ed	0.1390111
120	0x3d779479	0.06044433
121	0xbceeabc5	-0.02913464
122	0x3d9c4b51	0.07631553
123	0x3de7f596	0.11326139
124	0x3d8762ea	0.06610663
125	0x3e0a843d	0.13527007
126	0xbda9abda	-0.08284731
127	0xba76f961	-0.00094213156
128	0x3df7ad0a	0.120935515
129	0xbd7bcfe8	-0.06147757
130	0xbda266f2	-0.079297915
131	0xbba1cb8b	-0.0049375943
132	0xbdd4c8df	-0.103898756
133	0xbda973b9	-0.082740255
134	0x3d7b8a83	0.061411392
135	0xbd2dd0c4	-0.042435423
136	0x3b54569c	0.0032400256
137	0x3d8ef1d6	0.0697972
138	0xbde8d990	-0.11369622
139	0x3d9383da	0.07202883
140	0x3d928a44	0.07155278
141	0xbc7aa590	-0.015298262
142	0x3d750906	0.05982306
143	0xbdd12dd8	-0.10213822
144	0xbdbb95cb	-0.0915943
145	0xbde52440	-0.11188555
146	0x3ce374b5	0.027765611
147	0xbdddaec4	-0.108243495
148	0x3dccf0d8	0.10006875
149	0x3d408d19	0.04700956
150	0xbd8d9c71	-0.069146045
151	0x3d9116db	0.070844375
152	0xbe144d56	-0.14482626
153	0xbdefe28b	-0.117131315
154	0x3e09e56a	0.13466421
155	0xbd0d4fe4	-0.034500018
156	0x3bf95127	0.007608551
157	0x3e019bbd	0.12657066
158	0xbd9b1b3d	-0.07573555
159	0xbdf203b9	-0.11817116
160	0xbc8557a1	-0.016277136
161	0x3dacef24	0.0844405
162	0xbdc012ca	-0.09378584
163	0x3deaa338	0.11456913
164	0xbc6210b3	-0.013797927
165	0xbddeefdf	-0.108855955
166	0xbdd166f6	-0.10224716
167	0xbbf35a08	-0.007426504
168	0x3cfa7f46	0.030578267
169	0x3de60931	0.11232222
170	0x3c261fe9	0.010139444
171	0xbd826fdb	-0.06368991
172	0x3df2c66a	0.11854251
173	0x3df4854a	0.11939485
174	0x3db55186	0.0885344
175	0xbe1d5c01	-0.15367128
176	0xbd7891c2	-0.06068588
177	0xbd0218dd	-0.031761993
178	0x3bbd1737	0.0057705897
179	0x3d5a4c0b	0.053295176
180	0xbd9370dd	-0.07199261
181	0x3d804b2f	0.0626434
182	0x3dd42cb7	0.10360091
183	0xb9ef1244	-0.0004559924
184	0xbd81eb23	-0.06343677
185	0xbe0229a7	-0.12711202
186	0xbdc80dff	-0.097682945
187	0xbd1effa4	-0.038818017
188	0xbd94e3a7	-0.07269984
189	0x3ddeeef6	0.10885422
190	0xbd86c5af	-0.06580674
191	0x3e074ad4	0.13212138
192	0x3d4a20bc	0.049347624
193	0xbde8e203	-0.11371233
194	0x3d33806d	0.04382365
195	0xbdb0960d	-0.0862237
196	0x3db3390d	0.08751116
197	0x3cb78f73	0.02240727
198	0xbe09a2fd	-0.13441081
199	0x3c9ad71f	0.018901406
200	0xbd2636eb	-0.040579718
201	0xbe1d9fa8	-0.15392935
202	0xbdedab04	-0.11604884
203	0xbd020bdc	-0.03174959
204	0x3df1e73c	0.118116826
205	0x3d89c3f5	0.06726829
206	0x3dc57c0f	0.09642803
207	0xbc22a668	-0.00992737
208	0x3de09c68	0.10967332
209	0x3c89f868	0.016842082
210	0xbde593cd	-0.112098314
211	0xbdba0a19	-0.09083957
212	0xbdfd7b88	-0.12377077
213	0x3dccd203	0.10000994
214	0x3de1c9ac	0.11024794
215	0x3debe669	0.115185566
216	0xbd9453e6	-0.07242565
217	0x3df46bac	0.11934599
218	0xba10e12d	-0.0005526718
219	0xbd57b2e8	-0.052660853
220	0x3b61323a	0.0034362213
221	0x3e038db6	0.12847027
222	0x3d996b27	0.07491141
223	0xbd8809b9	-0.066424794
224	0xbdbdb277	-0.09262555
225	0xbe027b0d	-0.12742253
226	0xbdd31101	-0.103059776
227	0xbd334b32	-0.043772884
228	0x3d7ed8f0	0.062218606
229	0xbe19e83c	-0.15029997
230	0x3d566ddf	0.052350875
231	0x3df63ad8	0.12022942
232	0xbd2866e3	-0.041113745
233	0x3dccb04e	0.09994565
234	0xbd8ea66f	-0.069653384
235	0x3d3d9362	0.046283133
236	0x3d274fee	0.04084771
237	0xbdbe49d7	-0.092914276
238	0xbdc25f0f	-0.09490787
239	0x3cbba719	0.022906827
240	0x3da5d202	0.080966964
241	0x3de4a242	0.11163761
242	0xbd81267b	-0.06306168
243	0xbd1bc387	-0.038028266
244	0xbdc30a63	-0.095234655
245	0x3dda8ea6	0.10671739
246	0xbcd0249a	-0.025408078
247	0xbde2c2d4	-0.11072317
248	0x3d40ec20	0.047100186
249	0xbd7b034f	-0.061282452
250	0x3d19a33f	0.0375092
251	0xbdba3d56	-0.0909373
252	0x3e0df0d5	0.13861401
253	0x3dbfb906	0.09361462
254	0xbe134fe0	-0.14385939
255	0xbe16aff9	-0.14715566

bias f4 [50]
0	0xbe13510d	-0.14386387
1	0xbd38a5bf	-0.045079943
2	0x3d91b9da	0.071155265
3	0x3a984acb	0.001161897
4	0xbdb48d70	-0.088160396
5	0x3cd29673	0.025706505
6	0xbd5aa523	-0.053380143
7	0xbc32827a	-0.010895366
8	0x3d06705b	0.032821994
9	0xbd9cf3b3	-0.076636694
10	0xbe0b12a2	-0.13581327
11	0xbc1bae42	-0.0095019955
12	0xbdb585ce	-0.08863412
13	0x3c8f4be4	0.017492242
14	0x3ca0b254	0.019616283
15	0x3d92a69f	0.07160687
16	0xbd7ecb4a	-0.06220559
17	0x3dfd8da2	0.1238053
18	0xbd93e29b	-0.07220956
19	0xbd02153c	-0.031758532
20	0xbdb9f544	-0.09079984
21	0x3ca9835e	0.020692524
22	0x3d4f369d	0.050589193
23	0xbdb4fbe5	-0.088371076
24	0x3a88ea99	0.0010445892
25	0x3e0cda4d	0.1375515
26	0x3e077158	0.13226831
27	0xbdd13364	-0.1021488
28	0xbcf0510a	-0.029335517
29	0x3dff325c	0.12460777
30	0x3d1bd83a	0.038048007
31	0xbd841de9	-0.064510174
32	0xbd99e0ad	-0.07513557
33	0x3d792bec	0.060832903
34	0x3de3aabb	0.11116549
35	0x3d650a6c	0.055918142
36	0x3cc4bc02	0.02401543
37	0x3d66f990	0.056390345
38	0xbcc62845	-0.024189124
39	0x3dee340f	0.11631023
40	0xbc287f33	-0.010284233
41	0xbe0ca811	-0.13735987
42	0xbde635a2	-0.112406984
43	0xbdf5e7a0	-0.120070696
44	0x3ddad77d	0.106856324
45	0xbdae8a7c	-0.085225075
46	0x3d0c4f7e	0.034255497
47	0x3c5b1423	0.0133715
48	0x3e12a6b8	0.1432141
49	0xbdd8be99	-0.105832286

weight f4 [50, 50]
0	0xbda0fdfb	-0.07860943
1	0xbd2bbc74	-0.04192777
2	0xbdfd8812	-0.12379469
3	0x3d80cadf	0.062886946
4	0xbde4ee49	-0.11178262
5	0x3d60c42c	0.054874584
6	0x3b6cc352	0.0036127162
7	0xbdf8a7ac	-0.12141356
8	0xbdc11116	-0.09427087
9	0x3d38220a	0.044954337
10	0x3dfb7e37	0.12279933
11	0xbe00da99	-0.12583388
12	0x3dbca639	0.09211392
13	0xbcb34235	-0.021882156
14	0x3dc483ff	0.09595489
15	0xbe05a9e4	-0.1305309
16	0x3df9ecb1	0.122033484
17	0xbcf113fe	-0.029428478
18	0x3d6789c7	0.05652788
19	0x3dd58b5b	0.104269706
20	0x3ca31d2d	0.019911373
21	0xbdf1b308	-0.118017256
22	0x3d8a7f3e	0.06762551
23	0x3d49c6aa	0.049261726
24	0xbc27fef7	-0.010253659
25	0xbdacfe9b	-0.08447
26	0xbe06fa0a	-0.1318132
27	0x3dc6b2c1	0.09702063
28	0xbdc6e53a	-0.0971169
29	0x3de52ad2	0.11189808
30	0xbdf43408	-0.11923987
31	0xbd67a57d	-0.056554306
32	0xbd45ed89	-0.048322234
33	0x3d853dfd	0.06505964
34	0xbbbddfef	-0.005794517
35	0x3d200b41	0.039073233
36	0x3bad7262	0.0052931765
37	0xbd8370c7	-0.06417995
38	0xbd819ef5	-0.06329147
39	0xbbba9a52	-0.005694666
40	0x3df2545d	0.11832497
41	0xbd3a2591	-0.045445982
42	0x3dfbede9	0.12301237
43	0xbd0d0822	-0.034431584
44	0x3e032407	0.12806712
45	0x3d64ed53	0.055890393
46	0xbdf0051f	-0.11719727
47	0xbdffc0a6	-0.12487917
48	0xbe01c04d	-0.12671013
49	0x3df4b000	0.11947632
50	0x3d67556a	0.05647794
51	0xbdfc5a68	-0.12321931
52	0xbd01fada	-0.03173337
53	0x3dffad94	0.12484279
54	0x3d9478de	0.07249616
55	0xbcb086a9	-0.021548586
56	0x3cb961f1	0.02262971
57	0xbda876ca	-0.08225782
58	0x3c3aa445	0.011391704
59	0xbdf52450	-0.11969817
60	0x3dfc692f	0.1232475
61	0x3d1c3b25	0.038142342
62	0x3c18a5ca	0.009316871
63	0xbd6acd0d	-0.057324458
64	0xbd3d6a5c	-0.04624401
65	0x3d80e8e5	0.06294421
66	0x3e17ee36	0.14836964
67	0xb81af21c	-3.6941943e-05
68	0x3d73cf76	0.059524022
69	0xbb266c03	-0.002539397
70	0x3de32504	0.110910445
71	0xbd8f1c02	-0.06987764
72	0x3dfa3ada	0.12218256
73	0x3dc5182d	0.09623752
74	0x3d81eee7	0.06344395
75	0x3d9db669	0.077008076
76	0x3d6cdc0d	0.057827044
77	0x3c9b333c	0.018945329
78	0x3cab49d3	0.020909226
79	0xbd2d489b	-0.04230557
80	0xbd560f82	-0.052260883
81	0xbc459404	-0.012059215
82	0xbda98d6c	-0.08278927
83	0x3da1451d	0.078745104
84	0xbd324dcc	-0.043531224
85	0x3df9a6ff	0.12190055
86	0x3e034b8d	0.12821789
87	0x3cee01c3	0.029053574
88	0xbe160911	-0.14651896
89	0xbd9d79ca	-0.07689245
90	0xbdfe0a50	-0.12404311
91	0xbce9953b	-0.028513541
92	0x3c7cd339	0.015431219
93	0xbdcd0c6f	-0.10012137
94	0xbc401a41	-0.011725009
95	0x3dea7ca6	0.11449556
96	0xbd8fc503	-0.07019999
97	0xbb9bb46c	-0.0047517326
98	0x3d09f7c1	0.033683542
99	0xbcf28194	-0.029602803
100	0x3e05eaae	0.13077804
101	0xbdbddb5a	-0.092703536
102	0xbce65a47	-0.02811922
103	0xbe026af5	-0.12736113
104	0xbcb62e9c	-0.022239022
105	0xbccf2028	-0.025283888
106	0x3c0e3b9f	0.008681207
107	0x3d97711c	0.07394621
108	0x3dae9b70	0.08525741
109	0x3df20623	0.11817577
110	0x3d829c40	0.063774586
111	0xbc9ead4b	-0.019369742
112	0x3dcce36d	0.100043155
113	0x3e0761db	0.13220923
114	0x3e12fd72	0.14354494
115	0x3dcf28d3	0.101152085
116	0x3dc2610f	0.09491169
117	0x3dd13840	0.10215807
118	0x3d78575f	0.0606302
119	0xbd8af25b	-0.06784507
120	0xbdaab46f	-0.08335196
121	0x3d306dc4	0.04307343
122	0xbd3111f1	-0.04323
123	0x3d391541	0.045186285
124	0x3d1463a0	0.036227822
125	0x3dc8a76f	0.097975604
126	0xbd00d884	-0.031456485
127	0xbdf79e48	-0.12090737
128	0xbd8d1e59	-0.06890554
129	0xbdfe759f	-0.12424778
130	0xbdac5208	-0.08414084
131	0x3cee1b56	0.02906577
132	0xbde6b8f5	-0.112657465
133	0xbdbf7959	-0.09349317
134	0xbd983366	-0.074316785
135	0xbd6005b6	-0.054692946
136	0x3dfaefe5	0.122527875
137	0xbe0a8b71	-0.13529755
138	0x3dc2f034	0.09518471
139	0xbdab0a9e	-0.083516344
140	0x3d958a84	0.073018104
141	0x3dd62f22	0.104582086
142	0x3dd81827	0.10551482
143	0x3d3b02ce	0.04565697
144	0x3e01e032	0.1268318
145	0xbdc5393d	-0.09630058
146	0x3ba96ae1	0.0051702117
147	0x3d9daaa3	0.07698562
148	0xbdf4187d	-0.11918733
149	0xbdc98dde	-0.09841512
150	0xbdec0f3f	-0.115263455
151	0xbcc20256	-0.023682754
152	0x3d1a527d	0.037676323
153	0x3d6d9cef	0.05801099
154	0xbd6066d7	-0.054785576
155	0xbc2e0a08	-0.010622509
156	0xbcdb458c	-0.026766561
157	0xbdd2a8c9	-0.102860995
158	0xbda9ba68	-0.08287507
159	0x3e1e01a6	0.15430316
160	0xbd930712	-0.07179083
161	0x3e05d145	0.13068111
162	0x3c5f9cad	0.013648194
163	0xbd8b8ace	-0.06813584
164	0xbca38ee7	-0.019965602
165	0xbc2e589e	-0.010641245
166	0x3c4bd911	0.012441889
167	0x3d98710d	0.07443438
168	0x3d5d0bee	0.053966455
169	0xbc67a4c6	-0.014138406
170	0xbe074371	-0.1320932
171	0xbdad269b	-0.08454629
172	0x3d6abe84	0.057310596
173	0xbd38df3a	-0.04513476
174	0xbe005ef6	-0.12536225
175	0xbd726670	-0.059179723
176	0xbd6dbbde	-0.058040492
177	0xbd4a1fbf	-0.04934668
178	0x3d9b5027	0.07583647
179	0x3df5b47a	0.11997314
180	0x3d81f26b	0.06345066
181	0x3c32d092	0.010913985
182	0xbdeced19	-0.1156866
183	0x3d731f49	0.059356008
184	0xbad9f932	-0.0016630052
185	0x3e00aaa3	0.12565093
186	0x3e0003ae	0.12501404
187	0x3df4e60e	0.11957942
188	0xbc5a05ce	-0.013307048
189	0x3d973364	0.07382849
190	0xbd08ff69	-0.033446703
191	0x3c9a7c93	0.01885823
192	0x3ab0f1e1	0.001349982
193	0xbd9fe087	-0.07806497
194	0x3c24f7df	0.010068863
195	0x3dfbe436	0.12299387
196	0x3dd7f2d8	0.10544366
197	0xbc195874	-0.009359468
198	0xbd4a852e	-0.049443416
199	0xbd9d9490	-0.07694352
200	0x3df30ac6	0.11867289
201	0xbc70167a	-0.014653796
202	0xbd9e6a7f	-0.07735156
203	0x3e0e3778	0.13888347
204	0xbde080e3	-0.10962083
205	0x3c9a93f9	0.018869387
206	0xbd8d9df4	-0.06914893
207	0xbe1701b2	-0.1474674
208	0xbcc7410b	-0.024323007
209	0x3a9cb95e	0.0011957099
210	0x3e1839e2	0.1486583
211	0xbde167ff	-0.11006164
212	0xbdfa96fc	-0.12235829
213	0xbd498b2b	-0.049204987
214	0x3d4a7f1d	0.04943763
215	0xbbe48f77	-0.00697511
216	0xbd4e3264	-0.050341025
217	0xbca33f5e	-0.019927677
218	0xbcacd116	-0.021095794
219	0x3de0c97f	0.10975932
220	0x3e06a86f	0.1315019
221	0x3db34c9a	0.08754845
222	0x3ddf83b2	0.10913791
223	0xbce57d82	-0.028013948
224	0xbde5a223	-0.11212566
225	0x3d664faa	0.056228317
226	0x3d71e632	0.059057422
227	0x3d3c1e10	0.045927107
228	0xbdf95972	-0.121752635
229	0xbd8e8e94	-0.06960788
230	0x3d6ec22d	0.05829065
231	0x3d21e7ea	0.03952781
232	0x3c7052b9	0.01466816
233	0xbde99521	-0.11405397
234	0x3d4f1858	0.050560325
235	0xbdb4a27b	-0.08820053
236	0x3dd1c8b4	0.10243359
237	0x3d7b1f00	0.06130886
238	0xbdb55569	-0.08854181
239	0xbe13c747	-0.14431487
240	0x3cf614a1	0.030039134
241	0x3e0d6ed8	0.13811815
242	0xbca63500	-0.020288944
243	0x3dacb496	0.084328815
244	0xbde08379	-0.109625764
245	0xbde3c91e	-0.111223444
246	0xbdf34e1d	-0.11880133
247	0x3daf84ff	0.08570289
248	0x3d1f6770	0.038917005
249	0xbbe8f04c	-0.0071087237
250	0x3e0092a0	0.12555933
251	0x3c4bcfe5	0.012439703
252	0x3ca7a108	0.020462528
253	0xbe126160	-0.14294958
254	0x3b042bdc	0.0020167744
255	0x3e0e4599	0.13893737

bias f4 [50]
0	0xbdca5213	-0.09878936
1	0xbbcf97c5	-0.006335231
2	0xbe03bd5e	-0.12865207
3	0x3d61671d	0.055029977
4	0x3c7acea7	0.015308059
5	0x3d42cc8e	0.04755836
6	0x3c8058cc	0.015667342
7	0xbdbc1a98	-0.0918476
8	0xbd5d3177	-0.05400225
9	0x3d928ddd	0.071559645
10	0xbd6a15d0	-0.05714971
11	0x3c97fb57	0.018552465
12	0xbd818cb4	-0.06325665
13	0xbcdbed93	-0.026846683
14	0xbd3eb8c0	-0.04656291
15	0xbda3cea3	-0.07998397
16	0x3cdc1472	0.026865218
17	0xbda134d6	-0.07871406
18	0xbba380b0	-0.004989706
19	0xbdc797f6	-0.09745781
20	0xbdac8eac	-0.0842565
21	0x3dae852a	0.08521493
22	0xbddedbd9	-0.10881776
23	0x3d5f4eec	0.054518625
24	0xbdc13bbe	-0.09435223
25	0xbdc0107f	-0.093781464
26	0x3c92ebc3	0.017934686
27	0x3cf51bb0	0.029920429
28	0xbdb21a9b	-0.08696481
29	0x3cbb693a	0.022877324
30	0x3db97286	0.09055047
31	0xbcc3ab9d	-0.023885543
32	0xbe0ff0fb	-0.1405677
33	0xbdb6667c	-0.08906266
34	0x3cccf6b0	0.025019974
35	0xbda43635	-0.08018152
36	0x3d043609	0.032278094
37	0xbcdc8b40	-0.026921868
38	0xbd0cb7c5	-0.034354944
39	0x3d160207	0.036623027
40	0xbe08422c	-0.13306493
41	0xbba3a941	-0.004994542
42	0xbd710c7a	-0.05884979
43	0x3dfa6095	0.12225453
44	0x3cafb880	0.021450281
45	0x3c03935a	0.008030737
46	0xbe04b10f	-0.12958167
47	0xbd722c1f	-0.05912411
48	0x3d4a5d2b	0.04940526
49	0xbde5bb04	-0.11217311

weight f4 [2, 50]
0	0xbcebdfcf	-0.028793244
1	0xbdf9611e	-0.12176727
2	0x3dd618c4	0.104539424
3	0xbd07e49c	-0.033177003
4	0xbdc6be41	-0.09704257
5	0x3cdf3d3e	0.027250882
6	0x3dae7798	0.085189044
7	0xbc2f36bf	-0.010694205
8	0x3dee2a21	0.11629129
9	0xbe03ee5c	-0.12883896
10	0xbd9f1b58	-0.07768887
11	0xbe0c4016	-0.13696322
12	0xbdb95b32	-0.09050597
13	0xbdc0e9f1	-0.09419621
14	0x3df1e402	0.11811067
15	0xbdbc2954	-0.0918757
16	0x3da55b68	0.08074075
17	0xbd75b383	-0.05998565
18	0x3c9cf35a	0.019159008
19	0x3d45732f	0.04820555
20	0xbcd043aa	-0.02542289
21	0xbd822663	-0.06354978
22	0x3e00304e	0.12518427
23	0xbcfb3d1d	-0.03066879
24	0x3d293860	0.04131353
25	0xbc9bf993	-0.019039905
26	0x3d040de2	0.032239802
27	0xbd809b6a	-0.06279643
28	0xbc616178	-0.0137561485
29	0xbda67bc6	-0.08129077
30	0xbdbb32f0	-0.09140575
31	0x3d7ae48f	0.061253127
32	0x3a8985d3	0.0010492153
33	0xbc9e8f15	-0.019355336
34	0x3e0665b5	0.13124736
35	0xbe16f247	-0.14740859
36	0xbcf16c60	-0.029470623
37	0xbdbe3a1c	-0.09288427
38	0x3dd0cea2	0.10195662
39	0xbd8b69ea	-0.06807311
40	0xbddfd2e7	-0.10928898
41	0xbd88c3df	-0.066779844
42	0x3db6989a	0.08915825
43	0xbc581318	-0.013188146
44	0x3e16cfde	0.14727733
45	0xbd6f1762	-0.05837191
46	0x3da2a7df	0.07942175
47	0x3d110f17	0.03541478
48	0x3d8c99b5	0.06865255
49	0x3d8bff73	0.068358324
50	0xbe0667e4	-0.13125569
51	0x3c8c9585	0.01716114
52	0x3dbafb87	0.09130006
53	0xbe069dc9	-0.13146128
54	0x3c1720f6	0.009224167
55	0x3dd243f1	0.10266865
56	0x3c136523	0.008996281
57	0x3d80505c	0.06265327
58	0xbdb86924	-0.09004429
59	0xbe06a708	-0.13149655
60	0xbdfe0175	-0.12402622
61	0x3db14b93	0.08656993
62	0x3d6874db	0.056752067
63	0xbd885270	-0.06656349
64	0x3db0c865	0.08631972
65	0x3d5158f6	0.05111023
66	0xbc3d3312	-0.011547821
67	0xbcfc1445	-0.030771384
68	0x3d482875	0.048866708
69	0x3d44d3f9	0.048053715
70	0xbda1169e	-0.07865642
71	0xbdc23a09	-0.094837256
72	0x3b5a8d8f	0.0033348536
73	0xbce0ef55	-0.027457872
74	0x3d8d2a61	0.06892849
75	0x3da83fd9	0.08215303
76	0x3e1253e7	0.14289819
77	0x3d8514e4	0.06498125
78	0xbd71d5c1	-0.059041742
79	0x3dd3e0b4	0.10345593
80	0xbd7d8b18	-0.06190023
81	0xbcfd82c4	-0.030946143
82	0xbdb90dc0	-0.09035826
83	0x3dc79a65	0.09746245
84	0x3d9f9ce7	0.077935986
85	0x3c058bb0	0.00815098
86	0xbceb0b2d	-0.028691852
87	0xbdabad0a	-0.08382614
88	0x3d99873e	0.074964985
89	0x3d05b5b6	0.032643996
90	0xbdd5c0e2	-0.1043718
91	0x3d7f50dd	0.062332977
92	0xbcbe69e6	-0.023243856
93	0x3dd9f94e	0.10643254
94	0xbdc57f60	-0.096434355
95	0xbe1156b0	-0.14193225
96	0xbcc383f3	-0.02386663
97	0xbb6b5c5f	-0.0035913212
98	0x3d78425d	0.060610164
99	0x3d883f9e	0.06652759

bias f4 [2]
0	0x3d76cba9	0.06025282
1	0x3dd00e8a	0.10159023
