models/ltc4_model.pth (torch, 59170 bytes, 14 tensors)

weight f4 [50, 2]
0	0xbeef1c43	-0.4670125
1	0xbf0fb73e	-0.5613898
2	0xbc866ccb	-0.016409298
3	0xbdb5f5d0	-0.08884776
4	0x3f11c7f8	0.56945753
5	0xbe4da2e5	-0.2008167
6	0x3ebd828f	0.3701367
7	0xbea5af29	-0.323602
8	0xbebfdacc	-0.37471616
9	0x3f05fffe	0.5234374
10	0xbe1a8e5e	-0.15093371
11	0x3f19228d	0.59818345
12	0x3f32570f	0.6966409
13	0x3ec75296	0.38930196
14	0x3f0391b0	0.51394176
15	0x3f1af392	0.6052791
16	0xbec90125	-0.39258686
17	0xbcfc5fdf	-0.030807434
18	0x3ed5e930	0.4177947
19	0xbe1e06c6	-0.15432271
20	0xbf0a94ed	-0.5413349
21	0x3d8a4dcd	0.067531206
22	0x3f151034	0.5822785
23	0x3ea791c5	0.327284
24	0xbf0fc14f	-0.5615434
25	0xbddbce5e	-0.10732721
26	0x3c347b7a	0.011015767
27	0x3ea56eec	0.3231119
28	0x3f028b83	0.5099413
29	0x3ea96558	0.33085132
30	0xbea9c369	-0.331569
31	0x3eaddf31	0.33959344
32	0xbe3fc291	-0.18726565
33	0xbeb211ba	-0.3477915
34	0x3eb0c182	0.34522635
35	0x3f083ed1	0.5322085
36	0xbcbb7da5	-0.02288706
37	0xbed1eb35	-0.4099976
38	0xbd6a5584	-0.05721046
39	0xbf19c235	-0.6006196
40	0xbf1b2501	-0.6060334
41	0xbf2cf200	-0.6755676
42	0x3dd1d2d7	0.10245293
43	0x3e3a4ed2	0.1819413
44	0x3ed06362	0.40700823
45	0xbeed51dd	-0.4635152
46	0x3e1e68cd	0.15469666
47	0x3f22bbd8	0.63567877
48	0x3d1ab69b	0.037771802
49	0xbe4d27b4	-0.20034677
50	0xbf0e22e4	-0.5552199
51	0xbeea0467	-0.45706484
52	0x3da961cd	0.08270607
53	0xbec2c21d	-0.38038722
54	0xbe60519b	-0.2190613
55	0x3de931b5	0.11386434
56	0xbd868c74	-0.06569758
57	0xbec92099	-0.39282683
58	0xbeae656c	-0.34061754
59	0x3e9f744e	0.3114342
60	0xbeacff68	-0.3378861
61	0xbe570149	-0.20996584
62	0x3e8fee6b	0.28111586
63	0x3deaaf0f	0.11459171
64	0x3e94d52a	0.2906888
65	0xbefa6422	-0.4890452
66	0xbef57fdf	-0.4794912
67	0x3f1d4752	0.6143695
68	0x3e673cf6	0.22581849
69	0x3f0c75af	0.5486707
70	0xbd4834de	-0.048878543
71	0x3f041877	0.5159983
72	0x3f07d1fb	0.5305478
73	0xbf075f46	-0.5287975
74	0xbe2b9857	-0.16757332
75	0x3e54f5fb	0.20796959
76	0x3eddb007	0.4329836
77	0xbdedf984	-0.11619857
78	0x3ed09e88	0.4074595
79	0xbefa801d	-0.48925868
80	0xbf211e1e	-0.6293658
81	0x3f18e858	0.5972953
82	0xbf28d36a	-0.6594759
83	0xbe83a934	-0.2571503
84	0xbec996a0	-0.3937273
85	0x3ee7ccce	0.4527344
86	0xbeb0f00e	-0.34558147
87	0x3eaf3e23	0.34227094
88	0xbebd7abd	-0.37007704
89	0xbf273d23	-0.6532766
90	0x3d62a2ba	0.05533097
91	0xbede5b0e	-0.43428844
92	0xbe26a4a5	-0.16273744
93	0xbef7d3c1	-0.48403743
94	0xbe40ae5b	-0.18816511
95	0xbf2c617b	-0.67336243
96	0x3f269bc7	0.6508145
97	0x3f22776f	0.6346349
98	0xbc86d90a	-0.016460914
99	0x3f2ba3f2	0.67047036

bias f4 [50]
0	0x3d8117c7	0.06303363
1	0x3eac942b	0.33706793
2	0x3ee78941	0.45221904
3	0xbe0e269a	-0.13881913
4	0xbc94654c	-0.018114708
5	0x3e8aea13	0.2713171
6	0xbe0acd25	-0.13554819
7	0xbe3ed95e	-0.18637607
8	0x3cbfd58a	0.023417253
9	0xbf24ccdd	-0.64375097
10	0xbe42198e	-0.18955061
11	0xbed4114a	-0.4141944
12	0x3f2d52cf	0.6770448
13	0x3e99a3ad	0.30007687
14	0x3ede651c	0.43436515
15	0x3f132990	0.57485294
16	0xbeecd565	-0.46256557
17	0x3f29881c	0.6622331
18	0x3e09a713	0.1344264
19	0xbf16cdf5	-0.58908015
20	0xbf1cbcf8	-0.61225843
21	0xbe4f64d2	-0.20253304
22	0xbdabb680	-0.083844185
23	0xbe87a174	-0.26490366
24	0xbe2d7a20	-0.16941118
25	0xbe9fb05b	-0.31189236
26	0xbc7dc819	-0.0154896015
27	0xbeb11a43	-0.3459035
28	0xbde04ad9	-0.10951776
29	0x3ee3aeb0	0.44469213
30	0xbd807b69	-0.062735386
31	0x3f02633d	0.50932676
32	0xbe993577	-0.29923603
33	0xbf1a32e3	-0.60233897
34	0xbe9eacd8	-0.30991244
35	0x3edb7106	0.42859668
36	0xbf0914d1	-0.5354739
37	0x3f347fb7	0.7050738
38	0xbea56cda	-0.3230961
39	0xbf173a49	-0.5907331
40	0x3f1d3ea2	0.61423695
41	0xbeab9118	-0.33509135
42	0xbdf968fb	-0.121782266
43	0xbc823304	-0.015893467
44	0xbe3492ea	-0.17634168
45	0x3f26b9ce	0.65127265
46	0x3ed15332	0.40883785
47	0x3eedfec3	0.4648343
48	0xbe6839ba	-0.22678271
49	0xbe43fbf7	-0.19139086

weight f4 [50, 50]
0	0x3d6fb841	0.058525328
1	0xbd4124b4	-0.047154143
2	0x3da119eb	0.078662716
3	0xbcee6111	-0.02909902
4	0x3cf5b16c	0.029991828
5	0xbdf073ed	-0.11740861
6	0x3cd93e31	0.026518913
7	0x3de42519	0.11139888
8	0x3e249637	0.16072927
9	0x3d9846dc	0.0743539
10	0xbd7da7da	-0.061927654
11	0xbd7dc670	-0.061956823
12	0xbd8125c0	-0.06306028
13	0x3dc1557f	0.09440135
14	0xbe174b6e	-0.14774868
15	0xbde4813a	-0.111574605
16	0x3da458b9	0.08024735
17	0xbc7546a5	-0.014970456
18	0x3b891bae	0.004184208
19	0xbd328044	-0.043579355
20	0x3dee7bf8	0.11644739
21	0xbdb42530	-0.087961555
22	0x3d5d33e2	0.054004557
23	0xbded1fc0	-0.115783215
24	0x3de7f0f5	0.11325256
25	0xbd3a3254	-0.045458153
26	0x3d22e011	0.039764468
27	0xbd93393b	-0.0718865
28	0xbd8e68a4	-0.06953552
29	0x3d4409b5	0.04786082
30	0x3d91264c	0.07087383
31	0x3df528c2	0.119706646
32	0x3d1fc6d8	0.03900799
33	0xbdc0342e	-0.093849525
34	0x3daefba3	0.0854409
35	0x3db0d3a7	0.086341195
36	0xbdf590b6	-0.11990492
37	0x3ca50ddf	0.020148216
38	0xbde0c441	-0.109749325
39	0xbe05638f	-0.1302626
40	0xbd479876	-0.048729382
41	0xbd8a8f2c	-0.06765589
42	0xbd100ecb	-0.035170358
43	0xbe138865	-0.14407499
44	0xbd0db23e	-0.034593813
45	0xbc3c4885	-0.011491899
46	0x3e04ade6	0.12956962
47	0x3d715a4c	0.058924004
48	0x3c14f37b	0.009091253
49	0xbdf00ae3	-0.117208265
50	0x3dbf56a4	0.09342697
51	0x3da40a3d	0.08009765
52	0xbdc99c04	-0.09844211
53	0xbd58c467	-0.05292168
54	0x3d99105e	0.07473825
55	0x3de4694b	0.111528955
56	0xbdaa4ff0	-0.08316028
57	0xbcfc0985	-0.030766258
58	0x3cbc0c0e	0.022954967
59	0xbd28776e	-0.041129522
60	0xb8d6f1f4	-0.000102493825
61	0xbdcaa7cf	-0.09895288
62	0xbdaed733	-0.0853714
63	0x3d795dfd	0.06088065
64	0x3da2fd81	0.07958508
65	0x3de5c518	0.11219233
66	0x3cc713fe	0.024301525
67	0x3deaceff	0.114652626
68	0x3d9bdb0f	0.076101415
69	0xbce87a41	-0.028378608
70	0x3cc3748e	0.023859289
71	0x3e0bcad2	0.13651589
72	0x3ca43361	0.02004403
73	0x3d47990c	0.04872994
74	0xbd8f3928	-0.069933236
75	0xbda61255	-0.08108965
76	0x3dee575c	0.11637756
77	0x3d24c642	0.040228136
78	0xbcbb70cc	-0.022880934
79	0xbdafefbf	-0.0859065
80	0xbcaa635d	-0.020799333
81	0x3cb61490	0.022226602
82	0x3dd070ae	0.10177742
83	0xbc4c2ded	-0.012462121
84	0xbde9367a	-0.11387344
85	0xbdf5d6b4	-0.12003842
86	0xbdfc06cd	-0.12305985
87	0x3df12662	0.11774899
88	0xbd901f41	-0.07037211
89	0xbd738d9f	-0.059461232
90	0x3dda1e7b	0.10650345
91	0x3de87893	0.11351123
92	0xbcdd15c6	-0.026987921
93	0x3e008e56	0.12554297
94	0x3c876f5e	0.016532596
95	0xbd9625c9	-0.07331426
96	0x3ddeafe9	0.10873396
97	0xbe18a8c8	-0.14908135
98	0xbc971016	-0.018440288
99	0x3d5e3a13	0.054254603
100	0x3d79d173	0.060990762
101	0x3e0de34f	0.13856243
102	0x3cc11ee7	0.023574306
103	0xbc5df5c5	-0.013547366
104	0x3c47cdde	0.012195079
105	0x3def9cf6	0.1169986
106	0xbd121629	-0.035665665
107	0x3d3e23ae	0.046420746
108	0xbd98d5d7	-0.07462662
109	0x3da1d4b6	0.079018995
110	0x3d3486da	0.044073917
111	0xbb10651c	-0.0022032922
112	0x3d77797f	0.060418602
113	0xbdf71775	-0.12065021
114	0x3ddc656b	0.107615314
115	0xbd9a7040	-0.07540941
116	0x3d121a97	0.03566989
117	0x3d308ee5	0.043105025
118	0x3ddb095e	0.10695146
119	0xbda06d4a	-0.07833345
120	0xbd93a31a	-0.072088435
121	0x3ddb2d2b	0.107019745
122	0xbc9e96be	-0.019358989
123	0x3bfcbdd7	0.0077130604
124	0x3df47aff	0.11937522
125	0x3d9b9745	0.07597212
126	0x3de2724e	0.11056958
127	0xbdfdbf01	-0.12389947
128	0xbda07102	-0.078340545
129	0x3d6012d6	0.054705463
130	0x3d4adb9f	0.049525853
131	0x3db9611f	0.090517275
132	0x3dcf1416	0.10111253
133	0x3d7ae3db	0.061252456
134	0x3df383ad	0.118903495
135	0x3d8081d7	0.06274765
136	0xbe037ff0	-0.12841773
137	0xbe041659	-0.1289915
138	0xbd3d6ff0	-0.04624933
139	0xbdf98768	-0.1218403
140	0x3b51b7d6	0.0032000444
141	0x3d60804e	0.05480986
142	0xbdd31e49	-0.10308511
143	0xbdfdf5b4	-0.1240038
144	0x3de84ceb	0.11342796
145	0x3d3280ce	0.04357987
146	0xbe152531	-0.14564969
147	0x3d9c1520	0.07621217
148	0xbd7cd4ae	-0.061726265
149	0xbda46e87	-0.08028894
150	0xbdb6e9ff	-0.0893135
151	0xbdbc6ce5	-0.092004575
152	0x3c97c801	0.018527986
153	0x3dce57cc	0.1007534
154	0x3dca05a4	0.09864357
155	0x3e0b67e3	0.13613848
156	0x3d6d0cfc	0.05787371
157	0x3debcd6e	0.11513792
158	0x3c4976d3	0.012296396
159	0xbdfa4c98	-0.1222164
160	0x3c4efeed	0.012634021
161	0xbdafd0d9	-0.085847564
162	0x3e2d9934	0.16952974
163	0xbd915e21	-0.07098032
164	0x3d7c7c5c	0.061642036
165	0xbdc6e829	-0.0971225
166	0x3d98b638	0.074566305
167	0x3d77dca1	0.060513142
168	0x3dc697ac	0.09696898
169	0xbd156313	-0.036471438
170	0x3c34fb33	0.011046219
171	0xbe197413	-0.14985685
172	0xbddd2f1d	-0.10800002
173	0x3da24cdc	0.07924816
174	0x3cf5d85b	0.030010393
175	0xbd7c5dc1	-0.06161285
176	0xbda00791	-0.07813943
177	0xbdf85761	-0.12126041
178	0x3d03b46f	0.032154497
179	0xbe0d4e2a	-0.13799348
180	0x3e16c93d	0.14725204
181	0x3d29599e	0.04134523
182	0xbd785fab	-0.06063811
183	0x3d96c3ab	0.073615395
184	0xbdb73323	-0.089453004
185	0x3d9da02e	0.076965675
186	0xbc6db22a	-0.01450781
187	0xbd7f207d	-0.062286843
188	0x3cd4c89a	0.02597456
189	0xbe1177d0	-0.14205861
190	0xbd89f22f	-0.06735646
191	0xbdf7224a	-0.12067087
192	0x3da207bf	0.07911634
193	0x3e09c708	0.1345483
194	0x3cc898a7	0.024486853
195	0xbdb9a662	-0.09064938
196	0x3dd1ac4c	0.10237941
197	0x3c864bc3	0.016393548
198	0xbe081a99	-0.13291396
199	0xbd63e8b4	-0.055641845
200	0x3d676cb0	0.056500137
201	0x3df4f985	0.119616546
202	0xbd984daa	-0.07436688
203	0xbbd27a52	-0.006423273
204	0x3d9ac75f	0.07557558
205	0x3d70042d	0.058597732
206	0xbd8e7d18	-0.069574535
207	0xbd8dd4a8	-0.069253266
208	0x3d2aa26b	0.0416588
209	0xbe1db339	-0.154004
210	0x3d0fcf82	0.035110004
211	0x3d37ecd8	0.044903606
212	0xbc9aba04	-0.018887527
213	0x3b71d646	0.0036901399
214	0xbdac1a7b	-0.08403488
215	0x38b8cac7	8.811574e-05
216	0xbd1c798e	-0.03820186
217	0x3d7e0068	0.062012106
218	0x3d8d154f	0.0688883
219	0x3d95ae2b	0.073086105
220	0xbd2bf8cf	-0.04198533
221	0xbc49f1c2	-0.012325706
222	0xbdc29d4d	-0.09502659
223	0xbd9cb251	-0.07651199
224	0x3d626f32	0.055281825
225	0x3dafd810	0.085861325
226	0x3b45aee5	0.003016406
227	0xbc974b3b	-0.01846849
228	0xbd3e618e	-0.046479754
229	0xbdbcd5fb	-0.09220501
230	0x3d5c7e07	0.053831127
231	0x3cb8fd24	0.022581644
232	0x392a6403	0.0001624972
233	0x3d1a3544	0.037648454
234	0xbd7195cf	-0.05898076
235	0xbc8f4305	-0.017488012
236	0xbbbe38cf	-0.005805112
237	0xbcb8597a	-0.022503603
238	0xbde0d219	-0.10977573
239	0x3e07e114	0.13269454
240	0x3d033399	0.03203163
241	0x3d456c89	0.04819921
242	0xbd9c965f	-0.076458685
243	0xbc86f7f5	-0.016475657
244	0xbc578410	-0.013154045
245	0x3e11017b	0.14160721
246	0x3e240ccc	0.16020507
247	0x3e041bdf	0.12901257
248	0xbc2341fa	-0.0099644605
249	0x3da81eb2	0.0820898
250	0x3c518fce	0.012790633
251	0x3d6a498e	0.057199053
252	0xbdf7ba62	-0.120960966
253	0xb876c20a	-5.8831683e-05
254	0xbe0ac40f	-0.13551353
255	0xbdec235f	-0.11530184

bias f4 [50]
0	0x3ceece4e	0.029151108
1	0x3d31f61b	0.043447595
2	0x3d3b5f9c	0.045745477
3	0x3d9474ef	0.07248866
4	0x3d1743d0	0.036929905
5	0xba758856	-0.0009366324
6	0xbd2e5b7a	-0.042567708
7	0x3db8c2aa	0.09021504
8	0x3d22efb6	0.039779387
9	0x3df17d8a	0.11791523
10	0xbe07a816	-0.13247713
11	0xbdab3f0f	-0.08361637
12	0xbd89eb1c	-0.06734297
13	0x3dcca945	0.09993223
14	0xbd2b9b7e	-0.041896336
15	0x3dcd4296	0.10022466
16	0x3ce3a00d	0.02778628
17	0x3de280ed	0.11059747
18	0x3c2a6981	0.010401131
19	0xbc980105	-0.018555174
20	0x3e1d33db	0.15351813
21	0xbe092027	-0.13391171
22	0x3dcf1a50	0.101124406
23	0xbc6cbc89	-0.014449247
24	0xbd83fb4d	-0.06444416
25	0xbd1f3bb1	-0.038875286
26	0x3db68606	0.08912282
27	0x3dde846d	0.10865102
28	0xbc9ebfa3	-0.019378489
29	0x3dd585c2	0.10425903
30	0xbbab548c	-0.0052285846
31	0xbd9cb938	-0.07652515
32	0xbd3c84f8	-0.046025246
33	0xbe0aed96	-0.13567194
34	0xbcf30300	-0.029664516
35	0xbe0ea8b9	-0.1393155
36	0x3d99da9c	0.075123996
37	0x3d361f35	0.044463355
38	0xbd0fea4a	-0.035135545
39	0xbdb2dbbc	-0.08733317
40	0x3c72b28f	0.0148130795
41	0xbd06409f	-0.03277647
42	0xbd0d0f6b	-0.03443853
43	0x3dcba6fa	0.099439576
44	0xbd5c8d83	-0.053845894
45	0x3d1fcbf8	0.03901288
46	0x3d6f26e3	0.058386695
47	0xbda7b731	-0.08189238
48	0x3e08325e	0.13300464
49	0x3db55520	0.08854127

weight f4 [50, 50]
0	0x3e1660b6	0.1468533
1	0xbdecaae1	-0.1155603
2	0x3e098e33	0.13433151
3	0x3e091d9e	0.13390204
4	0x3e2709ea	0.16312376
5	0x3d814236	0.06311457
6	0xbe19e07f	-0.15027045
7	0xbd217b0b	-0.039423984
8	0xbcf6fe1d	-0.030150468
9	0x3c2b851b	0.010468747
10	0xbd9c7e8d	-0.07641325
11	0x3dac4618	0.08411807
12	0x3de35eb9	0.11102051
13	0x3cd85df3	0.026411986
14	0x3d7720df	0.060334083
15	0x3dad4739	0.0846085
16	0x3df26d14	0.11837211
17	0xbd8eb5ee	-0.06968294
18	0x3deedff3	0.11663809
19	0x3da47e0a	0.080318525
20	0x3d3ef1f5	0.046617467
21	0xbdaf30a7	-0.085542016
22	0x3dc53380	0.096289635
23	0x3cd2af58	0.025718376
24	0x3cd07bc7	0.025449647
25	0xbd0ee85a	-0.034889556
26	0x3dfd678e	0.12373267
27	0xbd305f22	-0.043059476
28	0x3e01cb84	0.12675291
29	0x3b884685	0.004158797
30	0x3ddc9c05	0.10771946
31	0xbc5e8f7b	-0.013584013
32	0xbc903411	-0.017602952
33	0xbdd82eeb	-0.10555824
34	0x3d82bf33	0.063841246
35	0xbdc415ef	-0.09574496
36	0x3df5e0c3	0.120057605
37	0xbd004698	-0.031317323
38	0xbe13a4f5	-0.14418395
39	0xbdb1f29f	-0.086888544
40	0xbd4df375	-0.050281007
41	0x3db57229	0.08859665
42	0x3d2f6a11	0.042825762
43	0xbdb9fd51	-0.090815194
44	0x3e03dde3	0.12877612
45	0x3c8074ea	0.015680749
46	0x3b9c7277	0.0047743875
47	0x3e0210e7	0.1270176
48	0xbdd2adc2	-0.10287048
49	0x3d8c88d8	0.068620384
50	0x3df17634	0.117901236
51	0x3de1ea18	0.11030978
52	0xbdb15eac	-0.08660635
53	0x3d2d19e0	0.042261004
54	0x3d93b87a	0.072129205
55	0x3d557e0d	0.052122165
56	0x3c6110f8	0.013736956
57	0x3d7dacc3	0.061932337
58	0x3d8d971f	0.0691359
59	0xbd60c5a6	-0.054875992
60	0xbdfb724d	-0.122776605
61	0x3ce86ad9	0.028371261
62	0x3d524e52	0.051344223
63	0x3cce8cca	0.025213618
64	0x3daba7ba	0.08381601
65	0x3cb92e85	0.02260519
66	0xbc3eed8f	-0.011653318
67	0x3d268bff	0.040660854
68	0x3d28ad0f	0.041180667
69	0x3cee84d0	0.029116064
70	0x3dcba963	0.09944417
71	0x3dfbb11b	0.122896396
72	0xbdbc4b98	-0.09194106
73	0xbc4f6829	-0.012659111
74	0xbe0716db	-0.13192312
75	0xbd54735e	-0.051867835
76	0x3cddc5ca	0.027071852
77	0xbe1b2829	-0.15152039
78	0xbd8f7647	-0.070049815
79	0x3e0f5999	0.13999023
80	0x3d13a813	0.03604896
81	0x3dbd37d4	0.09239164
82	0x3dbb4a0b	0.09144982
83	0xbd0d6af5	-0.03452583
84	0xbcd335b0	-0.025782436
85	0xbd94eb0d	-0.07271395
86	0x3dca7cc5	0.09887079
87	0x3c8d8856	0.017276924
88	0x3d826471	0.06366814
89	0x3df55c6c	0.11980519
90	0x3b3d6059	0.002889654
91	0x3d262016	0.040557943
92	0x3de42d2f	0.111414306
93	0x3da37a9d	0.07982371
94	0x3dcbebd4	0.0995709
95	0x3dd96086	0.106141135
96	0xbe165f66	-0.14684829
97	0xbde599c6	-0.112109706
98	0xbdb15220	-0.08658242
99	0x3d48ca67	0.04902115
100	0xbd920d32	-0.07131423
101	0xbe06baba	-0.13157168
102	0xbc9066a6	-0.017627072
103	0x3dac73c8	0.08420521
104	0xbdfdaefa	-0.1238689
105	0xbe1b9779	-0.15194501
106	0x3d733e0b	0.05938534
107	0xbdf06689	-0.11738307
108	0xbcbfd4bc	-0.02341687
109	0xbda6ff6f	-0.08154189
110	0x3e0066d7	0.1253923
111	0xbd915cda	-0.07097788
112	0x3da79e0f	0.08184444
113	0xbdf287dc	-0.11842319
114	0x3d8269d0	0.063678384
115	0xbe103fee	-0.14086887
116	0xbdb3af2f	-0.08773648
117	0x3c432197	0.011909864
118	0xbddf14a2	-0.10892607
119	0xbac32ff0	-0.0014891606
120	0x3df96b73	0.121786974
121	0xbdfadede	-0.1224954
122	0x3cd70f1c	0.026252322
123	0x3bdd1003	0.0067462935
124	0x3df3f445	0.11911825
125	0xbdf84244	-0.12122014
126	0xbe050835	-0.12991412
127	0xbd78a7d0	-0.060706913
128	0xbdf78eb5	-0.12087766
129	0x3a994fb5	0.0011696728
130	0x3dc107d7	0.094253235
131	0x3b9eccc4	0.0048461873
132	0xbcb6369c	-0.022242837
133	0x3df11dc2	0.11773254
134	0xbc1521ef	-0.009102329
135	0xbd207c17	-0.03918084
136	0xbdd92fcb	-0.10604819
137	0x3ddaf28f	0.10690796
138	0xbdb4d90b	-0.0883046
139	0x3dafae5c	0.08578178
140	0xbe161476	-0.14656243
141	0x3d2fc327	0.04291072
142	0xbd3bfa37	-0.04589292
143	0x3ce4fdce	0.027953055
144	0xbd929910	-0.071581006
145	0x3d734d0c	0.05939965
146	0x3e11d6bb	0.1424207
147	0x3cf8ae1e	0.030356463
148	0x3d9fb613	0.077984
149	0xbc50d43e	-0.012745915
150	0x3e0fe2ee	0.1405141
151	0x3cd80cb7	0.02637325
152	0xbdbd9fa2	-0.09258963
153	0xbcbc4cab	-0.022985777
154	0x3d96eaa2	0.073689714
155	0xbb2dc98d	-0.0026517839
156	0xbb765779	-0.003758876
157	0xbe15fa75	-0.14646323
158	0xbcfbe56c	-0.030749045
159	0xbad0b30c	-0.0015922501
160	0xbd809949	-0.06279237
161	0xbe23067a	-0.1592044
162	0x3c7aedc1	0.015315474
163	0x3db84a71	0.089985736
164	0xbe168f20	-0.14703035
165	0x3e14a631	0.14516522
166	0xbd9c3393	-0.076270245
167	0xbddd6929	-0.10811073
168	0x3d7f7600	0.062368393
169	0x3dd668d5	0.10469214
170	0x3d1febc0	0.039043188
171	0xbd1be03f	-0.038055655
172	0xbdd64fe6	-0.10464458
173	0x3dbf2df7	0.09334939
174	0xbdc727e2	-0.09724404
175	0x3e101943	0.14072137
176	0x3e0b3908	0.13595974
177	0x3d9c52c5	0.076329745
178	0x3dd8222c	0.10553393
179	0x3dd335a8	0.103129685
180	0xbdbb6daf	-0.0915178
181	0xbc950d1d	-0.01819473
182	0x3c8f51ea	0.017495114
183	0x3c8430d4	0.016136564
184	0xbdf99457	-0.12186497
185	0xbcb32f23	-0.021873062
186	0x3d8d93ab	0.06912931
187	0xbd8a40d8	-0.06750649
188	0xbdfc872e	-0.12330471
189	0xbde1bad0	-0.1102196
190	0xbe0cb5f9	-0.13741292
191	0xbe0c56ea	-0.1370503
192	0xbdb76540	-0.08954859
193	0xbd59e46d	-0.05319636
194	0x3e016617	0.126366
195	0x3d9e1ed6	0.07720725
196	0xbcc69cc1	-0.024244668
197	0x3e17176c	0.14755028
198	0x3cef202a	0.029190142
199	0x3d817e9a	0.063229755
200	0xbd9605ff	-0.073253624
201	0x3da82828	0.08210784
202	0xbd52c998	-0.051461786
203	0x3de3ad6e	0.111170635
204	0x3dfa33b8	0.12216896
205	0x3d8729d8	0.06599778
206	0xbddc5efc	-0.10760304
207	0xbda96f9f	-0.08273243
208	0xbdd61dc5	-0.10454897
209	0xbdcac8cd	-0.09901581
210	0x3dbda98e	0.092608556
211	0xbe1fd705	-0.15609367
212	0x3cedae95	0.029013911
213	0x39e58d02	0.00043783343
214	0xbdf4b9ab	-0.11949476
215	0x3dd80c37	0.10549205
216	0x3df6fdea	0.12060149
217	0x3dd4c4e9	0.1038912
218	0xbd064ae1	-0.032786254
219	0x3d7dbfc7	0.06195047
220	0xbd753664	-0.059866324
221	0xbdb586fa	-0.08863635
222	0x3df77fd8	0.12084931
223	0xbb95e394	-0.0045742486
224	0xbdc293b9	-0.09500832
225	0x3dac283c	0.084061116
226	0xbd1a9bd4	-0.037746266
227	0x3dda1a2f	0.106495254
228	0xbdb5ecd2	-0.088830605
229	0x3da0b46e	0.07846914
230	0x3d979af0	0.07402599
231	0xbe10ca13	-0.14139585
232	0xbb535216	-0.0032244972
233	0x3d84687d	0.06465242
234	0xbc7936ab	-0.015210788
235	0xbd79adf1	-0.0609569
236	0x3e120f10	0.14263558
237	0xbd786b77	-0.06064936
238	0x3d55ef86	0.05223038
239	0xbdf78aa5	-0.12086991
240	0xbcea8c47	-0.028631343
241	0x3e03fedd	0.12890191
242	0xbd8a21dd	-0.0674474
243	0x3d3594d9	0.044331405
244	0xbcbe66f5	-0.023242453
245	0x3c91b223	0.017785138
246	0xbd6b7d65	-0.057492632
247	0x3c4d9497	0.012547634
248	0xbe098325	-0.13428934
249	0xbd830fc3	-0.06399491
250	0xbcf50fca	-0.029914755
251	0x3dafd95d	0.08586381
252	0x3c7f3bee	0.015578253
253	0xbd916587	-0.07099443
254	0xbd43b5e8	-0.0477809
255	0x3c01c5da	0.007920707

bias f4 [50]
0	0x3e06eb47	0.13175689
1	0x3decf16e	0.115694866
2	0xbc1c9c2c	-0.009558719
3	0xbe0880ab	-0.13330333
4	0xbd1a69c6	-0.03769853
5	0xbd144ad9	-0.036204193
6	0xbd2453c0	-0.040118933
7	0xbdb1b6be	-0.086774334
8	0xbc7a44bb	-0.015275176
9	0xbdfce78b	-0.12348851
10	0x3da4207b	0.08014008
11	0x3cf273cd	0.029596234
12	0xbdab3de8	-0.08361417
13	0x3e0796f7	0.13241182
14	0xbe0d5a36	-0.13803944
15	0xbd9f1345	-0.07767347
16	0xbbe2d8c9	-0.0069228155
17	0xbb088bb5	-0.0020835225
18	0xbdd673d8	-0.10471314
19	0xbe0d7a64	-0.1381622
20	0xbe1508bd	-0.14554115
21	0x3dd0b502	0.101907745
22	0x3d8de27f	0.06927966
23	0x3d0cbb3d	0.03435825
24	0xbd8670d3	-0.06564488
25	0x3cedccfa	0.029028405
26	0xbc086f70	-0.00832735
27	0xbe0409ce	-0.12894365
28	0x3d61c774	0.055121854
29	0x3e04d420	0.12971544
30	0x3df2e050	0.118591905
31	0x3b302f48	0.002688365
32	0x3e009d40	0.12559986
33	0xbda5af29	-0.0809005
34	0xbc937e30	-0.018004507
35	0xbcabe46f	-0.020982949
36	0xbd92f55a	-0.07175703
37	0xbddbe261	-0.10736538
38	0x3e0a2e9c	0.13494343
39	0xbcd49b2c	-0.025952898
40	0x3de640a9	0.11242802
41	0xbcf9dfb4	-0.030502178
42	0xbded1519	-0.1157629
43	0x3d8cac42	0.06868793
44	0xbd40933a	-0.047015406
45	0x3dcc0a6f	0.099629276
46	0x3df94a5a	0.121723846
47	0x3ceaaa60	0.028645694
48	0xbe1437d2	-0.14474419
49	0x3df00306	0.11719327

weight f4 [50, 50]
0	0x3e0d6a40	0.13810062
1	0x3bc9e84f	0.0061617265
2	0xbe047ad9	-0.12937488
3	0xbde7f2c4	-0.11325601
4	0x3df8c8dd	0.12147687
5	0xbe01dbe9	-0.12681545
6	0x3e077d01	0.13231279
7	0x3da7dd68	0.08196527
8	0xbb997e46	-0.0046842424
9	0xbdf8992d	-0.12138591
10	0xbda8404e	-0.0821539
11	0x3d722a6c	0.059122488
12	0x3dbf24a1	0.09333158
13	0xbdc8453c	-0.097788304
14	0x39281d18	0.00016032567
15	0x3d83a442	0.06427814
16	0x3dd73c7d	0.10509584
17	0xbdf2b019	-0.11849994
18	0x3ca93326	0.020654272
19	0xbd980c04	-0.07424167
20	0xbc8f3b34	-0.017484285
21	0x3cc72d18	0.024313495
22	0x3d2c32c6	0.04204061
23	0x3db1a136	0.08673327
24	0x3dcd304a	0.10018976
25	0x3e1066db	0.14101736
26	0xbc54cd23	-0.0129883615
27	0x3e17d4c4	0.14827257
28	0x3df0243b	0.117256604
29	0x3d0689ae	0.032846145
30	0x3d90055b	0.070322715
31	0xbbb5299d	-0.0055286423
32	0x3dc39481	0.09549809
33	0x3da24e50	0.07925093
34	0x3db10210	0.086429715
35	0xbbb9230a	-0.005649929
36	0xbde309eb	-0.11085876
37	0xbd06044e	-0.03271895
38	0x3c8d783d	0.017269248
39	0xbdad5af7	-0.08464616
40	0x3d360795	0.044440825
41	0x3d665234	0.05623074
42	0x3d5ac088	0.05340627
43	0xbd943c01	-0.07238007
44	0xbdb46472	-0.08808221
45	0xbdb2abec	-0.08724198
46	0x3caa8af8	0.020818219
47	0x3dbc9f13	0.092100285
48	0x3d8c4ec8	0.06850964
49	0x3df8e070	0.12152183
50	0xbe15669b	-0.14589922
51	0x3dab2592	0.08356775
52	0xbd426418	-0.047458738
53	0x3d9219bd	0.071338154
54	0xbcee0b11	-0.029058011
55	0xbdc6ac5f	-0.09700846
56	0xbd961cb7	-0.07329696
57	0x3ce36193	0.027756488
58	0x3dcfffec	0.10156235
59	0xbd5b6c8d	-0.05357032
60	0x3da34d00	0.07973671
61	0xbdf5d2b2	-0.120030776
62	0xbdd6f29b	-0.10495492
63	0x3d8c1211	0.068393834
64	0xbda1e913	-0.079057835
65	0x3d9223b9	0.0713572
66	0xbdd5396d	-0.10411344
67	0xbb94baf0	-0.0045388862
68	0xbdf1ecbb	-0.11812731
69	0x3dfcf2ef	0.123510234
70	0x3de01778	0.10941976
71	0x3c4062a3	0.011742267
72	0xbde05ce7	-0.1095522
73	0xbde9072e	-0.113783225
74	0xbdce872a	-0.10084374
75	0x3d4c3006	0.049850486
76	0xbd5a7b30	-0.053340137
77	0x3d2b1700	0.04176998
78	0x3d33b16f	0.043870386
79	0x3e08b7ed	0.13351412
80	0xbd81d346	-0.06339125
81	0xbcffa1fc	-0.03120517
82	0xbb30f725	-0.0027002778
83	0x3da11594	0.07865444
84	0xbceeefb1	-0.029167028
85	0xbd6c4d52	-0.057690926
86	0xbe0fba4b	-0.14035909
87	0xbdbaa164	-0.09112814
88	0xbc20fbd2	-0.009825664
89	0x3e035a04	0.12827307
90	0xbd10d83f	-0.03536248
91	0xbbeb8a2e	-0.007188103
92	0xbde002d9	-0.10938043
93	0xbda1d159	-0.07901258
94	0xbd776851	-0.06040222
95	0x3e04fa99	0.1298622
96	0xbde2b622	-0.11069895
97	0x3df908a2	0.1215985
98	0xbd789698	-0.060690492
99	0x3c48e212	0.012260931
100	0xb98adbc7	-0.00026485158
101	0xbdd7c9ef	-0.10536563
102	0x3d0c523e	0.03425812
103	0x3d18c828	0.03730026
104	0xbdd7d9fe	-0.105396256
105	0x3dbc4538	0.0919289
106	0xbc09959a	-0.008397484
107	0x3c93c1c6	0.018036734
108	0x3d6f4b33	0.058421325
109	0x3e072b21	0.13200046
110	0x3d79a65c	0.06094967
111	0xbca5fb12	-0.020261321
112	0xbc028087	-0.007965214
113	0xbd1f5ace	-0.038904957
114	0xbdb4af52	-0.08822502
115	0xbda0623f	-0.07831239
116	0x3cd38d24	0.025824137
117	0x3c9174f7	0.017755968
118	0x3c7378e7	0.014860368
119	0x3c4ba1c1	0.012428702
120	0x3cfdab78	0.030965552
121	0x3bd12918	0.0063830726
122	0xbdc89582	-0.09794141
123	0x3db40544	0.08790067
124	0x3e09928d	0.13434811
125	0x3d20fb14	0.039301947
126	0x3d9d2af3	0.076742075
127	0xbde2a4e8	-0.110666096
128	0x3d768f60	0.060195327
129	0x3de568ec	0.11201653
130	0x3dff6d23	0.12471988
131	0x3e1cf399	0.153273
132	0xbdba4e99	-0.090970226
133	0x3de203b2	0.11035861
134	0xbc00fa92	-0.007872241
135	0xbda8939f	-0.082312815
136	0x3d2c797b	0.04210804
137	0x3be4b781	0.006979883
138	0x3dbbdf7a	0.09173484
139	0x3d5b6dd5	0.05357154
140	0xbd1d75fa	-0.03844259
141	0xbd46ebb0	-0.048564613
142	0xbd92da61	-0.07170559
143	0x3d80c1ca	0.06286962
144	0x3e183387	0.14863406
145	0x3d6e37da	0.058158733
146	0x3d4fc72f	0.050727066
147	0xbc8da27f	-0.017289398
148	0x3da5afdb	0.080901824
149	0x3ced0bd4	0.028936304
150	0x3cd30e59	0.025763677
151	0x3db9ecdb	0.0907838
152	0x3deb4ff2	0.11489858
153	0xbe077ba3	-0.13230757
154	0x3de21e92	0.11040987
155	0x3d64999c	0.055810556
156	0x3d4133c5	0.047168512
157	0xbd8c1404	-0.06839755
158	0xbde8760c	-0.11350641
159	0xbb8d8f73	-0.004320079
160	0xbdfecda4	-0.124415666
161	0x3ded727e	0.11594103
162	0xbd811e7c	-0.063046426
163	0x3dc782d1	0.09741748
164	0x3ddbe1dd	0.107364394
165	0xbbd36bf7	-0.0064520794
166	0x3de73b92	0.11290659
167	0xbe07acf0	-0.13249564
168	0x3df11613	0.117717884
169	0x3e00cb1d	0.12577482
170	0xbd0f81b7	-0.035035815
171	0x3dfcabc9	0.12337453
172	0xbdb7ff59	-0.089842506
173	0xbddeab09	-0.10872466
174	0x3d90d714	0.07072273
175	0xbd31b26d	-0.04338305
176	0xbdbfe893	-0.09370532
177	0x3e0b267e	0.13588902
178	0x3ca766e4	0.020434804
179	0xbd58ac1e	-0.05289852
180	0x3e079bcc	0.13243026
181	0xbe093c4a	-0.13401905
182	0xbdeec454	-0.1165854
183	0xbdb2ea2e	-0.087360725
184	0xbd163c5a	-0.03667865
185	0x3d0a972a	0.033835568
186	0xbd84e670	-0.06489265
187	0xbd24ab5b	-0.04020248
188	0xbd146fc7	-0.03623941
189	0xbdaeedfb	-0.08541485
190	0x3d256d97	0.040387716
191	0xbcd7fa48	-0.02636446
192	0xbb95db10	-0.0045732334
193	0xbd21dd1e	-0.039517514
194	0xbd60ba10	-0.054864943
195	0xbcffa625	-0.031207154
196	0xbdb28945	-0.08717588
197	0x3d3e8fad	0.04652374
198	0x3d8314f2	0.064004794
199	0x3e074fab	0.13213985
200	0x3e1fabe2	0.15592912
201	0xbe03494b	-0.12820928
202	0xbe027cd8	-0.12742937
203	0xbd9014f2	-0.07035245
204	0x3e222903	0.15835957
205	0x3d963067	0.07333451
206	0xbdbc396a	-0.09190638
207	0x3d0c6c36	0.034282885
208	0xbde1a952	-0.110186234
209	0x3de82560	0.11335254
210	0xbdc37c48	-0.09545189
211	0xbdccacf3	-0.09993925
212	0x3df89dcd	0.12139473
213	0xbdc7343f	-0.09726762
214	0x3de2d499	0.11075706
215	0x3d100625	0.03516211
216	0x3d6dcc0c	0.058055922
217	0xbdbc0681	-0.09180928
218	0x3debe078	0.115174234
219	0x3b82b6f7	0.0039890963
220	0xbd37c4d6	-0.04486545
221	0xbda711a5	-0.08157662
222	0xbc5bc595	-0.013413806
223	0x3e12a0de	0.14319178
224	0x3e0ad7ff	0.13558958
225	0xbdc2d194	-0.0951263
226	0x3c51811b	0.012787129
227	0xbdeba0ee	-0.11505304
228	0xbcbb1e3f	-0.02284157
229	0xbd8c493a	-0.06849904
230	0x3ca4a906	0.020100128
231	0x3d83b08a	0.064301565
232	0x3dfa1f63	0.12213018
233	0xbdae8e71	-0.08523262
234	0x3d85813b	0.065187894
235	0x3cd33c9b	0.025785735
236	0xbdeb7df6	-0.114986345
237	0x3dd1a105	0.1023579
238	0x3e0dafd8	0.1383661
239	0x3d9af41d	0.07566092
240	0x3db5544f	0.08853971
241	0xbc7acf51	-0.015308217
242	0x3dd13468	0.10215074
243	0x3da99224	0.08279827
244	0x3dee6086	0.11639504
245	0x3db0dfad	0.08636413
246	0x3d4f0a39	0.05054686
247	0x3da346aa	0.079724625
248	0xbda6747c	-0.081276864
249	0x3ca96c74	0.020681597
250	0xbddf1e97	-0.108945064
251	0xbd891468	-0.06693345
252	0xbda123f1	-0.078681834
253	0x3bdd90ed	0.0067616613
254	0xbdfd6582	-0.12372877
255	0x3d26aab5	0.040690143

bias f4 [50]
0	0xbd56c46d	-0.05243342
1	0xbd8b2568	-0.06794244
2	0xbd278b74	-0.040904477
3	0xbce91dfe	-0.028456684
4	0x3d3bee1f	0.045881387
5	0xbdf73325	-0.12070302
6	0xbc82f7e4	-0.015987344
7	0x3dc51c3f	0.09624528
8	0xbd17e0d1	-0.037079636
9	0xbde2b2cd	-0.1106926
10	0xbcfc59b4	-0.030804493
11	0x3d82c395	0.063849606
12	0xbdba12a6	-0.09085588
13	0xbd3508fb	-0.044198018
14	0xbcce8e82	-0.025214437
15	0xbd93066f	-0.071789615
16	0xbdd7c947	-0.105364375
17	0x3cb24fb2	0.021766517
18	0xbd38f3e7	-0.04515448
19	0x3d9981a8	0.07495433
20	0x3d4ccdac	0.05000083
21	0xbd8184e7	-0.06324177
22	0x3be18745	0.0068825805
23	0x3d8c10ab	0.06839117
24	0xbd0fd17f	-0.0351119
25	0xbd7de610	-0.061986983
26	0x3d2653e5	0.04060735
27	0xbcf85beb	-0.030317267
28	0x3dd843e0	0.10559821
29	0x3d295b81	0.04134703
30	0xbe157bf1	-0.14598061
31	0x3d8ca124	0.06866673
32	0x3d1bf9e4	0.03808011
33	0xbd4507ab	-0.048103016
34	0xbdcc3989	-0.099719115
35	0x3d9ad7d3	0.075606965
36	0xbdf168e1	-0.11787582
37	0x3cb0f9ef	0.021603553
38	0xbd41f930	-0.047356784
39	0xbcd79f83	-0.026321178
40	0x3dec8ac3	0.11549904
41	0xbc551196	-0.013004681
42	0x3de51469	0.111855336
43	0x3dccfc58	0.10009068
44	0xbe0bf51a	-0.13667718
45	0xbde93a71	-0.113881
46	0x3de82204	0.11334613
47	0x3d494854	0.049141243
48	0xbd51bf8f	-0.051208075
49	0x3e1a2423	0.15052848

weight f4 [50, 50]
0	0xbd956fb0	-0.07296693
1	0xbde46d14	-0.111536175
2	0x3df854f9	0.12125582
3	0xbdcd3a88	-0.100209296
4	0x3caa8f77	0.020820362
5	0xbdf8d6ad	-0.12150321
6	0x3db23d54	0.08703104
7	0xbc3ac64a	-0.011399815
8	0xbe13e2ff	-0.14442061
9	0x3d53536f	0.05159324
10	0xbdde8299	-0.10864753
11	0x3e1c404e	0.15258905
12	0xbd7c2a85	-0.061563987
13	0xbd62186c	-0.05519907
14	0x3bf43523	0.0074526235
15	0x3dc92525	0.09821538
16	0xbb758bd1	-0.003746737
17	0x3d479480	0.048725605
18	0xbd7e60b9	-0.06210396
19	0xbcf6f176	-0.030144434
20	0xbdef7c40	-0.11693621
21	0x3bc25651	0.0059307
22	0xbc967779	-0.018367516
23	0x3e19262e	0.1495597
24	0xbbd9f90b	-0.0066520027
25	0xbd1f0edd	-0.038832534
26	0xbdac8e4a	-0.08425577
27	0x3d33fc33	0.043941688
28	0xbd84f796	-0.06492536
29	0x3ddce69d	0.107861735
30	0xbd382cd3	-0.044964623
31	0xbcc1f04a	-0.023674149
32	0x3dee2a88	0.11629206
33	0xbd260a54	-0.040537193
34	0x3d21d16a	0.039506353
35	0x3b4d68ef	0.0031343063
36	0xbddbdd0e	-0.10735522
37	0x3db85fc5	0.090026416
38	0xbdb80c85	-0.08986763
39	0x3dc116ff	0.09428214
40	0x3e094c9c	0.1340813
41	0xbc8a2bed	-0.016866649
42	0x3dc09071	0.0940255
43	0x3daaddc2	0.08343078
44	0xbe0b0bc5	-0.13578708
45	0x3dbee2bb	0.09320589
46	0x3d7856bc	0.06062959
47	0x3d753ed5	0.059874374
48	0xbda65bb7	-0.08122962
49	0x3dfd20de	0.123597845
50	0x3e1774f1	0.14790703
51	0xbdd8fe4e	-0.1059538
52	0xbd602b5f	-0.054728862
53	0x3cab8d60	0.020941436
54	0x3dca576b	0.09879955
55	0x3ddeaf47	0.10873275
56	0x3df0fe2a	0.11767228
57	0x3e186b5a	0.14884701
58	0x3d6d41ab	0.057923954
59	0xbddb7932	-0.107164755
60	0x3dfc1f97	0.12310713
61	0x3bfd92b9	0.007738438
62	0xbc348ae3	-0.011019441
63	0x3c159879	0.009130591
64	0xbdbddfca	-0.092712
65	0x3d30a237	0.04312345
66	0x3cf9fa49	0.030514853
67	0x3da919e9	0.08256895
68	0xbe03eecc	-0.12884063
69	0x3e04642d	0.12928839
70	0x3d889ff0	0.06671131
71	0x3dfb87ed	0.12281785
72	0x3dda08af	0.106461875
73	0x3df7cf2f	0.12100064
74	0x3e0c3b40	0.13694477
75	0xbae1caf2	-0.001722662
76	0xbd86f92e	-0.06590496
77	0x3e1a3957	0.15060936
78	0xba425acf	-0.0007414044
79	0xbdbf3400	-0.0933609
80	0x3d63f0e2	0.055649646
81	0x3dbfaad8	0.09358758
82	0xbc0eafa8	-0.008708872
83	0xbb327787	-0.0027231888
84	0x3df0aed4	0.11752096
85	0x3dfe813d	0.12426994
86	0x3a1b7cb9	0.0005931366
87	0xbe015bdc	-0.12632698
88	0xba88e584	-0.0010444378
89	0x3cc439f6	0.02395342
90	0x3d6eaa3f	0.058267828
91	0xbd89a834	-0.06721535
92	0xbe03fb36	-0.12888798
93	0xbdce9a52	-0.10088028
94	0x3d1f34f9	0.038868878
95	0xbe04d7c5	-0.12972935
96	0x3df1ab74	0.1180028
97	0x3e0f2075	0.13977225
98	0x3b15340a	0.0022766613
99	0x3d987d19	0.074457355
100	0xbd522b61	-0.0513109
101	0x3e05ca1e	0.13065383
102	0xbd14c55d	-0.036321033
103	0x3cf48e89	0.029853122
104	0xbe1a04ff	-0.15040968
105	0x3c1d48c3	0.009599867
106	0xbdc4a398	-0.096015155
107	0xbc9e9bc1	-0.019361379
108	0xbda598eb	-0.080858074
109	0x3d9a6206	0.07538228
110	0xbdfee52e	-0.12446056
111	0xbc5ddaea	-0.013540963
112	0x3d57f205	0.052721042
113	0x3ce7d257	0.02829854
114	0xbde1267c	-0.109936684
115	0x3d8712da	0.065953925
116	0xbc2a28e1	-0.010385723
117	0xbd936e4a	-0.0719877
118	0xbd94f3dd	-0.07273076
119	0xbcb2e6f2	-0.021838639
120	0xbe06b6fb	-0.13155739
121	0xbd376d01	-0.04478169
122	0xbd6083f3	-0.054813337
123	0xbda083af	-0.07837617
124	0xbd7a2d22	-0.0610782
125	0xbcacba12	-0.021084819
126	0xbd3f9000	-0.04676819
127	0xbd744ffc	-0.05964659
128	0x3de07b2d	0.10960994
129	0xbde9b50e	-0.114114866
130	0x3c986871	0.018604489
131	0xbe0f701b	-0.14007609
132	0x3ce9b82f	0.028530208
133	0x3e00be35	0.12572558
134	0x3dd55eb6	0.10418455
135	0x3ddc1fec	0.10748276
136	0x3d501322	0.050799496
137	0xbe1a671e	-0.15078399
138	0x3d8300ba	0.06396623
139	0xbd7bbaae	-0.06145733
140	0x3df7381b	0.12071248
141	0xbe009098	-0.12555158
142	0x3e0ef811	0.13961817
143	0xbdd3f95d	-0.10350297
144	0x3d9e4e0d	0.07729731
145	0xbd9dded6	-0.07708518
146	0xbdf665f0	-0.12031162
147	0xbdecacfd	-0.115564324
148	0x3df8d6f3	0.12150373
149	0xbd3ae116	-0.045624815
150	0xbd5fb683	-0.054617416
151	0xbd839270	-0.06424415
152	0x3d89d77e	0.06730555
153	0x3dea1f16	0.114317104
154	0x3d336402	0.043796547
155	0xbe0d1dbd	-0.13780876
156	0x3d9cae17	0.076503925
157	0x3da8f493	0.08249774
158	0xbcb777cc	-0.02239599
159	0x3cc73042	0.024315003
160	0xbc0247b2	-0.007951664
161	0x3dd6476a	0.1046284
162	0xbd9195b6	-0.07108633
163	0xbcde2145	-0.027115474
164	0xbccb889d	-0.024845416
165	0xbe03a99c	-0.1285767
166	0xbbead3ba	-0.007166353
167	0xbd11f86b	-0.0356373
168	0x3de251f3	0.11050787
169	0xbd9fcec6	-0.07803111
170	0xbcc20fdc	-0.023689203
171	0x3dbd9133	0.0925621
172	0x3d26c42e	0.040714435
173	0x3c87bb42	0.016568784
174	0xbdf75d81	-0.12078381
175	0x3d2b1aa3	0.04177345
176	0x3e1041b3	0.14087562
177	0xbc989c10	-0.018629104
178	0xbd0350d6	-0.032059513
179	0x3d330dde	0.043714397
180	0x3d3f8d9d	0.046765912
181	0x3ddc8195	0.10766903
182	0x3ce9f2bd	0.02855813
183	0x3da46a99	0.080281444
184	0xbdc980c4	-0.09839013
185	0x3c959857	0.018261118
186	0x3dcf641d	0.10126517
187	0x3d11cdf0	0.035596788
188	0xbd4c3f7b	-0.049865227
189	0xbdfddc7e	-0.12395571
190	0xbbd938d5	-0.0066290894
191	0xbd9457ac	-0.072432846
192	0xbbc32360	-0.0059551448
193	0x3d519d07	0.051175144
194	0x3d0d044a	0.03442792
195	0xbe0ed892	-0.13949803
196	0xbbe59088	-0.007005755
197	0xbd1b247a	-0.037876584
198	0x3d81e11c	0.06341764
199	0xbd1f1170	-0.03883499
200	0xbca1051d	-0.019655759
201	0xbd814e57	-0.0631377
202	0xbcd0d437	-0.025491817
203	0xbd61f72e	-0.05516737
204	0xbcf0b6c4	-0.029384024
205	0x3da5f7d3	0.08103909
206	0x3d81629f	0.063176386
207	0xbe25ff06	-0.16210565
208	0x3de969cf	0.113971345
209	0x3de7093f	0.112810604
210	0x3c37ae76	0.011211028
211	0xbd6d1aaf	-0.057886776
212	0xbd5f4156	-0.05450567
213	0x3d6d800e	0.05798345
214	0xbd83f88f	-0.06443893
215	0xbdee152a	-0.116251305
216	0xbd39a820	-0.045326352
217	0x3dd6288f	0.10456955
218	0xbd117cc6	-0.035519384
219	0x3d38c886	0.04511311
220	0x3ce04677	0.02737735
221	0x3cf939ce	0.030423071
222	0x3c767593	0.01504268
223	0xbdb98d14	-0.09060112
224	0xbdc39a4e	-0.09550916
225	0xbe0d48cc	-0.13797301
226	0xbdcb16dd	-0.0991647
227	0x3d815e41	0.06316806
228	0x3d94697c	0.07246682
229	0xbdf92cf9	-0.12166781
230	0x3df8fbbf	0.12157392
231	0xbc20babf	-0.009810149
232	0x3c61b810	0.013776794
233	0xbd9803b7	-0.074225836
234	0xbdba8114	-0.09106651
235	0xbd0000cd	-0.031250764
236	0x3d7a80b0	0.061157882
237	0x3c056358	0.008141361
238	0xbe02c12f	-0.12769006
239	0x3dbd3cab	0.09240087
240	0xbd812d98	-0.063075244
241	0xbdcd6eba	-0.10030885
242	0x3dd79b92	0.105277196
243	0x3c9f64c1	0.019457223
244	0xbc8bc07d	-0.017059559
245	0xbb08df98	-0.0020885225
246	0x3d682a7a	0.056681134
247	0x3cd78349	0.026307719
248	0x3bb33b8d	0.0054697455
249	0x3d2b562a	0.04183022
250	0x3c2943ca	0.010331104
251	0x3d2b883f	0.04187798
252	0xbdb65372	-0.08902635
253	0x3d587b3f	0.05285191
254	0xbca887e1	-0.020572605
255	0xbd860993	-0.06544795

bias f4 [50]
0	0xbdd2e4bc	-0.10297534
1	0x3ddd7b2e	0.1081451
2	0x3e067c9c	0.13133472
3	0x3df5545e	0.119789824
4	0x3daeef53	0.08541741
5	0xbbc8dcca	-0.0061298357
6	0x3e08405b	0.133058
7	0xbdc00ec0	-0.09377813
8	0xbdf372ab	-0.118871056
9	0xbdbf63f8	-0.093452394
10	0x3daa45f3	0.08314123
11	0xbd04caaa	-0.032419838
12	0xbba9d756	-0.0051831407
13	0xbd97ea35	-0.07417718
14	0x3cbc185d	0.022960836
15	0xbaf2ad05	-0.0018514699
16	0xbd286372	-0.041110463
17	0xbe06c3cc	-0.13160628
18	0x3db2dcc7	0.08733516
19	0x3cb5c0f4	0.022186734
20	0x3def2f14	0.11678901
21	0xbd61d50e	-0.055134825
22	0xbd23b9e0	-0.039972186
23	0x3c8fed24	0.017569132
24	0x3cffd771	0.03123066
25	0x3dddf0f9	0.108369775
26	0x3dc2519b	0.09488221
27	0xbc95c1b3	-0.01828084
28	0x3daef904	0.0854359
29	0x3d95bcee	0.07311426
30	0xbdf33cee	-0.11876856
31	0x3b0c044c	0.0021364866
32	0x3dd8d153	0.105868004
33	0xbe1b75c3	-0.15181641
34	0xbd652fdc	-0.055953845
35	0x3c901f45	0.017593035
36	0x3dcb066b	0.099133335
37	0x3b9bcec5	0.0047548735
38	0x3e14ff7f	0.14550589
39	0xbe104822	-0.14090016
40	0x3d0f1c0c	0.034938857
41	0xbe169473	-0.14705066
42	0xbded5ee4	-0.115903646
43	0x3d005f7e	0.03134107
44	0x3d606045	0.05477931
45	0x3dae28bc	0.08503863
46	0x3df9e9b3	0.12202778
47	0xbdc46f51	-0.095915444
48	0x3dce5f9a	0.10076828
49	0xbe02c8da	-0.12771931

weight f4 [50, 50]
0	0xbdf7bd8f	-0.12096702
1	0x3dbe7392	0.09299387
2	0x3dd12fd2	0.10214199
3	0xbbdeb8b3	-0.00679692
4	0xbd6ef2b1	-0.058336917
5	0x3dbe654b	0.09296664
6	0xbdb83409	-0.089943
7	0x3d5b39a4	0.053521767
8	0x3d61f619	0.055166338
9	0x3c2cb432	0.010541009
10	0x3ddbe417	0.10736864
11	0x3dc4221a	0.09576817
12	0x3dc76ce6	0.097375676
13	0x3d57a094	0.052643374
14	0x3de44edd	0.111478545
15	0x3d9faec1	0.077970035
16	0xbdb7ef74	-0.08981219
17	0xbe07ba91	-0.13254763
18	0xbd52b47b	-0.05144165
19	0xbd6e5ab5	-0.058191974
20	0x3d267230	0.04063624
21	0xbe07efc1	-0.13275053
22	0xbc02ec52	-0.007990913
23	0xbc43c5bd	-0.011949
24	0x3d873fd8	0.06603974
25	0x3dd66678	0.10468763
26	0x3d404f50	0.04695064
27	0xbdc8f451	-0.09812225
28	0x3e181459	0.14851512
29	0xbde9747f	-0.11399173
30	0xbe114f5e	-0.14190432
31	0x3dd96bf8	0.106162965
32	0xbd9b298f	-0.07576286
33	0xbb283b81	-0.0025670233
34	0x3db3ed81	0.08785535
35	0xbdf77b49	-0.12084062
36	0x3db407ac	0.08790526
37	0xbdf97405	-0.12180332
38	0x3da64221	0.08118082
39	0xbd4353b9	-0.047687266
40	0xbdf58373	-0.119879626
41	0x3dd438e0	0.103624105
42	0xbde80a7a	-0.11330123
43	0xbdb1be60	-0.08678889
44	0xbd8f6c20	-0.07003045
45	0x3c7a1cc2	0.015265645
46	0xb985351a	-0.000254073
47	0xbdbdfa7e	-0.09276293
48	0xbdda9db8	-0.10674614
49	0x3d1d1350	0.038348496
50	0x3dc8c57d	0.09803293
51	0x3ca7394e	0.020413067
52	0xbcc14f64	-0.023597427
53	0xbc632de4	-0.013865922
54	0x3d8e959d	0.0696213
55	0x3dff8ea7	0.12478381
56	0x3ad8a547	0.0016528749
57	0x3d80cadf	0.062886946
58	0xbd464c69	-0.048412714
59	0xbce5cdff	-0.028052328
60	0x3e02c419	0.12770118
61	0xbe17f3a7	-0.1483904
62	0x3da4223f	0.080143444
63	0xbdbb4cec	-0.09145531
64	0xbc134686	-0.008988982
65	0x3ca57851	0.020198973
66	0xbd06a5e2	-0.032873042
67	0xbb45d225	-0.003018507
68	0xbc2f1354	-0.0106857605
69	0xbdee8e28	-0.11648208
70	0xbc3e94e0	-0.011632174
71	0xbd92ed90	-0.07174218
72	0xbdeb07f0	-0.11476123
73	0xbe02af1b	-0.1276211
74	0xbe119f47	-0.14220916
75	0xbd14a650	-0.03629142
76	0x3da32fb3	0.07968082
77	0xbcfda72c	-0.030963503
78	0x3c746fee	0.014919264
79	0x3dd1ae72	0.10238351
80	0xbdebe126	-0.11517553
81	0x3df4972e	0.11942898
82	0x3dd096f2	0.101850405
83	0x3e00bc37	0.12571798
84	0xbd8dcf7d	-0.06924341
85	0x3df5939e	0.11991046
86	0x3dc53054	0.096283585
87	0xbde65c69	-0.112480946
88	0x3d45c6e1	0.04828537
89	0xbdac4fe5	-0.08413676
90	0x3df30e32	0.11867942
91	0xbd48c268	-0.049013525
92	0xbda16a34	-0.07881585
93	0x3d832468	0.06403428
94	0xbdcf573b	-0.1012406
95	0x3d253ae2	0.04033936
96	0x3d86702d	0.065643646
97	0xbda81eb3	-0.082089804
98	0xbe0cd0ed	-0.13751574
99	0xbd8a163a	-0.06742521
100	0xbd00f00a	-0.03147892
101	0xbd1f2779	-0.038856003
102	0x3d225527	0.03963199
103	0xbd8e91cd	-0.06961403
104	0xbc9524c1	-0.018206002
105	0xbcad1433	-0.021127796
106	0x3d6e9514	0.05824764
107	0x3bcdaef9	0.006276962
108	0x3dfe57b7	0.12419074
109	0x3db068e2	0.08613755
110	0xbd1d1474	-0.038349584
111	0x3e17245a	0.14759961
112	0x3c8f5718	0.017497584
113	0xbdd43233	-0.10361137
114	0x3d87ac95	0.06624714
115	0x3d618358	0.0550569
116	0x3d5ec07f	0.054382797
117	0x3d9ab9e7	0.07554989
118	0xbdce0fce	-0.10061608
119	0x3c96fb82	0.018430475
120	0x3db7349f	0.089455836
121	0xbd6cbfc9	-0.057800088
122	0x3e1300fe	0.14355847
123	0xbccca061	-0.024978818
124	0x3dc9236d	0.0982121
125	0x3d5af2c5	0.05345418
126	0xbdb7057f	-0.08936595
127	0x3e0abbcf	0.13548206
128	0xbdb466ea	-0.08808692
129	0x3df9fa8e	0.12205993
130	0x3db8c159	0.09021253
131	0xbd72293c	-0.059121355
132	0x3d5699ec	0.052392885
133	0x3da795c1	0.0818286
134	0xbddd85f8	-0.10816568
135	0xbca9994f	-0.020702986
136	0xbc940443	-0.018068438
137	0x3d8c5f82	0.06854154
138	0x3e197be5	0.14988668
139	0xbdedfd31	-0.11620558
140	0xbc71edec	-0.014766198
141	0xbd5f845d	-0.05456959
142	0xbe1254ed	-0.14290209
143	0x3cb4d117	0.022072358
144	0xbdba8565	-0.09107474
145	0x3db305e9	0.08741362
146	0xbd2ea4a1	-0.04263747
147	0xbca3f7e5	-0.020015666
148	0x3d9a6e4f	0.07540571
149	0xbe1742bd	-0.14771552
150	0xbe15b0d2	-0.14618233
151	0xbdcdcc88	-0.10048777
152	0x3df4dffb	0.119567834
153	0xbdddb2a9	-0.10825092
154	0x3d9a60d2	0.07537998
155	0x3ca1b454	0.019739307
156	0x3df42d9e	0.11922763
157	0xbce757a8	-0.02824004
158	0xbe058f61	-0.13042976
159	0x3d951ede	0.07281278
160	0xbde185ed	-0.110118724
161	0xbd9a12d4	-0.075231224
162	0x3de4254e	0.11139928
163	0x3a3b3d15	0.0007142586
164	0xbdb5df33	-0.088804625
165	0xbda7ae30	-0.081875205
166	0xbd4fbc83	-0.05071689
167	0x3c5479fe	0.012968538
168	0xbdb9d96f	-0.09074675
169	0xbe09b9af	-0.13449739
170	0x3dd276d1	0.10276569
171	0xbd54d3de	-0.051959865
172	0x3debfe90	0.11523163
173	0xbe0e2bde	-0.13883922
174	0xbd46350f	-0.048390444
175	0xbdd558f4	-0.10417357
176	0xbd1cd3c0	-0.038287878
177	0x3db5af34	0.08871308
178	0x3c81f2c7	0.015862836
179	0x3d86b391	0.06577218
180	0xbc4b5bf2	-0.012412058
181	0x3d500f4a	0.05079583
182	0xbd1731b8	-0.03691265
183	0xbd4e103e	-0.05030846
184	0xbddea663	-0.108715795
185	0x3d0997ed	0.033592153
186	0x3d369ed5	0.044585068
187	0xbe0b1099	-0.1358055
188	0xbd56fa82	-0.052484997
189	0xbdf97f0f	-0.12182438
190	0xbd840be1	-0.06447578
191	0x3daa4794	0.08314434
192	0xbdef839f	-0.116950266
193	0x3e00c777	0.1257609
194	0xbdc58877	-0.09645169
195	0x3cf531d1	0.02993098
196	0x3d90fefc	0.070798844
197	0x3cd8e348	0.026475564
198	0x3d418b70	0.04725212
199	0xbd494c50	-0.049145043
200	0x3be91efb	0.007114289
201	0xbd311312	-0.043231077
202	0x3cd397b7	0.02582918
203	0x3da3538d	0.079749204
204	0x3dd3470c	0.103162855
205	0xbde5d0d8	-0.112214744
206	0x3d6f16b9	0.05837128
207	0x3d39dc84	0.045376316
208	0xbda65b24	-0.081228524
209	0x3d9e7c85	0.07738594
210	0x3d6fd507	0.058552768
211	0xbd2619df	-0.040552016
212	0x3c81497a	0.015782107
213	0x3dd6dd18	0.10491389
214	0x3e0160f2	0.12634638
215	0xbd23d694	-0.03999956
216	0xbd0e483d	-0.03473686
217	0x3d9f2180	0.077700615
218	0x3c18e19b	0.009331132
219	0x3e046d08	0.12932217
220	0xbd3b4293	-0.045717787
221	0xbdcc7e07	-0.09984975
222	0xbd0686d1	-0.032843415
223	0xbd92b05d	-0.07162545
224	0xbd9eb548	-0.077494204
225	0xbd5bd61f	-0.053671
226	0xbe099fe4	-0.134399
227	0x3d6fcc7f	0.058544632
228	0x3dfc7a6b	0.12328037
229	0xbdd15407	-0.10221105
230	0xbda0c824	-0.07850674
231	0xbddd457f	-0.10804271
232	0xbdf86b23	-0.1212981
233	0xbc99e0d9	-0.018783974
234	0x3d1e5525	0.03865542
235	0x3db6bdde	0.08922933
236	0xbe0c2e21	-0.13689472
237	0xbddb3c04	-0.107048064
238	0x3d9400ac	0.07226691
239	0xbdf09442	-0.11747028
240	0x3e177c85	0.14793594
241	0x3da7302f	0.08163487
242	0xbe0805d3	-0.13283472
243	0x3df3c599	0.11902923
244	0xbcf7529a	-0.030190755
245	0x3da11601	0.07865525
246	0xbcc10e2e	-0.023566332
247	0x3d0c618c	0.034272715
248	0xbd5cadaf	-0.053876575
249	0xbdd71231	-0.105015166
250	0xbdf84970	-0.12123382
251	0xbde5bb9f	-0.112174265
252	0x3dcde09f	0.10052609
253	0x3d14b189	0.036302123
254	0xbc9f9d1c	-0.019484095
255	0x3e0d3e29	0.13793243

bias f4 [50]
0	0x3da256c4	0.079267055
1	0xbe0d0091	-0.13769747
2	0xbd8a13b1	-0.06742037
3	0xbdd89da7	-0.10576945
4	0x3c41f849	0.011838981
5	0xbbf87f8a	-0.007583563
6	0xbd9429c7	-0.07234531
7	0xbc826b43	-0.015920287
8	0xbe07221a	-0.13196602
9	0x3cb95138	0.022621736
10	0xbdad6b0d	-0.08467684
11	0x3cabfa77	0.020993454
12	0xba4a524f	-0.00077179534
13	0xbd92f37e	-0.07175349
14	0x3c15db07	0.0091464585
15	0x3da23fdc	0.079223365
16	0x3d95cd4d	0.07314549
17	0xbc39c90b	-0.011339436
18	0xbe01fd5a	-0.12694302
19	0x3d7f4fca	0.062331952
20	0xbda02a2b	-0.07820543
21	0xbdc02025	-0.09381131
22	0x3db21cac	0.08696875
23	0x3dbcc673	0.09217539
24	0x3dc273cd	0.094947435
25	0xbdeaa037	-0.1145634
26	0x3dc2479b	0.09486314
27	0x3db11cce	0.08648072
28	0xbc651f1b	-0.013984467
29	0xbcaf7848	-0.02141966
30	0xbdb80142	-0.08984615
31	0xbd876d80	-0.06612682
32	0x3de5e32b	0.112249695
33	0x3ddbf090	0.10739243
34	0xbd7b379f	-0.06133234
35	0x3d92f11e	0.07174896
36	0xbb8b456b	-0.0042502186
37	0xbd9be9a0	-0.0761292
38	0x3e16e9a4	0.14737564
39	0x3d0e24cd	0.034703065
40	0x3dfe87ad	0.12428222
41	0xbcc9e120	-0.02464348
42	0x3e053ec3	0.13012223
43	0xbda4b0a3	-0.08041503
44	0x3db20a4d	0.08693371
45	0xbd0f335a	-0.034961082
46	0x3d1216ac	0.035666153
47	0xbd2eca92	-0.042673655
48	0x3de0e02e	0.10980259
49	0xbde3bf76	-0.11120503

weight f4 [2, 50]
0	0xbddaf230	-0.10690725
1	0xbe050888	-0.12991536
2	0x3d41e184	0.04733421
3	0xbce00d0e	-0.027349975
4	0x3d02f9f7	0.031976666
5	0x3dff4444	0.124641925
6	0xbdad3a59	-0.084583946
7	0x3c88f7e6	0.01671977
8	0xbc8f133b	-0.017465224
9	0x3e07d88a	0.13266197
10	0x3d4351e3	0.047685515
11	0x3d38bd01	0.045102123
12	0x3c58cf79	0.013233059
13	0x3d755f81	0.059905533
14	0x3deb4dc6	0.114894435
15	0x3de36d2b	0.111048065
16	0xbdb1e992	-0.08687128
17	0x3c9d385f	0.019191919
18	0x3e05f0d5	0.13080151
19	0xbde858ae	-0.11345039
20	0x3cff886d	0.031192983
21	0xbdc375b5	-0.09543935
22	0x3d5dac92	0.054119654
23	0x3db136c8	0.08653027
24	0xbdfda3b4	-0.123847395
25	0xbcb0680d	-0.02153399
26	0x3da1f59d	0.07908175
27	0x3dd3245b	0.10309669
28	0x3ca897f2	0.020580266
29	0x3d52c813	0.051460337
30	0x3cb21c97	0.021742148
31	0x3db01351	0.08597434
32	0xbd240a1e	-0.04004871
33	0x3dc59a99	0.09648628
34	0x3dcb5837	0.09928935
35	0x3dd8d095	0.10586659
36	0xbd2ffec6	-0.04296758
37	0x3e12c2e5	0.14332159
38	0x3db08c96	0.08620565
39	0xbdbeba02	-0.09312822
40	0xbc94800d	-0.018127466
41	0xbdda03f9	-0.10645289
42	0x3e03ecc3	0.12883286
43	0xbdcc9d55	-0.09990946
44	0x3d1b7599	0.037953947
45	0x3dfac5b5	0.12244741
46	0x3db92b4d	0.09041462
47	0x3e071556	0.13191733
48	0x3cd0a745	0.025470385
49	0xba3d791a	-0.00072278234
50	0x3de4317a	0.111422494
51	0xbdee496c	-0.11635098
52	0x3e112b73	0.14176731
53	0xbb948443	-0.0045323684
54	0x3d2ab462	0.041675933
55	0x3dae1536	0.085001394
56	0xbd164c1f	-0.03669369
57	0x3dd97b3b	0.106192075
58	0x3d326679	0.043554757
59	0x3cac9f88	0.021072164
60	0x3dcc62fd	0.09979818
61	0x3df1c564	0.118052274
62	0xbda90976	-0.08253758
63	0x3d06a595	0.032872755
64	0x3bcb28fb	0.0061999536
65	0x3d9bdcee	0.07610498
66	0xbe120a3b	-0.14261715
67	0x3bb5d3ca	0.005548929
68	0x3d127cba	0.03576348
69	0x3ca1272c	0.019671999
70	0x3c5b3b9f	0.013380914
71	0xbafdbe1d	-0.0019359026
72	0xbcfb7e81	-0.03069997
73	0xbd3abfb8	-0.045592993
74	0x3daa9b11	0.08330358
75	0x3d94c072	0.072632685
76	0xbde97a76	-0.11400311
77	0xbdbae6db	-0.091260634
78	0x3db9df21	0.090757616
79	0xbe1488bb	-0.14505284
80	0xbdbea259	-0.09308309
81	0x3dc3797a	0.09544654
82	0xbdf73a7d	-0.12071703
83	0xbd3342c9	-0.043764863
84	0xbb484d16	-0.0030563525
85	0x3daacc29	0.08339722
86	0xbdf0293d	-0.117266156
87	0xbd07e38c	-0.03317599
88	0x3bc32ad7	0.0059560346
89	0x3c111072	0.0088540185
90	0x3aa4dab8	0.001257739
91	0xbe018f2d	-0.12652273
92	0xbe09ba4b	-0.13449971
93	0x3dfc855e	0.12330125
94	0x3de98236	0.11401789
95	0x3d7c3c50	0.061580956
96	0xbdc6c891	-0.09706224
97	0xbd5e3a5d	-0.05425488
98	0xbc31830c	-0.010834467
99	0xbd6a9aaf	-0.057276424

bias f4 [2]
0	0x3dd5fef0	0.10449016
1	0xbdaa381e	-0.08311485
