models/ltc5_model.pth (torch, 59170 bytes, 14 tensors)

weight f4 [50, 2]
0	0x3e9566ea	0.2918008
1	0x3f153a76	0.5829233
2	0xbeb02934	-0.34406435
3	0x3ebbad27	0.36655542
4	0x3e6861d6	0.22693571
5	0xbeaad439	-0.33365038
6	0x3ec46750	0.3836007
7	0x3e811299	0.252095
8	0x3ef4f475	0.47842756
9	0x3ed83b00	0.42232513
10	0xbee66440	-0.4499836
11	0x3e3dc834	0.18533403
12	0x3e294bea	0.16532865
13	0x3ef95df3	0.4870449
14	0x3eb4d679	0.3531988
15	0xbea7c63d	-0.3276843
16	0xbea203bd	-0.31643477
17	0x3eede9c2	0.46467406
18	0xbdf7abc2	-0.12093307
19	0xbca6ac3e	-0.020345803
20	0x3d4c5fc5	0.04989602
21	0xbf165dde	-0.5873698
22	0x3ef01ba5	0.4689609
23	0x3d74f470	0.059803426
24	0xbf3a2ea6	-0.7272743
25	0xbebb8d89	-0.3663142
26	0x3e3c215e	0.18372104
27	0x3e2bd08c	0.16778773
28	0xbe8be65f	-0.27324197
29	0xbf2c9ce9	-0.67426926
30	0xbee4a711	-0.44658712
31	0xbee00499	-0.43753508
32	0xbe8d8673	-0.2764164
33	0x3e317533	0.17329864
34	0xbf00da2b	-0.503329
35	0xbebd8888	-0.37018228
36	0x3cf1dd9b	0.029524615
37	0x3f1eb1ab	0.6198985
38	0x3f1308c1	0.5743523
39	0x3f333749	0.70006233
40	0xbe5016ea	-0.20321241
41	0xbf08a32a	-0.5337397
42	0xbe8367fd	-0.25665274
43	0x3f28c9f2	0.65933144
44	0x3ee79e69	0.45238045
45	0xbe6bdba6	-0.23033008
46	0x3ab35513	0.001368197
47	0x3ddff8f8	0.10936159
48	0xbee34641	-0.44389537
49	0x3cbf2a02	0.02333546
50	0x3e987a91	0.2978101
51	0x3f1bfab5	0.60929424
52	0xbf2ae3c0	-0.6675377
53	0x3e2d90ad	0.1694972
54	0x3d66d2b1	0.056353275
55	0x3d0b5a65	0.034021754
56	0x3e80cb0c	0.25154912
57	0xbd94edf5	-0.07271949
58	0xbea5e57f	-0.32401654
59	0xbe8cc274	-0.27492106
60	0x3ef6165f	0.48063943
61	0x3d63bf7d	0.05560254
62	0xbec5fa3d	-0.3866748
63	0x3d086269	0.033296976
64	0x3f20c68c	0.6280296
65	0xbd299614	-0.04140289
66	0xbd8f6fd1	-0.07003749
67	0xbecad75b	-0.39617428
68	0x3ed49522	0.4152003
69	0x3f2e4502	0.6807405
70	0x3f1c83f9	0.61138874
71	0x3f37ed89	0.71846825
72	0x3f02783d	0.5096472
73	0x3e824c8c	0.25449026
74	0x3e955b48	0.29171205
75	0x3f289666	0.6585449
76	0xbeb08c7a	-0.34482175
77	0xbf167cb0	-0.5878401
78	0x3bc625e2	0.0060469965
79	0xbe7a0362	-0.24415353
80	0xbe5c35e1	-0.21504928
81	0x3ed00b42	0.4063359
82	0xbeed042d	-0.46292248
83	0x3f086353	0.53276557
84	0x3ee77d8b	0.4521297
85	0x3d8f9e3a	0.07012601
86	0x3eadde2b	0.33958563
87	0x3ec9fb6a	0.39449626
88	0xbe864420	-0.2622385
89	0x3ee3774e	0.4442696
90	0x3ececc42	0.4039021
91	0xbe405862	-0.18783715
92	0x3e483efe	0.1955528
93	0xbe4aa4a4	-0.19789368
94	0x3ea38f83	0.31945428
95	0xbf2c79cf	-0.67373365
96	0xbf131e5c	-0.574682
97	0xbdd12aee	-0.10213266
98	0xbeee3dff	-0.46531674
99	0x3f3a939f	0.728815

bias f4 [50]
0	0xbea961e5	-0.330825
1	0xbf3002e7	-0.6875443
2	0xbeb4d1ee	-0.35316414
3	0x3dad6a16	0.084675
4	0xbf1f30a2	-0.6218358
5	0x3ebc0d55	0.36728922
6	0x3f134e6b	0.5754153
7	0x3ec9dc74	0.39426005
8	0xbe657929	-0.224095
9	0xbf10fb23	-0.56633204
10	0x3e9044cc	0.28177488
11	0x3e1f8327	0.15577374
12	0xbe1e131c	-0.15436977
13	0xbed991ec	-0.42494142
14	0x3f28acf2	0.65888894
15	0x3eabdaef	0.3356547
16	0x3f11898a	0.5685049
17	0x3eea164b	0.45720133
18	0xbed2c917	-0.41169044
19	0xbe4e3223	-0.20136313
20	0x3f064c25	0.5245994
21	0xbe883591	-0.26603368
22	0xbf0370eb	-0.51344174
23	0x3e71b2d1	0.2360337
24	0xbe26a91a	-0.16275445
25	0x3f385566	0.7200531
26	0xbe4296f1	-0.19002892
27	0x3e3d83a4	0.18507248
28	0xbf280351	-0.6563006
29	0xbe5974c6	-0.21235952
30	0xbe9d3b3c	-0.30709255
31	0x3f399933	0.7249939
32	0x3f24829a	0.6426178
33	0xbf1b1cb2	-0.6059066
34	0xbdf15b28	-0.11784965
35	0x3d27ae4b	0.040937703
36	0x3e850c51	0.2598596
37	0xbc3896f2	-0.011266457
38	0xbd95c672	-0.07313241
39	0xbec97812	-0.3934942
40	0x3f01f01f	0.5075702
41	0xbf1f69b0	-0.6227064
42	0x3ec5d313	0.386376
43	0xbdcca9fa	-0.09993358
44	0xbebf3f80	-0.37353134
45	0xbee4ce5a	-0.44688684
46	0x3ebf0366	0.3730728
47	0x3ec545e7	0.38529894
48	0x3efa3dcd	0.48875275
49	0xbdddc710	-0.10828984

weight f4 [50, 50]
0	0xbd513b9b	-0.051082235
1	0xbd9d43bc	-0.07678935
2	0xbd58cf9e	-0.052932374
3	0x3d467ead	0.04846065
4	0x3e1e89ea	0.15482298
5	0x3d257b2e	0.040400676
6	0xbdb53667	-0.08848267
7	0xbbc564b8	-0.0060239695
8	0xbd2cb8bd	-0.042168368
9	0xbd3601db	-0.044435363
10	0xbca076c6	-0.019587886
11	0x3d1b88bf	0.037972208
12	0x3d82e168	0.06390649
13	0xbcc4a6a6	-0.024005245
14	0x3d2c7f54	0.042113617
15	0xbd1b7c0a	-0.03796009
16	0x3d84a146	0.06476073
17	0xbd25c053	-0.040466618
18	0xbd9ff1c1	-0.07809783
19	0x3ba60a05	0.0050671124
20	0xbd953ac3	-0.072865985
21	0xbc8c7e50	-0.017150074
22	0xbd4e1409	-0.050312076
23	0x3dd9b04f	0.10629331
24	0xbcddbdff	-0.027068136
25	0x3d82fed8	0.06396264
26	0xbd05d90c	-0.032677695
27	0xbd285116	-0.041092955
28	0x3deb26c5	0.11482004
29	0x3ce0542e	0.02738389
30	0x3d3408d5	0.043953735
31	0x3d4c1d07	0.04983237
32	0x3d65342b	0.055957954
33	0x3e09e6ab	0.13466899
34	0x3d3a035c	0.04541336
35	0x3c9e0961	0.019291582
36	0x3da1490b	0.0787526
37	0x3d53eac6	0.05173757
38	0xbd7bd935	-0.06148644
39	0xbccf03fb	-0.025270453
40	0x3ddd503c	0.10806319
41	0x3e1a57e3	0.15072589
42	0xbafd3220	-0.0019317307
43	0xbbab710f	-0.0052319835
44	0xbdb4578a	-0.08805759
45	0xbd3a28b8	-0.04544899
46	0xbd3bbe41	-0.045835737
47	0xbbbd8623	-0.0057838126
48	0x3dc0e3ab	0.09418424
49	0x3da1c863	0.07899549
50	0xbda30d8c	-0.07961568
51	0xbe02bf98	-0.127684
52	0x3ccc396f	0.02492973
53	0xbceadf4a	-0.028670926
54	0xbc2aa431	-0.010415123
55	0xbe0d0049	-0.1376964
56	0x3de3a096	0.11114614
57	0xbdf092a3	-0.11746719
58	0x3d9c9587	0.076457076
59	0xbdb8abd1	-0.090171464
60	0xbd7a32b4	-0.06108351
61	0xbd1510bb	-0.03639291
62	0xbe103c96	-0.14085612
63	0x3ddbc7a3	0.10731437
64	0xbdad16c8	-0.08451611
65	0x3db1189f	0.08647274
66	0x3d8a8141	0.067629345
67	0x3d32ff98	0.043700784
68	0x3e013233	0.12616806
69	0x3dc14ae7	0.094381146
70	0xbca7cbfd	-0.020483011
71	0x3c7447a4	0.014909659
72	0x3d518319	0.051150415
73	0x3ce59973	0.028027272
74	0x3d95e459	0.073189445
75	0xbd99d05f	-0.07510447
76	0xbe176553	-0.14784746
77	0x3dcb11e5	0.099155225
78	0xbc5d30b1	-0.0135003785
79	0x3ca11e83	0.01966787
80	0x3d9f52be	0.07779454
81	0xbdc525bd	-0.09626339
82	0xbcf53e26	-0.029936861
83	0xbdbeb318	-0.09311503
84	0xbdcf5fe3	-0.10125711
85	0xbcd28b0f	-0.025701074
86	0xbd809ab3	-0.062795065
87	0xbbdaafb1	-0.006673776
88	0x3d3da252	0.04629738
89	0x3d463a8d	0.048395682
90	0x3e0dafba	0.13836566
91	0x3d672ff9	0.056442235
92	0xbd9ac42f	-0.0755695
93	0xbdcdcf41	-0.10049296
94	0xbd76ebce	-0.060283475
95	0xbdacbada	-0.084340766
96	0x3da3d51d	0.079996325
97	0x3c881f55	0.016616503
98	0xbe0a9415	-0.13533051
99	0x3de9b12c	0.11410746
100	0xbcf53f75	-0.029937485
101	0x3d29dc04	0.04146959
102	0xbdf36bac	-0.11885771
103	0x3c21e93e	0.009882269
104	0x3c970c81	0.01843858
105	0x3d8d862d	0.069103576
106	0xbde9eee3	-0.11422517
107	0xbd8860ec	-0.066591114
108	0xbdd35740	-0.10319376
109	0x3b9e687c	0.004834233
110	0x3ddf2f73	0.10897722
111	0x3d1b106c	0.037857458
112	0x3e1f6173	0.15564518
113	0xbdfdd353	-0.123938225
114	0x3d1e2e03	0.0386181
115	0xbdb8d161	-0.09024311
116	0xbc5d7f72	-0.013519155
117	0xbdfe23f6	-0.12409203
118	0xbddba606	-0.10725026
119	0xbd847c0d	-0.06468973
120	0x3da3a3c5	0.07990221
121	0xba946c0e	-0.0011323707
122	0xbdd621d1	-0.10455669
123	0x3d5024c4	0.050816312
124	0x3e0c0718	0.13674581
125	0x3db0ac34	0.08626595
126	0x3dd8b74b	0.10581835
127	0x3dc9148a	0.09818371
128	0x3d536be9	0.051616583
129	0xbdc111b2	-0.09427203
130	0xbe24cb6e	-0.16093227
131	0x3dedf066	0.11618118
132	0xbdbe763d	-0.09299896
133	0xbce78ebb	-0.028266301
134	0x3e03dce7	0.12877236
135	0x3deec851	0.11659301
136	0xbd951a60	-0.07280421
137	0xbda7a663	-0.081860326
138	0xbd93ae25	-0.0721095
139	0xbd73148b	-0.059345763
140	0xbda94fd4	-0.08267179
141	0x3d1bee29	0.038068924
142	0xbdb62fb4	-0.088958174
143	0x3dac67c8	0.08418232
144	0xbded7142	-0.11593868
145	0x3d04b3d0	0.032398045
146	0x3d53d094	0.051712587
147	0x3d7ef0f6	0.062241517
148	0xbd5ac2f5	-0.05340858
149	0x3d96e43d	0.07367752
150	0x3da9fccd	0.08300171
151	0xbde8081d	-0.113296725
152	0xbdd8bd58	-0.105829895
153	0x3dcb754a	0.099344805
154	0x3da88ea1	0.08230329
155	0xbe06f262	-0.13178399
156	0x3e281ec8	0.16417992
157	0xbdc8ae29	-0.097988434
158	0xbd828cba	-0.06374498
159	0xbe23f843	-0.16012673
160	0x3d230bf3	0.039806318
161	0xbc137faa	-0.009002605
162	0x3cdf91c9	0.027291195
163	0xbdefb50f	-0.11704456
164	0x3aae452a	0.0013295759
165	0xbbadc583	-0.0053030862
166	0x3e2b6db1	0.16741063
167	0xbdb62401	-0.08893586
168	0xbc6fb96d	-0.014631611
169	0x3db23535	0.08701555
170	0x3d9a98ab	0.0754865
171	0x3dd11b88	0.10210329
172	0x3b6ea094	0.003641163
173	0xbd5ee836	-0.054420672
174	0xbdc77a2a	-0.09740098
175	0x3e1975ec	0.1498639
176	0x3cd8296b	0.026386937
177	0x3dcb4121	0.09924532
178	0xbc0704ab	-0.008240859
179	0xbdd3e7c4	-0.1034694
180	0x3d035ec2	0.03207279
181	0xbd622741	-0.055213217
182	0x3df03df3	0.11730566
183	0xbc214c1c	-0.009844806
184	0x3e03730c	0.12836856
185	0xbdaba4c1	-0.08381034
186	0x3dd0f698	0.10203284
187	0x3e28dc89	0.16490377
188	0xbe23fc8a	-0.16014305
189	0xbdc6dee6	-0.09710483
190	0xbde5f433	-0.11228218
191	0x3dc19cba	0.09453721
192	0xbd122713	-0.035681795
193	0x3e0c0f92	0.13677815
194	0x3d203e05	0.039121646
195	0xbd9b6018	-0.07586688
196	0xbd6bab7a	-0.05753658
197	0x3de48c40	0.11159563
198	0xbc90a6f1	-0.017657729
199	0xbdaad5d3	-0.08341565
200	0x3d201feb	0.03909294
201	0x3da32750	0.07966483
202	0xbde52d72	-0.11190309
203	0xbdc1b4e3	-0.094583295
204	0xbc2c87f8	-0.010530464
205	0x3db5afe3	0.08871438
206	0xbe0133e4	-0.12617451
207	0xbe0478c6	-0.12936696
208	0xbdc7fd41	-0.09765101
209	0x3d7fc55b	0.062444072
210	0x3c7957fd	0.015218732
211	0x3dde7a3e	0.108631596
212	0x3d6e3715	0.058158
213	0x3d7d9911	0.061913554
214	0xbd1688ae	-0.03675144
215	0xbc962ea8	-0.018332794
216	0xbd5fda40	-0.0546515
217	0xbdd1fe28	-0.102535546
218	0x3c8d7ec2	0.017272357
219	0xbd5122f7	-0.051058736
220	0x3c0b7c77	0.008513561
221	0x3d31bd26	0.043393277
222	0xbe03d905	-0.12875755
223	0xbdc0a2fc	-0.09406087
224	0xbcb1c579	-0.021700608
225	0xbd8c8f3e	-0.06863259
226	0xbc35abe4	-0.011088345
227	0xbe0d50b2	-0.13800314
228	0x3b870d3d	0.004121451
229	0x3d629a21	0.05532277
230	0xbe07d84f	-0.13266109
231	0xbd2fdfa3	-0.042937886
232	0xbdc7ca36	-0.097553656
233	0xbca09c22	-0.0196057
234	0x3d283e11	0.041074816
235	0xbdc1fff2	-0.09472646
236	0x3d7f3c90	0.062313616
237	0xbde851fe	-0.11343764
238	0x3e0016e6	0.12508735
239	0xbc065753	-0.008199531
240	0xbe1200ca	-0.14258114
241	0x3da7e560	0.08198047
242	0x3d36093b	0.044442397
243	0x3cab7bc0	0.020933032
244	0xbd8df448	-0.069313586
245	0xbe01e77d	-0.12685962
246	0x3c1deffd	0.009639737
247	0x3d767159	0.06016669
248	0x3da15240	0.07877016
249	0xbda98073	-0.08276453
250	0x3b51ae77	0.0031994858
251	0x3cf6068f	0.030032424
252	0xbdb987a8	-0.090590775
253	0x3c8c1e0d	0.017104173
254	0xbde56b2a	-0.112020805
255	0x3e074074	0.1320818

bias f4 [50]
0	0x3da31eb6	0.07964842
1	0x3c6829c1	0.014170111
2	0xbd03c551	-0.032170597
3	0xbd742448	-0.059604913
4	0x3c7c7bb0	0.015410349
5	0xbdb59935	-0.088671125
6	0x3e17915c	0.14801544
7	0xbc8e3e0a	-0.017363567
8	0xbd12dd07	-0.03585532
9	0x3dcb36d0	0.09922564
10	0x3d5966ad	0.053076435
11	0x3d8ec5e0	0.069713354
12	0x3df115cf	0.11771738
13	0xbd0406c8	-0.03223303
14	0x3d36dcdd	0.044644225
15	0x3c61501c	0.01375201
16	0x3d096c12	0.03355033
17	0xbe012ec1	-0.12615491
18	0xbd0d3af2	-0.034480043
19	0x3cce079f	0.025150118
20	0xbdc12b5a	-0.09432097
21	0x3dc0cebf	0.09414434
22	0x3dacedb7	0.08443778
23	0x3cd8002c	0.02636727
24	0xbdc81efd	-0.097715355
25	0x3b9ec3bf	0.004845112
26	0xbb9185e3	-0.0044410094
27	0x3d1ddf95	0.038543303
28	0xbd5ec2c0	-0.054384947
29	0xbdc47986	-0.09593491
30	0x3db9db3d	0.090750195
31	0xbddc95e2	-0.107707754
32	0xbdebf1ea	-0.11520751
33	0x3de56b30	0.11202085
34	0xbd52b29b	-0.051439863
35	0x3d69ef8d	0.05711322
36	0xbdc2fdd3	-0.095210694
37	0x3dd67342	0.104712024
38	0x3da0088f	0.078141324
39	0xbda3d03d	-0.07998703
40	0x3c845a2d	0.01615628
41	0x3d23e026	0.040008686
42	0x3dce93d2	0.10086788
43	0x3d6458b2	0.05574865
44	0xbd98ed09	-0.07467086
45	0x3d97a06d	0.07403646
46	0x3c9ca1a8	0.019120052
47	0xbddc675d	-0.107619025
48	0xbdcf9ecb	-0.10137709
49	0xbde50248	-0.11182076

weight f4 [50, 50]
0	0xbda31b02	-0.07964136
1	0xbdbfdd8a	-0.09368427
2	0xbdec8e38	-0.115505636
3	0xbd8a8c3c	-0.06765029
4	0xbd8899c2	-0.06669952
5	0xbd1e72cc	-0.038683698
6	0xbdff3b9a	-0.1246254
7	0x3dbfc734	0.09364167
8	0xbe0ef019	-0.13958777
9	0x3d40ae2e	0.04704111
10	0x3db17945	0.086657085
11	0x3d0a0823	0.033699166
12	0xbdc7d350	-0.097571015
13	0x3c59c2cf	0.013291075
14	0x3bc12b9e	0.005895092
15	0x3e25523e	0.16144654
16	0xbd3a61dd	-0.045503486
17	0x3cce3dc5	0.025175938
18	0x3d8ab043	0.067719005
19	0xbdcab72b	-0.09898218
20	0x3e1aaafd	0.1510429
21	0x3def97cf	0.11698877
22	0xbd93018c	-0.071780294
23	0xbdda434b	-0.10657366
24	0x3dc9bdf1	0.098506816
25	0x3dd29b69	0.102835484
26	0x3cac0e40	0.021002889
27	0x3dc46e63	0.09591367
28	0x3dc3d2d3	0.09561696
29	0xbd9bbbcd	-0.076041795
30	0xbd8ba803	-0.06819155
31	0xbc926c6f	-0.01787397
32	0x3d901f5d	0.07037232
33	0x3d83ad5a	0.064295486
34	0xbe10f139	-0.14154519
35	0xbd791a2f	-0.060815986
36	0xbd35e931	-0.04441184
37	0x3d6e46b5	0.0581729
38	0xbd6717a4	-0.05641903
39	0x3d840305	0.064458884
40	0xb942508a	-0.00018531285
41	0xbb54aaa5	-0.0032450345
42	0x3cefb5a6	0.029261421
43	0xbc463690	-0.01209797
44	0x3d87cf42	0.06631328
45	0x3dacbb3a	0.08434148
46	0xbdc846b6	-0.09779112
47	0x3d65b1b1	0.056077663
48	0x3e398746	0.18118009
49	0x3cec8e55	0.028876463
50	0x3d2032a1	0.039110783
51	0xbe0e49b4	-0.13895303
52	0x3d98acba	0.0745482
53	0xbdedab4f	-0.1160494
54	0xbc817681	-0.015803577
55	0xbe090b46	-0.13383207
56	0xbcad5c9f	-0.02116233
57	0xbd87699d	-0.06611941
58	0x3dde23b8	0.108466566
59	0xbd10f6db	-0.03539167
60	0x3dd30460	0.10303569
61	0xbd17ccab	-0.03706042
62	0xbc3284ed	-0.01089595
63	0xbc96734b	-0.018365523
64	0xbdf6a124	-0.12042454
65	0xbbf22ce6	-0.007390606
66	0x3b91f6b4	0.004454458
67	0xbdd48d67	-0.10378533
68	0x3e00f916	0.12595019
69	0xbd795c90	-0.06087929
70	0xbd967014	-0.07345596
71	0xbab385dc	-0.0013696509
72	0xbced66d9	-0.028979706
73	0x3d05560b	0.03255276
74	0x3d0ed2db	0.034869056
75	0x3d623e17	0.055234995
76	0xbced2a64	-0.028950877
77	0xbd2feab7	-0.04294845
78	0x3d681960	0.056664824
79	0xbdc652a2	-0.0968373
80	0xbdf3fdba	-0.11913629
81	0x3d8e5c9c	0.069512576
82	0x3cbeecde	0.023306306
83	0xbc1e5d6a	-0.009665826
84	0xbd7bea9e	-0.061503045
85	0x3d87077e	0.06593226
86	0xbde8eb81	-0.11373044
87	0x3da53dd2	0.08068432
88	0xbdea29c4	-0.114337474
89	0xbe0db3be	-0.13838097
90	0xbcfca918	-0.030842349
91	0x3d7f79bf	0.062371965
92	0x3cac4947	0.021031035
93	0xbdad2a53	-0.08455338
94	0xbe025832	-0.12728956
95	0xbdadc0e0	-0.084840536
96	0x3ca61b9a	0.020276833
97	0x3da0b7d2	0.07847561
98	0x3d9da9bc	0.0769839
99	0x3dc4622e	0.09589039
100	0x3d15e105	0.03659155
101	0x3d0b6880	0.034035206
102	0xbdba99b1	-0.091113456
103	0x3d016bf9	0.03159711
104	0xbe0d2fe7	-0.13787805
105	0xbddbbe22	-0.10729624
106	0x3c58dc0c	0.013236057
107	0xbcd227bd	-0.025653714
108	0xbe1043f9	-0.1408843
109	0x3d66deda	0.05636487
110	0x3cb9ed90	0.022696286
111	0x3bcb7eb8	0.0062101744
112	0x3d82bb9e	0.063834414
113	0xbdc1d1b5	-0.094638266
114	0xbc0e80a6	-0.008697664
115	0xbe1e9992	-0.1548827
116	0x3d0fb988	0.035089046
117	0x3d123b9d	0.035701383
118	0x3d9d569d	0.07682536
119	0x3d6524c4	0.055943266
120	0x3c8be269	0.017075734
121	0x3d49afdf	0.04923999
122	0x3d88d582	0.066813484
123	0x3e013acf	0.1262009
124	0x3d244050	0.040100396
125	0x3db5557c	0.088541955
126	0x3c2eecd6	0.010676583
127	0xbd27eb4d	-0.040995885
128	0x3daec4d7	0.08533638
129	0xbd84f9f0	-0.06492984
130	0x3e0d05f8	0.13771808
131	0xbde1d8f4	-0.11027709
132	0x3c1e7539	0.009671503
133	0x3d3b9e22	0.045805104
134	0xbdbf3aad	-0.093373634
135	0x3c162bd3	0.009165722
136	0x3e2146f8	0.15749729
137	0xbd727faf	-0.0592038
138	0x3bb7b7d0	0.005606629
139	0x3d5c3508	0.053761512
140	0x3d2cee6d	0.042219568
141	0x3c87a601	0.016558649
142	0xbdf4902e	-0.119415626
143	0x3e003693	0.12520818
144	0xbd88ef02	-0.06686212
145	0xbd8f6531	-0.070017226
146	0xbd611d18	-0.054959387
147	0x3df3549c	0.11881372
148	0xbe0365ae	-0.12831756
149	0x3e148b5f	0.14506291
150	0x3e25b725	0.16183145
151	0xbd32f079	-0.043686364
152	0xbd83bd86	-0.06432633
153	0x3d90f2b5	0.07077543
154	0xbd1124bd	-0.035435427
155	0x3c872d54	0.016501106
156	0xbd757fa8	-0.059936196
157	0x3d61ff11	0.05517489
158	0xbdac1608	-0.084026396
159	0xbdb6ed53	-0.08931985
160	0xbd96c72c	-0.07362208
161	0x3e05f18c	0.13080424
162	0xbde7bc92	-0.11315264
163	0x3de4d5c5	0.11173586
164	0x3ddbd012	0.10733046
165	0xbd865438	-0.06559032
166	0x3db4a65f	0.08820795
167	0xbe0a84ad	-0.13527174
168	0x3cd44dcf	0.025916008
169	0x3d83a3da	0.064277366
170	0x3da009a5	0.078143395
171	0x3d5cd449	0.05391339
172	0x3d4dc140	0.050233126
173	0x3dde27b6	0.10847418
174	0x3df4644e	0.11933194
175	0xbd9ae1f5	-0.07562629
176	0xbdc39ec9	-0.0955177
177	0xbd4c5b27	-0.049891617
178	0xbdfcc5f9	-0.12342448
179	0x3dfafa53	0.12254777
180	0x3cd40892	0.025882993
181	0xbd41b0ac	-0.047287628
182	0x3c94d96e	0.018170085
183	0x3cb3d5ae	0.021952476
184	0x3d8aaddc	0.06771442
185	0xbc4fd699	-0.012685441
186	0x3d1dad7f	0.038495537
187	0xbdb4841e	-0.08814262
188	0xbd885406	-0.06656651
189	0xbdec15bc	-0.11527583
190	0x3e05a177	0.13049875
191	0xbe146764	-0.14492565
192	0xbc1efea7	-0.009704269
193	0x3d8b7a95	0.0681049
194	0xbd3d02b9	-0.046145175
195	0x3d60d598	0.0548912
196	0xbd1d685f	-0.038429614
197	0xbdea2f61	-0.11434818
198	0xbd87dfd1	-0.066344865
199	0x3e13cd5e	0.1443381
200	0xbca65742	-0.02030528
201	0xbdf79498	-0.12088889
202	0xbdc2e316	-0.095159695
203	0x3d22c3e4	0.039737597
204	0x3d8e36ee	0.06944071
205	0x3da81c91	0.082085736
206	0x3c907ffb	0.01763915
207	0xbe01d2e2	-0.12678102
208	0x3dd82525	0.1055396
209	0x3e07762a	0.1322867
210	0x3c5f2bb7	0.013621262
211	0xbe001ed5	-0.12511761
212	0xbd2b249f	-0.04178297
213	0xbd72b1f0	-0.059251726
214	0xbc2f8a21	-0.010714085
215	0xbd58457e	-0.052800648
216	0xbcf82908	-0.030293003
217	0x3d174617	0.036932077
218	0x3dbe5e75	0.0929536
219	0xbe1331a6	-0.14374408
220	0x3e00446d	0.12526102
221	0xbe0c8a4f	-0.13724636
222	0x3dcffa7f	0.101552
223	0x3cea8320	0.028626978
224	0xbd82ce7f	-0.06387042
225	0x3d15b498	0.03654918
226	0xbdf00293	-0.11719241
227	0x3c7f035c	0.015564766
228	0x3daddede	0.08489774
229	0x3df70360	0.120611906
230	0xbe0a95eb	-0.13533752
231	0xbce80009	-0.02832033
232	0xbcd6ddb1	-0.026228758
233	0xbd72e2bf	-0.059298273
234	0x3da21a18	0.07915133
235	0xbe19e3ac	-0.15028256
236	0xbd9cf261	-0.076634176
237	0xbe0820f9	-0.13293828
238	0x3d021c17	0.03176507
239	0xbd86a1a6	-0.06573801
240	0x3d818f05	0.06326107
241	0xbd079bcd	-0.033107568
242	0x3e02dbfc	0.1277923
243	0xbdfe45c7	-0.12415653
244	0xbcbc4dcb	-0.022986313
245	0x3dde896f	0.10866057
246	0xbddfbfbd	-0.10925243
247	0x3c993d63	0.01870603
248	0x3d9de980	0.07710552
249	0xbe03c345	-0.12867458
250	0x3dff72d5	0.12473074
251	0xbdc5c79a	-0.096572116
252	0x3bd2bb9c	0.006431056
253	0xbdaf98f7	-0.085740976
254	0x3de1bd1b	0.11022397
255	0xbdefba57	-0.117054634

bias f4 [50]
0	0x3da01d83	0.07818129
1	0xbdb1e417	-0.08686083
2	0xbd6f4c78	-0.058422536
3	0xbcd20b6c	-0.025640212
4	0xbd475e64	-0.048674002
5	0x3ccbd0bb	0.024879804
6	0xbe0150aa	-0.12628427
7	0xbe023a4b	-0.1271755
8	0xbcd1f418	-0.025629088
9	0xbd7007e0	-0.05860126
10	0xbd6aed39	-0.05735514
11	0x3e044f64	0.1292091
12	0x3c4b9066	0.012424564
13	0xbc790e0f	-0.015201106
14	0xbd8a5211	-0.06753934
15	0xbd1e0eb0	-0.038588226
16	0x3dae478d	0.08509741
17	0xbd86dfff	-0.065856926
18	0xbc3a2c93	-0.011363166
19	0xbd9b163f	-0.075726025
20	0xbc90d026	-0.017677378
21	0x3d48b42e	0.048999958
22	0xbda8ccb1	-0.08242167
23	0xbbaead30	-0.005330704
24	0x3cad24dc	0.02113574
25	0x3d81f44e	0.063454255
26	0xbcefa346	-0.02925266
27	0x3cfa3e34	0.030547239
28	0x3db40280	0.08789539
29	0xbdf70e60	-0.12063289
30	0x3d9f34ae	0.0777372
31	0x3dad5024	0.08462551
32	0x3dbe1dcf	0.09283029
33	0x3d919039	0.071075864
34	0xbde6281b	-0.11238118
35	0xbc2daf8a	-0.010600934
36	0x3e08c631	0.13356854
37	0xbd2e2dc6	-0.04252412
38	0x3df9ecf3	0.122033976
39	0x3b3c5887	0.002873929
40	0x3e0a7068	0.13519442
41	0x3df6e04d	0.12054501
42	0x3ba3b470	0.004995875
43	0x3d95fcda	0.07323618
44	0x3df12c71	0.11776055
45	0x3e086285	0.13318832
46	0xbdb715e4	-0.08939722
47	0x3d3b4138	0.045716494
48	0xbe03f640	-0.12886906
49	0x3dfeebcf	0.12447321

weight f4 [50, 50]
0	0xbd81cac4	-0.063375026
1	0xbe18286f	-0.14859174
2	0xbd86e412	-0.0658647
3	0x3d711771	0.058860246
4	0xbdf71e55	-0.12066332
5	0x3d3b2fdc	0.04569994
6	0x3dd0463e	0.10169648
7	0xbe0cb178	-0.13739574
8	0xbc45fb7d	-0.012083885
9	0xbc17f773	-0.009275305
10	0xbd72b6da	-0.059256412
11	0x3d6fda5b	0.05855785
12	0x3db2e9d1	0.08736003
13	0xbd97f5e4	-0.07419947
14	0xbd217039	-0.039413664
15	0xbdb72dd5	-0.08944289
16	0xbcf59b54	-0.029981293
17	0xbe05e174	-0.13074285
18	0x3cf00c9b	0.029302886
19	0x3da94e43	0.0826688
20	0x3de47e35	0.111568846
21	0x3e069cc3	0.13145737
22	0x3dc8bcc0	0.09801626
23	0x3e298cb0	0.16557574
24	0xbe07ee33	-0.1327446
25	0xbca35101	-0.019936087
26	0xbcbfa6a0	-0.023394883
27	0xbd7b85cc	-0.061406896
28	0x3b61e1fc	0.0034466973
29	0xbd9bf86f	-0.07615744
30	0x3cf9a431	0.0304738
31	0x3e02ba08	0.12766278
32	0xbcdcdb4b	-0.026960036
33	0x3caa2536	0.020769697
34	0xbe087374	-0.13325292
35	0x3bf07140	0.007337719
36	0xbcbf23e9	-0.023332553
37	0x3e027ca1	0.12742855
38	0xbc990199	-0.01867752
39	0xbdab03eb	-0.08350357
40	0xbd7a167c	-0.0610566
41	0x3dd5d10f	0.104402654
42	0xbc9d119a	-0.019173432
43	0xbc424b10	-0.011858717
44	0x3d5f8893	0.054573607
45	0xbd7991e0	-0.060930133
46	0xbd2bf2ee	-0.041979723
47	0x3d53bc32	0.05169315
48	0x3dcaa4dc	0.09894726
49	0x3dbc8ff8	0.09207147
50	0x3e06b586	0.13155183
51	0x3e086d11	0.13322856
52	0xbc9bcdaf	-0.019018976
53	0x3d7a45af	0.06110161
54	0xbd6d1ab8	-0.05788681
55	0x3d77a04e	0.060455613
56	0xbda01069	-0.0781563
57	0xbde2ebac	-0.11080107
58	0xbdc2af78	-0.09506124
59	0x3d648152	0.055787392
60	0xbd8c9701	-0.06864739
61	0x3d434b63	0.047679316
62	0x3e0ce2f5	0.13758452
63	0xbcbf87e1	-0.023380222
64	0x3d9a22c0	0.07526159
65	0x3dabeea8	0.083951294
66	0x3c71bc07	0.014754302
67	0xbcdf7eb8	-0.027282104
68	0xbdf0a5fa	-0.117504075
69	0x3d7024ad	0.058628727
70	0xbdd2d43d	-0.102943875
71	0xbd18cc8b	-0.037304442
72	0x3bd07a9f	0.006362274
73	0x3b3caf7a	0.0028791116
74	0xbdcddf16	-0.10052316
75	0x3dcfe5fe	0.101512894
76	0x3d9d5d0b	0.07683762
77	0x3e0dd9e7	0.13852654
78	0x3d58a64f	0.05289298
79	0x3d3bd3fa	0.045856453
80	0xbdf77939	-0.12083668
81	0xbd1619b8	-0.03664562
82	0x3d397113	0.04527385
83	0xbcefc75c	-0.029269867
84	0x3c491d17	0.012275002
85	0xbd935521	-0.071939714
86	0xbdec795d	-0.11546586
87	0xbd081549	-0.033223424
88	0x3e0260db	0.1273226
89	0x3d296e0e	0.041364722
90	0xbdf90f96	-0.12161176
91	0x3d0ef441	0.034900907
92	0x3cb0caaf	0.021581022
93	0xbdadb5a3	-0.0848191
94	0x3cb9f072	0.022697661
95	0xbdaeaf83	-0.0852957
96	0x3d9454f7	0.07242768
97	0xbd0fb968	-0.035088927
98	0xbd5a134b	-0.053241055
99	0xbd0f2ca0	-0.034954667
100	0xbd454bc4	-0.04816796
101	0xbddc274b	-0.10749682
102	0x3d86624d	0.06561718
103	0x3e18e002	0.14929202
104	0xbda56895	-0.08076588
105	0x3dc4345b	0.095802985
106	0xbd8c6d68	-0.06856805
107	0x3c294f5a	0.01033386
108	0xbde0f86e	-0.10984884
109	0x3d486587	0.04892495
110	0xbdf0a130	-0.11749494
111	0x3c0ab9a2	0.00846711
112	0x3da526e9	0.08064062
113	0x3cad5168	0.021156982
114	0xbd103cd5	-0.035214264
115	0x3da42196	0.080142185
116	0xbd0a0649	-0.0336974
117	0xbdb26621	-0.08710886
118	0x3d906176	0.07049839
119	0xbdf99fb0	-0.12188661
120	0xbe0b35a0	-0.13594675
121	0x3dc9bf02	0.09850885
122	0x38cf5dba	9.887987e-05
123	0xbde5c77b	-0.112196885
124	0xbd5c0a24	-0.05372061
125	0x3d942e4a	0.072353914
126	0x3bcb094d	0.006196177
127	0xbd2cda0c	-0.042200133
128	0xbd9ef057	-0.07760685
129	0xbda8bf6e	-0.08239637
130	0xbe1027e7	-0.14077722
131	0xbd99e595	-0.075144924
132	0xbe197766	-0.14986953
133	0x3d45d79f	0.048301335
134	0xbd976705	-0.07392696
135	0x3d1b0254	0.037844017
136	0xbd609a21	-0.05483449
137	0xbe04c65d	-0.12966295
138	0x3dd03ae4	0.101674825
139	0xbdff7669	-0.12473757
140	0xbce41ba1	-0.027845206
141	0x3d9b03a0	0.07569051
142	0x3d66785d	0.05626713
143	0x3d28c486	0.041203044
144	0x3d8f7051	0.070038445
145	0xbde7e159	-0.113222785
146	0xbe027cd3	-0.12742929
147	0x3d42f86c	0.047600195
148	0xbdbd5021	-0.09243799
149	0x3d9156a2	0.07096602
150	0xbe0a9c22	-0.13536122
151	0x3ccbb011	0.024864228
152	0xbde71bcf	-0.11284601
153	0xbcf43a14	-0.02981285
154	0xbd9cc4f2	-0.07654752
155	0x3ddca0fe	0.10772894
156	0xbe18bad3	-0.14915018
157	0xbb465a76	-0.0030266321
158	0xbdf65728	-0.120283425
159	0x3e0f27aa	0.13979974
160	0x3d710a98	0.058847994
161	0xbd9c15ea	-0.07621367
162	0xbd05e694	-0.0326906
163	0x3d5c54b7	0.053791728
164	0xbe16f507	-0.14741908
165	0xbda258d6	-0.079271
166	0xbdbd9aa6	-0.092580125
167	0xbdb278e4	-0.08714464
168	0xbe0a76a6	-0.13521823
169	0xbe0f3ed3	-0.1398881
170	0x3be4a0a3	0.006977157
171	0xbd1ad8f3	-0.037804555
172	0xbc7ae098	-0.015312336
173	0xbdeca7c6	-0.11555438
174	0xbcc9fe74	-0.024657466
175	0x3d913a73	0.070912264
176	0x3d2e2989	0.04252008
177	0xbe096f32	-0.13421324
178	0x3e0edae2	0.13950685
179	0x3de18eda	0.11013575
180	0xbdcd36b8	-0.100202024
181	0x3dd5949f	0.10428738
182	0x3de5e192	0.11224665
183	0x3d905ff9	0.07049555
184	0x3e1ec28d	0.15503903
185	0xbdd36bce	-0.103232965
186	0x3c3dd476	0.011586299
187	0x3e0778b9	0.13229646
188	0x3d905385	0.0704718
189	0x3de0ba9d	0.10973094
190	0x3e18e56e	0.1493127
191	0x3c74f70e	0.014951481
192	0xbdb3ab10	-0.08772862
193	0xbdf83d2c	-0.121210426
194	0xbdaf4fbf	-0.08560132
195	0xbd564d68	-0.052319914
196	0x3c584cbe	0.0132018905
197	0xbcb88590	-0.022524625
198	0x3ddde2ac	0.1083425
199	0xbd38f9b6	-0.045160018
200	0x3e0f7e9b	0.1401314
201	0x3e055439	0.1302041
202	0x3ddd8f2e	0.10818325
203	0x3da3ae79	0.079922624
204	0x3db23a93	0.087025784
205	0x3e0accb5	0.13554652
206	0xbd2a8588	-0.04163125
207	0xbc8f59d1	-0.017498882
208	0xbcdad1ca	-0.026711363
209	0x3dc40776	0.095717356
210	0x3d1fdfff	0.03903198
211	0x3a4a848f	0.0007725441
212	0x3d1e5fc3	0.038665544
213	0x3dbef901	0.093248375
214	0x3dec1f70	0.11529434
215	0xbc383dc6	-0.011245197
216	0xbcfb60d0	-0.030685812
217	0x3d52920e	0.05140882
218	0xbca459ea	-0.020062406
219	0xbd92dfb3	-0.071715735
220	0x3db8252a	0.089914635
221	0xbdff1d82	-0.124568
222	0x3d8254c3	0.06363823
223	0x3caa4deb	0.020789107
224	0x3c024990	0.007952109
225	0x3dbda447	0.09259849
226	0x3e2489a7	0.16068135
227	0x3d2fbc2d	0.042904068
228	0xbde18b38	-0.11012882
229	0x3e0f811b	0.14014094
230	0xbda1a28a	-0.0789233
231	0x3d8d66b5	0.069043554
232	0x3bc9145e	0.006136461
233	0xbdf952b2	-0.12173976
234	0xbdf4821e	-0.119388804
235	0x3d5275d1	0.05138189
236	0xbd2c9671	-0.04213566
237	0x3c2fd26e	0.010731323
238	0x3e0555f8	0.13021076
239	0x3e05d0bf	0.13067912
240	0xbe083947	-0.133031
241	0xbd7621e4	-0.060090914
242	0xbdf1c10f	-0.11804401
243	0xbb7b663a	-0.0038360492
244	0xbda2f4b2	-0.07956828
245	0xbd94ef96	-0.0727226
246	0x3dfdebfb	0.12398525
247	0xbc254e33	-0.010089445
248	0xbe0078bd	-0.12546058
249	0x3d958e1f	0.07302498
250	0xbdacc26c	-0.084355205
251	0xbdc76c85	-0.09737495
252	0xbe21286c	-0.15738076
253	0x3d0a70d0	0.033798993
254	0xbce0a606	-0.027422916
255	0x3e09e9db	0.13468115

bias f4 [50]
0	0x3c9a5a99	0.018842028
1	0xbdfcae24	-0.12337902
2	0x3d0b88a4	0.034065858
3	0x3db488c1	0.08815146
4	0x3d4ddf68	0.050261885
5	0xbcd52276	-0.026017409
6	0x3d2591f4	0.040422395
7	0x3dd5ecbc	0.10445544
8	0xbccf5604	-0.02530957
9	0xbd93cbee	-0.07216631
10	0x3bbd0e17	0.005769502
11	0xbc41de57	-0.011832795
12	0x3dddbd62	0.108271375
13	0x3dd4a921	0.10383821
14	0xbd4a7bf5	-0.04943462
15	0x3d7de97d	0.06199025
16	0x3cbd4bb6	0.02310739
17	0x3c402867	0.011728383
18	0x3a2cfdb3	0.00065990834
19	0xbd848169	-0.064699955
20	0x3d9b3a28	0.07579452
21	0x3e1134d2	0.14180306
22	0xbdcb8915	-0.09938256
23	0x3de7d3a1	0.11319662
24	0xbd2d2f84	-0.042281643
25	0x3dcf7744	0.1013017
26	0x3d755035	0.059890945
27	0xbc832258	-0.016007587
28	0x3dbf86f6	0.09351914
29	0x3cd16715	0.025561849
30	0xbdea9902	-0.11454965
31	0x3d119e36	0.035551272
32	0xbdced45f	-0.100991
33	0x3dddf93c	0.10838553
34	0x3e02a063	0.12756495
35	0x3d421007	0.047378566
36	0x3d84b5b1	0.064799674
37	0x3d77852a	0.06042973
38	0x3d9542d9	0.07288141
39	0xbdcaacec	-0.098962635
40	0xbcb059fb	-0.021527281
41	0x3db19b51	0.086722024
42	0x3dd1b404	0.102394134
43	0xbd47c063	-0.04876746
44	0xbd9821f3	-0.0742835
45	0xbe05bb39	-0.13059701
46	0x3df4e743	0.11958172
47	0xbbbcf14a	-0.0057660686
48	0x3d696ed8	0.056990474
49	0x3d1a18d4	0.037621334

weight f4 [50, 50]
0	0x3e046313	0.12928419
1	0xbe0c705a	-0.13714734
2	0x3dbbf90a	0.0917836
3	0x3d2a8429	0.041629944
4	0xbcd7708d	-0.026298786
5	0x3d9be1f6	0.07611458
6	0x3d2e1694	0.042502
7	0xbcca7ed2	-0.024718676
8	0xbdfc69cd	-0.123248674
9	0x3d857af4	0.06517592
10	0x3d0e50e7	0.034745123
11	0x3d951b4f	0.07280599
12	0xbdb34de7	-0.08755093
13	0xbd3317bb	-0.043723803
14	0xbdff2fed	-0.12460313
15	0xbdcf194c	-0.10112247
16	0x3d5c2f1b	0.05375586
17	0xbddb89ba	-0.10719629
18	0xbd08866b	-0.033331316
19	0xbd8439c2	-0.06456329
20	0xbd9bb603	-0.07603075
21	0xbb40d78c	-0.002942535
22	0x3d2eafd8	0.042648166
23	0xbc8baac7	-0.017049206
24	0xbe20d9b4	-0.15708047
25	0xbd4d40ec	-0.050110742
26	0x3dba5f6f	0.09100234
27	0x3e0ea4da	0.13930073
28	0xbe0da035	-0.13830645
29	0x3d8aa15a	0.067690566
30	0x3df9b252	0.12192215
31	0xbd353861	-0.04424322
32	0x3d858ba4	0.06520775
33	0xba1c2089	-0.0005955776
34	0x3bf1d554	0.007380167
35	0x3dbae746	0.09126143
36	0x3deae72e	0.11469875
37	0xbdf2e73e	-0.11860512
38	0x3d148149	0.03625611
39	0x3dbfd75e	0.0936725
40	0xbe184131	-0.14868619
41	0xbe06f711	-0.13180186
42	0x3d54ba5c	0.05193554
43	0x3db5f21f	0.088840716
44	0xbc9d6fbb	-0.019218316
45	0x3da9f932	0.08299483
46	0xbde90317	-0.113775425
47	0x3d8cb4c3	0.06870415
48	0xbd74bf01	-0.059752468
49	0x3d93576b	0.07194408
50	0x3e1798c8	0.14804375
51	0xbdfe3b32	-0.12413634
52	0xbdeb9105	-0.1150227
53	0xbc2aecce	-0.010432435
54	0x3cd9875d	0.026553804
55	0x3d2a573d	0.041587103
56	0x3dcb611b	0.09930631
57	0xbb9b3e72	-0.0047376687
58	0x3d546413	0.05185325
59	0x3c65b395	0.0140198665
60	0x3e04a94d	0.12955208
61	0x3dcf7f33	0.10131683
62	0x3d8ab0f5	0.06772033
63	0xbded8034	-0.115967184
64	0xbd274038	-0.04083273
65	0xbce98821	-0.028507294
66	0xbd5a744c	-0.053333566
67	0x3df0f9e3	0.11766412
68	0xbd4387dd	-0.04773699
69	0x3c85f479	0.016351925
70	0x3c39a6f0	0.011331305
71	0x3c4f2e0d	0.012645257
72	0xbddf2d93	-0.108973645
73	0xbda04690	-0.07825959
74	0x3c88a1cf	0.016678719
75	0x3cc1df26	0.023665976
76	0x3d8f6979	0.07002539
77	0x3dc721f4	0.09723273
78	0xbda8ff0d	-0.08251772
79	0x3df6e975	0.12056247
80	0xbdd6fa4f	-0.10496961
81	0x3d5d2103	0.05398656
82	0x3cc8ee69	0.024527745
83	0xbdea2df6	-0.114345476
84	0x3d86856a	0.065684155
85	0xbd84699e	-0.064654574
86	0xbbd6853e	-0.0065466454
87	0xbe0ab7eb	-0.13546722
88	0xbcc34d0e	-0.023840453
89	0x3de76221	0.112980135
90	0xbdbfed95	-0.09371487
91	0x3d90f08b	0.0707713
92	0xbddf5efc	-0.10906789
93	0x3d1f8451	0.038944546
94	0xbde75f1d	-0.11297438
95	0x3c16f944	0.009214703
96	0xbcd56264	-0.026047893
97	0x3dbf350b	0.09336289
98	0x3cf5c3a3	0.030000513
99	0xbd0c68a9	-0.0342795
100	0xbd55bb09	-0.052180324
101	0x3c7e9462	0.015538307
102	0xbdceeb4f	-0.10103475
103	0xbdfcf8f9	-0.12352175
104	0xbe14b6bb	-0.14522831
105	0x3e0aeaa2	0.13566068
106	0x3d44b935	0.04802819
107	0xbd432f31	-0.047652427
108	0xbdfecd8f	-0.12441551
109	0x3d4e17b6	0.05031558
110	0xbd6e6491	-0.058201376
111	0x3da5b684	0.08091453
112	0x3c609d45	0.013709371
113	0x3d443447	0.047901418
114	0xbd5dda51	-0.05416328
115	0x3d99f05d	0.07516549
116	0x3bd7575d	0.006571694
117	0xbce4f43e	-0.027948495
118	0x3de1834e	0.110113725
119	0x3dc47aea	0.095937565
120	0x3d1ab13e	0.037766688
121	0x3db3bd91	0.08776391
122	0xbcdccff9	-0.026954638
123	0xbd11ccd1	-0.03559572
124	0x3d2548e5	0.04035272
125	0x3cc71bf3	0.02430532
126	0x3b581bd0	0.0032975562
127	0xbe028629	-0.1274649
128	0x3d9e7d42	0.07738735
129	0xbc8f198b	-0.017468235
130	0x3dd488c3	0.10377648
131	0xbdcfa937	-0.10139697
132	0x3b80a8f5	0.0039263912
133	0x3d8c5a8d	0.06853209
134	0x3d3f19b3	0.046655368
135	0x3db21f41	0.086973675
136	0x3d3b762f	0.045767006
137	0x3dea9011	0.1145326
138	0xbd371881	-0.044701103
139	0xbd9b85b7	-0.075938635
140	0x3c85310a	0.016258735
141	0x3d859248	0.065220416
142	0x3c1f679a	0.00972929
143	0x3c25f259	0.010128581
144	0x3d3b75e6	0.045766734
145	0x3d8e5fd3	0.06951871
146	0x3db6d823	0.089279436
147	0xbd9d3c97	-0.07677572
148	0xbd0689a4	-0.032846108
149	0x3e102327	0.1407591
150	0x3d33126b	0.043718737
151	0xbdfa4184	-0.12219527
152	0xbddcc39b	-0.10779496
153	0x3dbea7cc	0.093093485
154	0xbd956329	-0.07294304
155	0xbdf334ab	-0.1187528
156	0x3d96c5db	0.07361957
157	0xbd3682f2	-0.044558473
158	0xbe07803d	-0.13232513
159	0x3cf9c8a1	0.030491175
160	0xbdff0d46	-0.124537036
161	0x3d9b3ea9	0.07580311
162	0xbda7415a	-0.08166762
163	0xbb8fa081	-0.004383147
164	0x3dd46e2e	0.103725776
165	0xbcbd7e3a	-0.023131479
166	0xbe1cd7f8	-0.1531676
167	0x3e28a5e7	0.16469537
168	0x3df98e45	0.12185339
169	0xbde4ee2b	-0.111782394
170	0xbd36e4fb	-0.044651967
171	0xbddca517	-0.10773676
172	0xbdca453c	-0.09876487
173	0x3de6160c	0.11234674
174	0x3df1c7d5	0.11805693
175	0x3cb82b88	0.022481695
176	0xbd35692f	-0.044289764
177	0x3db35c34	0.08757821
178	0x3d1bf184	0.038072124
179	0x3da76f9f	0.08175587
180	0x3ca54e3b	0.020178905
181	0xbd6e5faf	-0.05819672
182	0xbd5aa6c8	-0.05338171
183	0xbc2bb335	-0.010479738
184	0xbdf74f16	-0.12075631
185	0xba73b02f	-0.0009295968
186	0xbd73e373	-0.059543084
187	0x3dbb602e	0.09149204
188	0xbd43a259	-0.04776225
189	0xbc196eb5	-0.0093647735
190	0xbca6f0bf	-0.020378469
191	0x3de4475b	0.111464225
192	0x3c2187f1	0.009859071
193	0xbcc7bc89	-0.024381893
194	0x3e0be049	0.13659777
195	0x3d9fa64c	0.077953905
196	0x3e1a975e	0.15096804
197	0x3e09ed59	0.13469447
198	0xbde24e9f	-0.11050152
199	0x3e06b24e	0.13153955
200	0x3db6f9ba	0.0893435
201	0xbd3212bc	-0.043474898
202	0xbc81d08c	-0.015846513
203	0xbda062dc	-0.07831356
204	0xbd5bf0f9	-0.053696606
205	0x3dc64595	0.096812405
206	0xbe0d144f	-0.13777278
207	0xbe023901	-0.12717058
208	0xbcca47d5	-0.024692455
209	0xbd4e8a88	-0.050425082
210	0x3dff8bd9	0.12477846
211	0xbdea3ade	-0.11437009
212	0xbd3166e9	-0.043311033
213	0xbd1750f7	-0.03694245
214	0xbd8910d7	-0.06692665
215	0xbd9465f6	-0.0724601
216	0xbd5a7536	-0.053334437
217	0xbca2465b	-0.019808939
218	0x3dbde0c6	0.09271388
219	0x3d4e080e	0.05030065
220	0xbe1d582a	-0.15365663
221	0xbdbe4dd7	-0.092921905
222	0x3cbad51f	0.022806702
223	0xbdf90ae7	-0.121602826
224	0x3ddbb9a6	0.10728769
225	0xbbbdfd48	-0.0057980157
226	0x3d754e9c	0.05988942
227	0x3dc0bf6f	0.09411513
228	0x3e056abe	0.13029
229	0xbdfb9469	-0.12284166
230	0x3d4a6e47	0.049421575
231	0xbd3082d9	-0.043093536
232	0x3d186195	0.037202436
233	0x3c1b2eb1	0.009471581
234	0xbc043ca8	-0.008071102
235	0x3da14e85	0.078763045
236	0x3d5aef11	0.053450648
237	0xbd8b7c2d	-0.06810794
238	0x3e0ed2b8	0.1394757
239	0xbbaaa4cf	-0.005207635
240	0x3dcc93d6	0.09989135
241	0xbde288f9	-0.11061282
242	0xbdfa28c6	-0.12214808
243	0xbd883376	-0.066504404
244	0xbdf59246	-0.1199079
245	0x3d91d7c2	0.07121231
246	0x3d5e198c	0.054223582
247	0xbd82a3fc	-0.06378934
248	0x3b0848a8	0.002079526
249	0xbd8f9b85	-0.07012085
250	0xbd9dc858	-0.07704228
251	0x3cff8496	0.031191152
252	0xbd8f33ed	-0.06992326
253	0xbd75663e	-0.05991196
254	0x3d3273db	0.04356752
255	0x3daf6cf3	0.08565702

bias f4 [50]
0	0xbe0a985f	-0.13534687
1	0x3ddce426	0.10785703
2	0xbdb2148f	-0.086953275
3	0x3dc8d08a	0.09805401
4	0x3c57bc77	0.013167492
5	0xbdea9d69	-0.11455805
6	0xbce8b0dc	-0.028404646
7	0x3dcb4299	0.09924812
8	0x3e04b98a	0.12961403
9	0x3d52d978	0.051476926
10	0xbdabf6db	-0.08396693
11	0xbda19f00	-0.07891655
12	0x3ccf8b7d	0.025335068
13	0x3dd45030	0.10366857
14	0x3da32b60	0.079672575
15	0xbd451afb	-0.048121434
16	0x3ccd38e7	0.025051547
17	0xbe0459ed	-0.12924929
18	0x3cafc64f	0.021456866
19	0x3d1db422	0.038501866
20	0xbde2ad7b	-0.11068245
21	0x3e02102a	0.12701479
22	0x3d90f668	0.07078248
23	0x3de5559b	0.111979686
24	0x3c6f5ef5	0.014610042
25	0xbdc0525e	-0.0939071
26	0xbdcc5af4	-0.099782854
27	0x3b862925	0.0040942603
28	0x3ddcd5a6	0.10782938
29	0x3d87c7c5	0.066299
30	0x3d60d3c3	0.05488945
31	0xbdb0f46e	-0.08640371
32	0xbd7a610b	-0.061127704
33	0x3d90c401	0.07068635
34	0x3d1cbf62	0.038268454
35	0xbdb38a63	-0.087666295
36	0xbe08544c	-0.13313407
37	0x3e0a2274	0.13489705
38	0xbdb0062c	-0.08594927
39	0xbdff0364	-0.124518186
40	0x3e0fde19	0.14049567
41	0xbd5ed64b	-0.054403584
42	0xbe0326ec	-0.12807816
43	0xbceab143	-0.028648978
44	0xbdb06e97	-0.08614843
45	0xbd093497	-0.03349742
46	0xbe1387f0	-0.14407325
47	0x3cb7007c	0.022339098
48	0xbd43c3b9	-0.047794078
49	0x3dd9fff5	0.10644523

weight f4 [50, 50]
0	0x3dada2c3	0.0847831
1	0x3dd70639	0.10499234
2	0xbdcec5c4	-0.100963145
3	0x3dff4a00	0.12465286
4	0xbd98040c	-0.07422647
5	0x3df6d2bd	0.12051914
6	0x3de85bc4	0.11345628
7	0x3dd1ad70	0.10238159
8	0x3d9ea03c	0.07745406
9	0xbd457e60	-0.048216224
10	0x3def3198	0.11679381
11	0xbd42321f	-0.04741108
12	0xbb7b565f	-0.0038351042
13	0xba51fcb9	-0.0008010376
14	0xbc2f182f	-0.010686918
15	0x3e00a117	0.12561451
16	0xbd472a44	-0.048624292
17	0x3cb7e647	0.022448672
18	0x3d4ea4f6	0.050450288
19	0xbc9e53fb	-0.019327154
20	0x3d0e3695	0.034720022
21	0xbd14888c	-0.036263034
22	0xbcd10bf8	-0.025518402
23	0xbd45329b	-0.048143964
24	0xbdab588a	-0.08366497
25	0xbcac1dc5	-0.021010289
26	0xbd612944	-0.054970995
27	0x3dde4e6f	0.10854804
28	0xbcb0ddbe	-0.02159011
29	0x3d8f3e0c	0.069942564
30	0x3de920a4	0.11383179
31	0xbc51c3ba	-0.0128030125
32	0x3defe5aa	0.11713727
33	0x3b04bf99	0.0020255803
34	0xbe10eca8	-0.14152777
35	0xbdbca148	-0.092104495
36	0x3c08a38b	0.008339773
37	0xbdcc80e4	-0.099855214
38	0x3d95f23d	0.07321594
39	0x3dddacf3	0.10824003
40	0x3df41f40	0.11920023
41	0x3cfc0544	0.03076423
42	0xbd3d9637	-0.046285834
43	0xbcfcd112	-0.030861411
44	0xbc77fb5f	-0.015135615
45	0x3d9972d0	0.07492602
46	0xbdc4773b	-0.09593054
47	0x3dc29513	0.0950109
48	0xbe07b6f0	-0.13253379
49	0x3dfe5d68	0.124201596
50	0xbcb644e1	-0.02224964
51	0xbd82ce11	-0.0638696
52	0x3d94770d	0.0724927
53	0x3d3c66e8	0.045996577
54	0xbd5c54e5	-0.0537919
55	0x3e1711b5	0.14752848
56	0xbde56395	-0.112006344
57	0x3e078903	0.1323586
58	0xbd9e892b	-0.077410065
59	0xbb5e2664	-0.0033897394
60	0xbd8c69d9	-0.06856126
61	0x3d262926	0.040566586
62	0x3da05fb8	0.07830757
63	0x3dd3343d	0.10312698
64	0xbcf06cce	-0.029348757
65	0x3ce0a098	0.027420327
66	0xbdc8560d	-0.09782038
67	0x3a1d08a2	0.0005990361
68	0xbe1ac08b	-0.15112512
69	0x3dacbfb2	0.084350005
70	0xbe028e7c	-0.12749666
71	0x3a1b83b5	0.00059324066
72	0xbdfcf251	-0.12350906
73	0xbbf4934f	-0.0074638496
74	0x3de50453	0.111824654
75	0xbe066577	-0.13124643
76	0xbd84081d	-0.0644686
77	0x3dbd8f8f	0.09255897
78	0x3dfd34dd	0.123635985
79	0x3ca6e8d0	0.020374686
80	0x3d66e7ab	0.05637328
81	0xbcb09c43	-0.021558886
82	0xbd0de66a	-0.034643568
83	0x3cfc0bda	0.03076737
84	0x3d9da654	0.0769774
85	0x3e120ff8	0.14263904
86	0x3dea45e2	0.1143911
87	0xbd6a2b18	-0.057170004
88	0x3c367a7c	0.011137601
89	0xbda5436e	-0.08069502
90	0x3dc5a250	0.09650099
91	0xbd98321d	-0.07431433
92	0xbddae597	-0.10688322
93	0x3da1329b	0.0787098
94	0xbd842c9a	-0.064538196
95	0xbd2c5ae2	-0.04207886
96	0xbd121369	-0.035663042
97	0x3c9fcb30	0.019506067
98	0xbcd83b94	-0.026395597
99	0xbb57ca13	-0.0032926842
100	0x3dd05d00	0.10173988
101	0xbdb63a30	-0.08897817
102	0xbe0dc640	-0.13845158
103	0xbda89eb6	-0.08233397
104	0x3dc4c02b	0.09606966
105	0xbcaf2b0e	-0.021382835
106	0xbd4225e1	-0.047399405
107	0xbd40a935	-0.04703637
108	0xbcbd12f6	-0.02308033
109	0xbdcd677f	-0.10029506
110	0xbdeaf711	-0.114729054
111	0x3df3d47c	0.119057626
112	0x3c4e355c	0.012585964
113	0x3dc702a6	0.09717302
114	0x3d876d0e	0.066125974
115	0xbdebe5a1	-0.115184076
116	0x3d3f1005	0.046646137
117	0x3dbd9f68	0.0925892
118	0x3e0ca2e3	0.13734011
119	0xbd74b029	-0.059738312
120	0xbd8cf90c	-0.068834394
121	0xbcbd2720	-0.023089945
122	0x3d60a560	0.054845214
123	0x3bbe6951	0.0058108945
124	0x3d1bb271	0.03801197
125	0xbe05d7ae	-0.13070557
126	0xbd5e6c13	-0.054302286
127	0xbe0f979e	-0.14022681
128	0xbde46ce1	-0.111535795
129	0x3e066039	0.13122644
130	0xbe17c03e	-0.14819428
131	0x3d9d6faf	0.076873176
132	0x3ca79a0d	0.0204592
133	0x3b251cdb	0.00251942
134	0x3d2bb390	0.04191929
135	0xbc0693fa	-0.008213991
136	0xbd8b75e3	-0.068095945
137	0xbd0ef91c	-0.034905538
138	0xbd9d5646	-0.07682471
139	0xbe0c3d5c	-0.13695282
140	0x3d8c0b44	0.06838086
141	0x3999becd	0.00029324592
142	0xbc833fd4	-0.016021647
143	0x3dedf76a	0.11619456
144	0x3c8f9f46	0.017532002
145	0x3de2c18a	0.11072071
146	0x3de680d4	0.11255041
147	0xbdecea93	-0.11568179
148	0xbe06383d	-0.1310739
149	0xbd476555	-0.048680622
150	0x3e049b71	0.12949921
151	0xbb5c5e09	-0.0033625385
152	0x3dfa5ae9	0.12224371
153	0xbd5ec61f	-0.05438816
154	0xbd42dc01	-0.047573093
155	0xbe0cc91a	-0.13748589
156	0x3c2c2e02	0.010509016
157	0xbdb5298d	-0.08845816
158	0xbdbf18c4	-0.093308955
159	0xbcdf74f6	-0.027277451
160	0xbdc7fec8	-0.097653925
161	0xbca36b5e	-0.019948658
162	0xbd82e569	-0.06391413
163	0xbd8dc627	-0.0692256
164	0xbc00756c	-0.007840496
165	0x3e078ab0	0.13236499
166	0xbcec8107	-0.028870119
167	0x3de91024	0.11380032
168	0x3e21566c	0.15755624
169	0x3decbf58	0.115599334
170	0xbd8d4b26	-0.06899099
171	0xbd918525	-0.071054734
172	0x3d39569a	0.045248605
173	0xbc18475a	-0.009294355
174	0x3df9cc0b	0.12197121
175	0xbde8060d	-0.11329279
176	0xbdf06a66	-0.11739044
177	0x3e0044f7	0.12526308
178	0xbca60e00	-0.020270348
179	0xbda2646f	-0.079293124
180	0x3c910f63	0.017707532
181	0x3d18ba22	0.037286885
182	0x3d0a6da5	0.03379597
183	0xbcc3c23c	-0.02389633
184	0xbdc7e652	-0.09760727
185	0x3d6b7de2	0.057493098
186	0xbdb9b5ae	-0.09067856
187	0x3e018dbc	0.12651724
188	0x3d2073f6	0.03917309
189	0xbe074296	-0.13208994
190	0xbd1d4841	-0.038398985
191	0xbdf67ce6	-0.12035541
192	0x3deb61b5	0.114932455
193	0x3dbdcb51	0.09267295
194	0x3deb42fc	0.11487386
195	0x3e16f780	0.14742851
196	0xbe0d1124	-0.1377607
197	0x3a372dba	0.000698771
198	0xbcc4c028	-0.024017408
199	0x3db43787	0.087996535
200	0xbdb917bc	-0.0903773
201	0xbccdee28	-0.025137976
202	0x3d4e908b	0.050430816
203	0xbbfeaf0a	-0.007772331
204	0x3dc16a76	0.09444134
205	0x3cd426cc	0.025897406
206	0xbd757b98	-0.05993232
207	0xbcee46c2	-0.029086474
208	0xbdab6fca	-0.083709314
209	0x3cdfdcdc	0.027326994
210	0x3dd104ce	0.102059945
211	0xbd696631	-0.056982223
212	0xbc9d7f96	-0.019225877
213	0xbc87cc5c	-0.016576938
214	0xbd8561e3	-0.06512811
215	0xbdf6d09d	-0.120515086
216	0xbdfa2384	-0.12213805
217	0xbdf3abfd	-0.118980385
218	0x3e071e3a	0.13195124
219	0xbd8cbb12	-0.06871618
220	0x3db2dbc0	0.0873332
221	0xbc908189	-0.017639892
222	0xbdcacdc5	-0.09902529
223	0x3d93d1c9	0.07217748
224	0xbd85b22d	-0.06528125
225	0x3e03aa5b	0.12857954
226	0xbd09542e	-0.033527546
227	0xbdc3ed93	-0.09566798
228	0xbd486a2e	-0.048929386
229	0x3deeeefd	0.11666677
230	0x3daf6c23	0.08565547
231	0x3d976d8d	0.07393942
232	0xbd4cb936	-0.04998132
233	0x3e0851a3	0.13312392
234	0x3dc0d17e	0.094149575
235	0x3d3e4d64	0.046460524
236	0xbd5e1360	-0.054217696
237	0x3d915d49	0.07097871
238	0xbc823cae	-0.015898075
239	0xbd9a91ba	-0.075473264
240	0xbcddb548	-0.02706398
241	0x3d294299	0.041323278
242	0xbe04b693	-0.12960272
243	0x3cd8a889	0.026447551
244	0x3aaad3a9	0.001303305
245	0xbc8d127e	-0.017220732
246	0x3e031511	0.12801005
247	0x3d9944c5	0.0748382
248	0xbd8c977f	-0.06864833
249	0xbda14933	-0.0787529
250	0xbd62cda2	-0.055371888
251	0xbddc613a	-0.10760732
252	0xbd507c02	-0.050899513
253	0x3d04a003	0.03237916
254	0xbb9cb963	-0.004782842
255	0x3e0537c6	0.13009557

bias f4 [50]
0	0xbd988326	-0.074468896
1	0x3d84600d	0.06463633
2	0xbcecda83	-0.028912788
3	0x3da3e5ed	0.08002839
4	0x3da4cb4d	0.08046589
5	0xbe03a505	-0.12855919
6	0xbd85491a	-0.06508084
7	0xbd885b7d	-0.06658075
8	0x3de9382c	0.11387667
9	0x3d7c8b7e	0.061656468
10	0xbe019f26	-0.12658367
11	0xbddeebc0	-0.108848095
12	0x3dbee031	0.09320105
13	0xbd75bc26	-0.059993885
14	0x3e040b0e	0.12894842
15	0xbdaebcbc	-0.08532092
16	0x3e0325a1	0.12807323
17	0x3d307aab	0.043085735
18	0xbd0f0691	-0.03491837
19	0x3dff8fe0	0.12478614
20	0xbdde9062	-0.108673826
21	0x3d03d4be	0.03218531
22	0xbdccd33e	-0.10001229
23	0xbcd472a4	-0.025933571
24	0xbdebf409	-0.115211554
25	0xbe0230c1	-0.1271391
26	0x3dac6f28	0.08419639
27	0x3de4a714	0.1116468
28	0xbd33d32a	-0.043902554
29	0xbd389ac5	-0.045069475
30	0x3de7a0b8	0.113099515
31	0x3df913ef	0.12162005
32	0x3ccf36d8	0.025294706
33	0x3dbdaf0e	0.09261905
34	0xbdf9f331	-0.12204588
35	0xbd9e08fa	-0.07716556
36	0x3dd84373	0.1055974
37	0xbd4f0b83	-0.050548088
38	0x3dcd7b6c	0.100333065
39	0x3e02ded6	0.12780318
40	0x3d7779c3	0.060418855
41	0xbda3100a	-0.079620436
42	0x3d26866e	0.040655546
43	0xbc5ab4f6	-0.0133488085
44	0xbd8e86e8	-0.06959325
45	0x3db28942	0.08717586
46	0xbd0c5ef2	-0.034270234
47	0xbc2166b0	-0.009851143
48	0xbd8da44e	-0.06916104
49	0xbdf3e4b5	-0.11908857

weight f4 [2, 50]
0	0xbe07d015	-0.13262971
1	0xbdfd3be2	-0.12364937
2	0x3e087d0d	0.13328953
3	0x3d4fb2fb	0.0507078
4	0xbd82e4df	-0.0639131
5	0xbdde3e2c	-0.10851702
6	0xbdb210c0	-0.08694601
7	0x3df02426	0.11725645
8	0xbd87059d	-0.065928675
9	0xbdd95d28	-0.10613471
10	0xbd4691d2	-0.04847891
11	0xbd42b9c5	-0.047540445
12	0x3d4515aa	0.048116364
13	0xbdb202c4	-0.08691934
14	0xbd649205	-0.055803318
15	0x3d85ae8b	0.06527432
16	0x3dd91777	0.10600179
17	0x3cb519d7	0.022107048
18	0x3dee74fd	0.116434075
19	0x3c152ddd	0.009105173
20	0xbd7df891	-0.06200463
21	0x3c944167	0.018097593
22	0x3d532568	0.051549345
23	0xbe0aab8d	-0.13542004
24	0x3ce382d1	0.027772339
25	0xbc93e937	-0.018055541
26	0x3db6463f	0.08900117
27	0xbc151e2b	-0.009101431
28	0xbe0f70a9	-0.1400782
29	0x3e1031bf	0.14081477
30	0xbd8d4e6f	-0.06899726
31	0xbda3e6a0	-0.080029726
32	0xbc36d3d3	-0.011158901
33	0xbdfe3bda	-0.124137595
34	0xbdf44951	-0.119280465
35	0x39ea2647	0.00044660477
36	0x3c050b2b	0.008120338
37	0x3dd1a74b	0.10236987
38	0x3d833a39	0.064075895
39	0x3d1d9a02	0.03847695
40	0xbd9e6dbf	-0.07735776
41	0x3d7f98ab	0.062401455
42	0x3dbbff23	0.09179523
43	0xbce0951d	-0.027414853
44	0x3df014d0	0.1172272
45	0x3d4b794e	0.049676232
46	0x3c3594a9	0.011082807
47	0x3c3e3d99	0.011611366
48	0x3d8cf3ff	0.06882476
49	0x3e06cc64	0.13163906
50	0xbd440d46	-0.04786422
51	0xbd8844a9	-0.06653721
52	0xbd6d52af	-0.05794018
53	0x3d95b709	0.07310302
54	0x3dec3a70	0.115345836
55	0xbd537356	-0.051623665
56	0x3ddbc138	0.10730213
57	0x3be907f5	0.0071115443
58	0x3dc294d3	0.09501042
59	0x3d669cd9	0.056301925
60	0x3da4e1c4	0.08050874
61	0x3da7bdcf	0.081905
62	0xbdb8f812	-0.09031691
63	0x3dc567c3	0.096389316
64	0xbcc30d85	-0.023810158
65	0x3e0934c4	0.13399035
66	0xbdffb15d	-0.12485001
67	0xbd28ca48	-0.041208535
68	0x3decca0f	0.11561977
69	0xbde6e080	-0.11273289
70	0xbdc0352b	-0.09385141
71	0xbb23a8f3	-0.0024972528
72	0xbe048ab8	-0.12943542
73	0x3d243f6b	0.040099543
74	0xbdfc6cb9	-0.12325425
75	0xbd337efe	-0.04382228
76	0xbd993be6	-0.07482128
77	0xbd957563	-0.0729778
78	0xbe1d2507	-0.15346156
79	0x3d476443	0.0486796
80	0xbd49db10	-0.04928118
81	0xbe043eb0	-0.12914538
82	0xbd1bdad6	-0.038050495
83	0x3dee6e9c	0.11642191
84	0x3e0122c8	0.12610924
85	0xbd428edb	-0.04749952
86	0x3d8e8e62	0.06960751
87	0xbd89b35d	-0.06723664
88	0x3bf42ce0	0.0074516386
89	0xbe0f0c51	-0.13969542
90	0x3e0a525c	0.1350798
91	0xbe00f408	-0.1259309
92	0xbda96f13	-0.08273139
93	0xbd8d9121	-0.06912447
94	0x3cdad05a	0.026710678
95	0xbc446626	-0.011987245
96	0xbd2ca576	-0.042149983
97	0x3c02db04	0.007986788
98	0xbc165e68	-0.009177782
99	0x3c4b9938	0.012426667

bias f4 [2]
0	0x3dd3c999	0.10341186
1	0xbc8eea41	-0.017445685
