models/rnn2_model.pth (torch, 58658 bytes, 14 tensors)

weight_ih_l0 f4 [50, 2]
000000 0c 01 72 bc 17 a0 f2 b9 9a 6d 4d bd a5 1a f9 3d
       -0.014770757 -0.00046277113 -0.050153352 0.12163285
000010 41 64 9f 3d 90 a7 6e bd 26 a5 cf 3d f5 09 8a 3c
       0.07782794 -0.05826527 0.101389214 0.016850451
000020 07 e5 05 be 78 06 0c be 6a 11 e7 bd 2e 51 e3 bd
       -0.13075648 -0.13674343 -0.11282618 -0.11099468
000030 02 b5 0e be 63 e9 0d bd e6 b2 0f be ef 17 01 3e
       -0.13936237 -0.034646403 -0.14033088 0.12606786
000040 96 13 08 3e ee a2 2a bc 4c 3e 0d 3e 5e 6c 0b 3d
       0.13288721 -0.010414822 0.13793296 0.034038894
000050 4b de c5 3d 84 1f 91 bc 7f 7a a8 3c 94 e8 ba bd
       0.0966154 -0.017715223 0.020566223 -0.09126392
000060 8e 61 f5 3d 2d fa 8f 3d d3 76 f1 3c 60 ee 16 3e
       0.11981498 0.07030139 0.029475605 0.1473937
000070 50 3b 01 3e 3c da ad bd 8e 97 3e bd d1 53 02 3d
       0.12620282 -0.084888905 -0.046531253 0.031818215
000080 ae 1c 99 bd e2 fc 35 3d 6b 4f 89 3d 52 19 08 be
       -0.07476173 0.04443062 0.06704601 -0.13290909
000090 7b e1 01 be 23 95 af 3d 53 35 0c be 31 1c 5c bd
       -0.1268367 0.085733674 -0.13692217 -0.053737823
0000a0 29 c2 83 3d 74 8c 02 be 27 54 c0 bc be a2 02 be
       0.064335175 -0.12748891 -0.023477627 -0.12757394
0000b0 4e 07 af 3d dd 4f fd 3d cd 0f fd bd 07 c6 09 bd
       0.08546315 0.12368748 -0.123565294 -0.03363612
0000c0 2c 49 02 3c 7e 35 17 be f5 5a bd 3b f9 de b0 3d
       0.007952016 -0.147665 0.005778665 0.08636279
0000d0 c3 98 8d 3c 13 ac a9 3d 79 72 e5 3d 23 16 b8 3d
       0.017284757 0.08284774 0.112034746 0.08988597
0000e0 4f 90 b0 bd 52 7e 13 be 4e 2f 6b 3d 87 ac 6e 3c
       -0.08621275 -0.14403656 0.05741816 0.014567501
0000f0 0a a9 97 3d 04 f8 d8 bd b6 ba 74 3d b6 2e a8 3b
       0.074052885 -0.1059418 0.059748374 0.0051325215
000100 05 72 0a 3b e1 12 d7 3d 9a 92 70 bd 16 a3 1d 3e
       0.002112509 0.10501648 -0.05873356 0.15394244
000110 74 5a 85 bd be 4a a8 3d 2c ff e6 bd 87 80 35 bd
       -0.06511393 0.08217381 -0.11279139 -0.044312026
000120 4e 56 88 bd fa 0c 88 bd 84 cf bd 3d 10 d6 ce 3d
       -0.06657086 -0.066431 0.09268096 0.10099423
000130 bc 5e 91 bd bc 96 42 bd b7 54 b6 3d 50 5b 26 bc
       -0.07098147 -0.047507033 0.08902877 -0.0101536065
000140 10 8c ee bd 21 92 ba 3d cf 47 1c 3e 46 4e 5c bb
       -0.116478086 0.09109903 0.15261768 -0.003361599
000150 e2 95 80 bd c0 e9 ec 3d 23 1b b2 3d 83 8c b9 bd
       -0.06278588 0.11568022 0.08696582 -0.090600036
000160 a5 28 f3 3d cb bc 66 3c 13 ed aa 3d 49 0c 7b bd
       0.11872987 0.014083098 0.083459996 -0.061291013
000170 8e 04 11 3d 04 5a 42 bd 13 0a 02 be 72 9a 0c 3e
       0.035404734 -0.047449127 -0.12699156 0.13730791
000180 7f 5d 00 be 4b f0 1f bd 20 ac e7 3c 46 53 16 3e
       -0.12535666 -0.03904752 0.028280318 0.14680204

weight_hh_l0 f4 [50, 50]
000000 05 66 95 bb 2a 8b 09 be de f6 ba bd ea 19 a1 bd
       -0.004559281 -0.13431993 -0.091291174 -0.07866271
000010 bb 9c a5 3d 52 0b 9d bd 5c 52 00 bd 9f 1b 29 3d
       0.080865346 -0.07668175 -0.031328544 0.041286107
000020 20 bc e9 3b 7e 66 01 3e 43 82 0e 3e 41 03 f5 3d
       0.007133022 0.12636754 0.13916878 0.11963511
000030 32 ad 25 bd 4f 91 00 bd be b7 fd 3d 8d 45 0e be
       -0.040448375 -0.031388577 0.12388562 -0.13893719
000040 3b 03 af bc e4 6e 8c 3c 9c 8e b3 bd 59 6f 97 bd
       -0.021363845 0.01714272 -0.08767435 -0.07394285
000050 29 8c bf 3d 69 80 93 bc 0d f5 01 3e 36 a2 f3 b9
       0.09352905 -0.018005567 0.12691136 -0.00046469428
000060 e9 d5 de 3d 3d c1 fb bd 41 45 40 bb b9 bd ef bc
       0.10880644 -0.12292717 -0.0029338154 -0.029265271
000070 11 4a 34 bd 90 60 10 3e f4 43 8e 3d b4 51 3b bd
       -0.044015948 0.14099336 0.06946555 -0.045732215
000080 76 40 b4 bc 1f de 13 bd 99 19 a3 3d 77 bc 68 bd
       -0.022003394 -0.036100503 0.07963867 -0.05682036
000090 c4 34 09 3e 05 b0 d4 3c 76 76 eb 3d 46 3e 9a bd
       0.13399035 0.025962839 0.11497204 -0.07531409
0000a0 a6 ae 88 bd b4 9a bf bd 75 22 ad 3d 34 9e c1 3d
       -0.066739365 -0.09355679 0.08453838 0.09454003
0000b0 5d 8c 78 bd f9 79 89 3b 31 96 6b bd 1b 3b 80 3d
       -0.060680736 0.0041954485 -0.05751628 0.062612735
0000c0 3e 1a f6 3d 7c 7a 08 be f6 e4 20 bc d1 3a 51 bc
       0.12016724 -0.13327974 -0.009820214 -0.012770371
0000d0 2c 9f df 3d 48 6b f7 bd f0 51 b9 3b c7 29 91 3d
       0.109190315 -0.12081009 0.0056555197 0.070880465
0000e0 20 e6 ff 3d 4a f7 b7 bd c8 17 7f bd 16 9d 08 3d
       0.12495065 -0.089827135 -0.06227854 0.033352934
0000f0 c5 e3 a6 3d db cd 08 be 09 81 e2 bd 73 b6 f3 3d
       0.08148912 -0.13359778 -0.11059768 0.11900034
000100 44 10 71 3d bc 9a 15 be e6 69 1a 3d 23 bd 0b be
       0.058853403 -0.14609808 0.03769865 -0.13646369
000110 09 7c a3 bd af 53 f0 bc 65 84 b7 bd 2b 62 8d 3d
       -0.07982642 -0.029336778 -0.08960799 0.0690349
000120 2f 39 e5 3b de b1 92 3c 54 76 e2 bd 19 23 f4 bc
       0.006995342 0.01790708 -0.110577255 -0.029801892
000130 8d d5 95 bc 74 d2 9a bd c7 4f 64 3c 36 0b 5c bd
       -0.018290306 -0.07559672 0.013935036 -0.05372163
000140 5e bb b4 bd fb 5f 92 3d e5 5f 88 bd 82 ef a0 3d
       -0.088248 0.07147213 -0.066589154 0.078581825
000150 d5 ec 72 3c 4d 58 6c 3d bd c8 32 3c 73 87 f5 bb
       0.014826973 0.057701398 0.010912118 -0.0074929534
000160 73 c2 07 bd 33 53 6b 3d fe ca 62 bd 4a 9a cb 3d
       -0.033144426 0.05745239 -0.05536937 0.09941538
000170 37 52 08 3e f2 52 02 3e da 6f 2c bd 3d 87 20 3d
       0.13312612 0.12726954 -0.042098857 0.039191473
000180 12 39 a4 bd ef 01 c7 3d 68 31 6d bd 6f 31 8b bd
       -0.08018698 0.09717166 -0.057908446 -0.06796538
000190 e9 a4 f1 bc d2 b8 e4 bd cd 59 c7 bc fb 77 44 3d
       -0.02949758 -0.11168064 -0.024334813 0.047965985
0001a0 60 bd 09 3c f9 1d d9 3d 1b d3 08 be f1 58 46 bd
       0.008406967 0.1060142 -0.1336178 -0.048424665
0001b0 21 6f 98 bb 26 bd 89 3d 46 73 a3 3d 20 c1 9e bd
       -0.0046519195 0.0672553 0.07980971 -0.077516794
0001c0 b9 c3 76 3d 43 5e 83 bc 18 6d 8e bb 3c 33 b7 bd
       0.06024525 -0.016036158 -0.004346501 -0.08945319
0001d0 6e fc 0d 3e d5 33 e6 3d 3a 8a dc bd 60 93 0f be
       0.13865826 0.11240355 -0.10768552 -0.14021063
0001e0 d2 74 03 3c 7f 20 bc bc f9 cd 0e bd 2d 0a 18 bc
       0.008023458 -0.022964714 -0.0348644 -0.00927977
0001f0 fe 98 8f 3d 15 58 b6 bd 7a 28 b5 3d 91 76 f9 bd
       0.07011603 -0.08903519 0.08845611 -0.12180818
000200 ca 32 9e 3d 57 b3 a0 bb cd ed fa 3d 41 87 f8 ba
       0.07724531 -0.0049041915 0.12252388 -0.0018961207
000210 85 2d da bd 3a 56 0f 3e b1 a7 e5 3d 10 11 ff 3d
       -0.106532134 0.13997737 0.11213625 0.12454426
000220 24 a4 1a 3d 7b 4c 35 3c c6 59 04 be 29 f8 e9 3d
       0.037754193 0.011065598 -0.12924871 0.11424286
000230 1a f1 f7 3c 57 d4 b1 3d 54 fb 7e bd 7a 7a e5 bd
       0.030266333 0.08683079 -0.062251404 -0.11205001
000240 37 2b 67 3c cf 59 5e bd 21 81 79 bc c0 78 c0 bd
       0.014109424 -0.054284867 -0.015228541 -0.09398031
000250 36 40 98 3d 7f cd af 3d b8 e9 f5 bd 96 94 b9 bc
       0.07434122 0.08584117 -0.12007469 -0.02265386
000260 73 2f 56 bd 7f 42 44 bd ac 15 1f bb 1d cf d7 3d
       -0.052291345 -0.047914978 -0.0024274392 0.105375506
000270 94 84 03 3e e2 3d 02 be c3 ff e8 bd af 14 be bd
       0.12843543 -0.12718919 -0.11376908 -0.09281289
000280 09 49 c3 bd 46 3a 41 3d 52 62 eb bd e8 89 aa 3d
       -0.09535415 0.047174715 -0.114933625 0.08327085
000290 3c 1c 06 3e f6 48 06 be 75 2d 01 3e 61 82 09 3e
       0.13096708 -0.1311377 0.12614997 0.13428642
0002a0 ac 65 fe 3d d6 7b 07 bb fb 7b 88 3d a2 2f 7b bd
       0.12421736 -0.0020673177 0.066642724 -0.061324723
0002b0 2e 26 a7 bd dc a3 ca bd 0b 50 c3 bd f6 f7 88 3d
       -0.08161579 -0.09894535 -0.09536751 0.0668792
0002c0 39 d2 41 bd ae 21 ea 3b ef c5 0d 3e 58 c7 a3 bc
       -0.047319625 0.007145128 0.13845037 -0.019992515
0002d0 32 4f 55 bd ff 29 f4 3d a6 83 b1 3c 3b 4e 6b 3d
       -0.05207748 0.119220726 0.02166922 0.057447653
0002e0 5a da c8 bd cf b0 d7 3d 09 19 b6 3d 2d 4e f5 3d
       -0.09807272 0.105317704 0.08891494 0.119778015
0002f0 6d ec 2a 3d dd 8b ed 3d c0 24 3c 3c 0f 1c ca bd
       0.04172938 0.115989424 0.011483371 -0.09868633
000300 38 0f 25 bd 16 15 4a 3d 84 5a ce 3c 48 32 d6 bd
       -0.040297717 0.049336515 0.025189646 -0.10458809
000310 d7 da 45 3c e6 6d 0c be ac 16 c1 3d ec 07 ad bd
       0.012076101 -0.13713798 0.094281524 -0.084487766
000320 36 1c 3f bd 7a 67 92 bd 78 2e 85 3d be ed ee bc
       -0.046657763 -0.07148643 0.06503004 -0.029166099
000330 94 bd e5 ba ef e6 c8 bd 0d e4 77 3d ec 41 fe bd
       -0.0017527812 -0.09809672 0.06052022 -0.12414917
000340 6a 05 89 bd 4f 39 03 3d 3f 2a f4 3c b3 01 51 bd
       -0.06690486 0.032037076 0.0298053 -0.05102701
000350 26 77 e0 bd a0 95 97 3d 56 fc f1 bd d8 20 61 3d
       -0.10960226 0.074015856 -0.118157074 0.054962963
000360 a7 74 58 bd e1 cb f9 bd a1 cf 4e 3d 2e c9 19 3e
       -0.052845623 -0.1219709 0.05049098 0.1501815
000370 75 dd af bd b4 da 5e bd 41 25 ae 3d 94 71 ba 3c
       -0.085871615 -0.05440779 0.08503199 0.022759236
000380 35 15 8b bd a2 03 14 be 42 43 31 bd d5 51 fe bd
       -0.06791154 -0.14454511 -0.043277033 -0.12417952
000390 48 dc 69 3d 88 3d fb bd 8c f8 01 3d e9 8a 84 3d
       0.057094842 -0.122675955 0.031731173 0.064718075
0003a0 54 18 c2 3d 53 df d4 bd 17 f7 bb bd c5 c6 d1 3d
       0.094772965 -0.10394158 -0.09177988 0.102429904
0003b0 d2 b1 d7 bc b5 bf f6 3d 73 6d b6 bd dd 5d 91 3d
       -0.026329909 0.12048284 -0.089075945 0.07097981
0003c0 22 80 18 bd 53 8b da bd d7 6c 8f 3d 6c 0f 97 3d
       -0.037231572 -0.10671105 0.070031814 0.07375988
0003d0 7f 2c 02 3d 28 6c 0b bc 65 a6 c7 3d 8e 84 ab bd
       0.031780716 -0.008509673 0.09748534 -0.08374892
0003e0 c0 5e 38 bd 1b 3a bb bd 3e d5 29 bd 86 bc eb ba
       -0.045012236 -0.09141942 -0.04146313 -0.0017985262
0003f0 a0 02 22 3d 2b 09 cd 3d a4 15 92 bc ef ad 0f bd
       0.039553285 0.10011514 -0.017832585 -0.035077985

bias_ih_l0 f4 [50]
000000 e1 ae 53 bd b8 ec 89 bd 57 48 0b be 57 f0 05 3e
       -0.05168045 -0.06734604 -0.13601814 0.13079964
000010 dd 82 75 3d 96 90 f3 3d 6d 09 04 be 61 42 2d bc
       0.059939254 0.11892812 -0.1289422 -0.010574908
000020 fb e9 9c bd 01 67 bb bd c5 77 0d 3e b6 dc 01 be
       -0.07661816 -0.09150506 0.1381522 -0.12681851
000030 48 88 c3 3d 13 a7 a0 3d 36 c8 fb 3d 68 c9 a9 3c
       0.09547478 0.07844367 0.122940466 0.02072592
000040 da e2 8d 3d bf fb df 3d bc 2e eb 3d dc 08 fc bc
       0.06928034 0.10936689 0.11483523 -0.030765943
000050 4c 2a 96 3d 36 2f 88 3d 82 40 5f bb 64 9a ad bc
       0.07332286 0.0664963 -0.003406555 -0.021191783
000060 42 09 e6 3d dd a0 12 be ed 59 4b bd be d0 8c bd
       0.112322345 -0.14319177 -0.049646307 -0.06875752
000070 7a 46 d0 bd 9f 6d 02 bd f4 52 a4 bd 84 75 11 3e
       -0.10169692 -0.031842824 -0.080236346 0.14204985
000080 b1 46 ce 3d 73 e9 86 3c 15 48 68 bd 16 89 2c bc
       0.10072077 0.01646874 -0.056709368 -0.010530731
000090 97 1c af bd f1 f1 32 3d 34 5d c8 bc 22 1b e6 bd
       -0.08550375 0.043687765 -0.024458505 -0.11235644
0000a0 3d 37 ce bc 59 cb 18 bd d2 07 0e be 48 8f 1b bd
       -0.025172824 -0.037303302 -0.1387017 -0.03797844
0000b0 d7 29 72 bc 9d 68 84 bd fe 7f f2 bd 39 48 43 bd
       -0.014780483 -0.06465266 -0.11840819 -0.0476763
0000c0 92 6f ea bd f0 5f d4 bd
       -0.114470616 -0.10369861

bias_hh_l0 f4 [50]
000000 6a 3f 5a 3c 0e f7 e7 bc 33 b5 8d 3c 9f 6b 91 bc
       0.013320783 -0.028316047 0.017298317 -0.017751513
000010 f8 0a a5 3c b2 8f 65 3d e4 8b 9a bd cd d2 89 bd
       0.020146832 0.05604524 -0.07546213 -0.0672966
000020 77 9b 81 bd d6 f6 2f 3d 97 27 e6 3d 1c d9 0e bd
       -0.06328481 0.04296001 0.1123802 -0.03487502
000030 fd 3a 8a bd 01 22 52 3c 83 5b 61 bd f2 eb 01 3d
       -0.06749532 0.01282549 -0.055018913 0.031719156
000040 72 04 95 bd 72 42 38 bd a5 11 ed 3d ee a4 32 3d
       -0.072762385 -0.044985242 0.11575631 0.04361432
000050 4a 1e f9 bd e4 c3 ff bc 0e 6f 8d 3d e2 0b 4a 3d
       -0.1216398 -0.031221338 0.069059476 0.04932774
000060 45 56 c6 bd f2 d1 cd 3c 53 c0 bc bd 09 1a 04 be
       -0.09684423 0.025124524 -0.092163704 -0.12900557
000070 3d a6 fe bd d4 1d 84 3d d9 ab b7 bd aa 5b 00 3d
       -0.12434051 0.06451002 -0.08968324 0.031337418
000080 61 fd b2 bd 7e 5e b1 3c 30 fa d8 bc 99 c8 fb 3d
       -0.087397344 0.021651503 -0.026486486 0.1229412
000090 40 fd eb bc 2b 62 c8 3c 74 bd 07 3e 5a b0 ff bd
       -0.028807282 0.024460873 0.13255864 -0.12484808
0000a0 82 bc 92 3d 8a 4d 5d 3d 3f 54 1e bd 08 27 cd bc
       0.07164861 0.054029025 -0.038654562 -0.025043026
0000b0 f4 92 a3 3c 89 60 b5 3d 59 1c 53 bc 8e 8a 83 3d
       0.019967534 0.08856303 -0.012885177 0.064229116
0000c0 3d a3 ff bd 56 e6 ab bc
       -0.12482307 -0.020983856

weight_ih_l0 f4 [50, 50]
000000 59 df c1 3d ea 3a bb bd 2f b5 c8 3d 1e 55 8c bd
       0.09466428 -0.09142096 0.09800183 -0.06852172
000010 73 6a 9b bd 7c dc 9b 3d 0a 57 a9 3d be c4 13 3e
       -0.07588663 0.076104134 0.082685545 0.1443052
000020 1b 43 3c bd a0 b4 d8 bd 5a da b6 bd c5 59 83 bd
       -0.045962434 -0.105813265 -0.08928366 -0.064136066
000030 70 01 8f bb de a8 62 bd b5 e6 b1 bc af c8 c2 3d
       -0.004364185 -0.055336826 -0.021716455 0.095109336
000040 dc e8 ff 3a 37 bb 9a 3d ba 48 98 bd f0 ca f0 bd
       0.0019524354 0.0755524 -0.074357465 -0.11757457
000050 66 36 09 3d df c0 7e 3d 1a 00 5d 3c 2a 0c 90 bd
       0.033499144 0.062195655 0.013488794 -0.0703357
000060 e2 3c 10 3e da f7 e2 3d 0a d6 ca 3d e6 78 04 3e
       0.14085725 0.1108243 0.09904106 0.12936744
000070 96 b6 fd 3d 6e 50 6b 3d 03 71 b3 bd 58 b0 3e 3c
       0.12388341 0.05744975 -0.0876179 0.011638723
000080 9f e0 b0 3b 2c 32 8a bd 09 59 de 3d 94 57 d3 bd
       0.0053978707 -0.06747851 0.10856826 -0.103194386
000090 39 de e5 bd e8 25 ef 3d 1d c5 07 3d 4a 69 0c 3e
       -0.11224026 0.11677152 0.033146966 0.1371204
0000a0 ad 95 5e 3d e3 c5 03 be bb 87 9c bd 12 b9 03 3e
       0.05434196 -0.12868457 -0.07643076 0.12863567
0000b0 11 07 42 bd 84 c2 43 bd 09 43 87 3d d8 df bc bd
       -0.04737002 -0.047792926 0.06604583 -0.09222382
0000c0 04 7a 82 bd f9 cc 04 be db ce 90 bd 7f 6d ea bd
       -0.06370929 -0.12968816 -0.070707045 -0.11446666
0000d0 0e c5 14 bd 41 46 12 3e 70 54 c2 bb cf f2 b7 bd
       -0.03632074 0.14284612 -0.005930476 -0.08981859
0000e0 06 61 84 bd e3 03 0c be 56 97 e1 bc fb 9b 4d bd
       -0.06463818 -0.13673358 -0.027537983 -0.050197583
0000f0 4c 70 6b 3d 9e 8b a0 bd c7 2d 7f 3d 8f c2 0b 3e
       0.05748014 -0.0783913 0.062299516 0.13648437
000100 64 db 89 3d b4 6e 65 bd b2 66 9e 3b f8 c0 a2 bd
       0.067312986 -0.056013778 0.0048340196 -0.07946962
000110 1f 65 48 3a e7 83 f9 3c 82 69 cd bd 94 b7 81 bd
       0.0007644463 0.030458404 -0.1002989 -0.06333843
000120 b1 8f a1 3c 73 0e 79 3d b8 2e db 3d e5 88 86 3c
       0.019721838 0.060804795 0.1070227 0.016422698
000130 c6 07 30 3d 2d c4 10 3e 05 a8 bb 3d 4a 72 05 bd
       0.042976163 0.14137335 0.091629066 -0.032579698
000140 b8 3c 31 bd c9 28 ba bc fa 82 3f 3d 53 89 13 3e
       -0.043270797 -0.022724526 0.04675577 0.14407854
000150 4d a6 ac 3d 8c 8c f7 3d 9a be f2 3d 0a ce 5c 3d
       0.08430157 0.12087354 0.118527606 0.05390743
000160 7c b2 0b bc 4b 5b d6 bd b8 20 02 be 5e d3 7d 3d
       -0.008526441 -0.104666315 -0.12707794 0.061969154
000170 95 97 f7 3d 32 b5 a8 3d 2d dd ad 3d ce 2e e1 bc
       0.12089459 0.08237685 0.084894516 -0.027488139
000180 af 9c 99 bd 81 84 9b 3c b2 05 0c 3e f8 77 65 3c
       -0.07500588 0.018984081 0.13674048 0.014005654
000190 08 03 81 bd d5 b2 0a 3e 63 92 0d 3e 99 69 e0 3d
       -0.06299406 0.13544782 0.13825373 0.10957641
0001a0 6d 14 8c 3d e0 2e 3b 3d d7 5b 9b 3d 9f 5b b0 3d
       0.068398334 0.045699 0.075858764 0.08611225
0001b0 61 37 40 3d c3 2a 14 bd 79 cf c9 bd 0c b0 c7 bd
       0.046927813 -0.036173593 -0.098540254 -0.09750375
0001c0 0d a4 01 bc 34 ca eb 3c bc 27 40 bd 7b 5a a4 bd
       -0.007912648 0.028782941 -0.046912894 -0.0802507
0001d0 4e d3 bd 3d d5 e4 0c be c0 6d f8 bd 3f 3a ee bb
       0.09268819 -0.13759167 -0.12130308 -0.007270127
0001e0 dc fa 04 3d 83 03 0e 3e 73 0f ef 3c 43 6f a2 3d
       0.0324658 0.13868527 0.029182171 0.07931378
0001f0 c7 fe a7 3d 78 83 12 3e f8 48 0a be 74 c7 0e 3e
       0.08202892 0.14307964 -0.13504398 0.13943273
000200 8c ef 23 3d b2 ee dd bc f9 c9 f5 bd 5d 31 3e 3d
       0.04002337 -0.027091358 -0.12001414 0.046433795
000210 61 41 06 be fd a2 aa 3d 64 e8 fe 3d 36 09 81 bd
       -0.13110878 0.08331869 0.12446669 -0.06300585
000220 37 45 30 bd 23 be 58 bd eb 2b ba bd 7f f0 51 3d
       -0.04303476 -0.052915704 -0.09090408 0.051254746
000230 1a b8 39 bd 08 2e 28 3d a2 50 7f bd 6c 7b fb 3d
       -0.04534159 0.041059524 -0.062332757 0.122794
000240 05 e1 10 3d 51 e5 90 3d 27 fa 0c bd e7 48 c7 bd
       0.035370845 0.07074989 -0.03441825 -0.09730702
000250 af b6 81 bd 42 ce fe bd bd 4d 91 bd fb f6 4e bd
       -0.06333672 -0.12441684 -0.070949055 -0.050528508
000260 bc b1 bc 3d 88 12 ec 3d c9 c6 e4 bd bb 6a 60 bd
       0.09213588 0.11526972 -0.11170728 -0.054789286
000270 f6 2d 05 be 53 d0 1c bc 18 b6 8a bc ed a1 0d 3d
       -0.13005814 -0.009571153 -0.016932532 0.034578253
000280 15 a7 98 bd 26 2a 4b 3d fc 99 8f 3d d1 1a a4 bc
       -0.07453743 0.049600743 0.07011792 -0.020032318
000290 f3 80 83 bd e7 a5 a0 bd be 7c bd bd 43 7f 80 bd
       -0.064210795 -0.07844143 -0.09252308 -0.06274273
0002a0 18 58 d8 3c e1 97 0e 3e 3d a0 cc 3d 93 f9 d7 3d
       0.026409194 0.13925125 0.099915005 0.105456494
0002b0 61 ee 04 bb 69 31 58 bb 12 98 fd bd 6a f8 01 3d
       -0.0020283686 -0.0032988435 -0.12382521 0.031731047
0002c0 c2 13 06 be e6 60 de 3d d3 f1 e4 3d 44 07 13 be
       -0.13093475 0.10858326 0.11178937 -0.1435824
0002d0 2a b0 ed 3d 8c 72 a4 bc 94 b1 e4 bd 03 7d 00 3e
       0.11605866 -0.020074151 -0.11166683 0.12547688
0002e0 c0 22 80 bc e7 a8 9a 3d 55 47 86 3b 7b ae e1 bc
       -0.01564157 0.07551747 0.004097859 -0.02754902
0002f0 8d 99 57 3d df dc 8d bd 52 28 92 bd b4 78 dd bd
       0.05263667 -0.069268934 -0.07136597 -0.10814038
000300 b0 fc e4 3d e2 e9 e0 bd fa 31 05 3d f1 35 d9 3d
       0.11181009 -0.109821096 0.032518364 0.10605992
000310 1c 6a bd 3b 3f 2c 8f bd 32 34 e0 39 47 bb 78 bd
       0.0057804715 -0.06990861 0.00042763498 -0.060725477
000320 e3 08 b9 3d 5c e6 79 3d 17 51 d9 bc 9a 81 cc 3d
       0.09034898 0.061010703 -0.026527924 0.09985657
000330 3b 59 13 3e 69 c7 aa bc 0e ac c4 3d 45 0b b9 3d
       0.14389507 -0.02084704 0.09603129 0.090353526
000340 72 c3 3f 3d e3 78 fa bd 07 aa 98 3d ee 6a 05 be
       0.04681725 -0.122300886 0.07454305 -0.13029072
000350 eb b8 02 be 81 10 13 be 2a 34 a6 3d cf 2c a1 bc
       -0.12765853 -0.14361764 0.08115418 -0.019674687
000360 1c 75 cf bd 00 18 e0 bc 9a cd a0 3c 5b cd 61 3d
       -0.10129759 -0.027355194 0.019629288 0.055127483
000370 7b 17 09 3e 14 9c d4 3d c7 38 d5 bd c6 a2 f2 3d
       0.13387863 0.10381332 -0.1041122 0.11847453
000380 a6 62 b8 bd 69 49 e0 bd 8a 6e 9a bd b3 09 f3 3d
       -0.09003191 -0.10951502 -0.07540615 0.11867084
000390 18 0e 1b 3b 4a 50 08 3e 98 22 b8 3d 66 fc ea 3d
       0.0023659524 0.13311878 0.08990973 0.114739224
0003a0 11 a6 e6 bc 44 59 b2 3d a4 f1 36 3d ac 95 03 be
       -0.028155359 0.08708432 0.04466404 -0.12850064
0003b0 f6 74 f3 3d b3 d2 ba 3d a5 6f 83 3d c9 68 e5 3b
       0.11887543 0.09122219 0.06417779 0.0070010168
0003c0 d7 52 f3 3d 09 57 82 bd 6f c3 02 be 5e 92 b0 3d
       0.11881035 -0.06364257 -0.12769864 0.08621667
0003d0 47 87 d7 bd 33 5d 97 bc fb 90 d4 bd f6 31 0e bd
       -0.10523849 -0.018477058 -0.10379215 -0.034715615
0003e0 30 94 f6 3d 73 c6 dd bd 7c d6 32 3c 73 e4 ad bd
       0.12039983 -0.10828867 0.010915395 -0.08490839
0003f0 25 b9 c2 bd 24 80 2e 3d cd 64 67 bd 8a eb c2 bc
       -0.0950797 0.042602673 -0.056492615 -0.023793954

weight_hh_l0 f4 [50, 50]
000000 27 6c 3f 3d 30 9e ec bc 4a fc 0d be 72 2d 8e 3d
       0.046734 -0.028884023 -0.13865772 0.06942262
000010 11 26 c8 3d e6 a3 66 bc a1 63 c8 bc b4 ce 09 3e
       0.097728856 -0.014077162 -0.02446157 0.13457757
000020 d9 b9 21 3d b8 60 bd 3d 52 34 51 bd d1 29 e1 3d
       0.03948388 0.09246963 -0.051075287 0.10994304
000030 ca 10 75 3d 6c 0b 49 bd 81 04 14 3d bb 9b a3 3c
       0.059830464 -0.04908316 0.036137108 0.019971719
000040 6d 78 b6 bb 1f a3 f9 bc 30 2b 0c bc 02 11 ce bd
       -0.005568555 -0.03047329 -0.008555219 -0.10061838
000050 12 30 f6 3c ca 81 9f 3c 46 80 d2 3d 45 04 90 3c
       0.030052219 0.019471068 0.102783725 0.01758016
000060 a1 ba fc 3d f4 4d e5 bd e2 7c 02 be 6c d1 2f bd
       0.12340284 -0.11196509 -0.12742952 -0.04292433
000070 8d 69 8f 3d 9f 29 a4 bb ec d7 7e 3d 0f f9 8f 3d
       0.07002554 -0.0050098444 0.062217638 0.07029926
000080 57 b2 90 3d 79 a7 fd 3d d1 20 02 bd 52 77 e7 3d
       0.070652656 0.123854585 -0.031769577 0.113020554
000090 76 20 18 3c 43 ca 9d bd cc ad fa bc 95 8f 00 bd
       0.009285083 -0.07704594 -0.030600451 -0.03138693
0000a0 d5 3e 02 3e 57 f6 18 bd f4 7f a3 bc 9e 03 20 bc
       0.12719281 -0.037344303 -0.019958474 -0.009766487
0000b0 22 73 6a bd b4 83 d5 bd 8b 7e de bd fd a8 07 be
       -0.057238705 -0.10425511 -0.1086398 -0.13248058
0000c0 32 28 af bd 6b e7 77 3d 71 a1 77 3c 27 3f cd 3d
       -0.085525885 0.06052343 0.015114174 0.10021811
0000d0 48 5f d2 bb eb 79 50 3d 1a ec 15 ba 11 44 38 bd
       -0.00642005 0.05089752 -0.0005719081 -0.04498679
0000e0 58 82 00 3b 0c 95 b2 3d 15 fb 00 be 1e 9f ab 3d
       0.001960894 0.08719835 -0.1259578 0.083799586
0000f0 a1 57 04 3e 1c e2 91 3c 66 a7 45 bd ef 2b fd 3c
       0.12924053 0.017808013 -0.048255347 0.030904738
000100 da 20 05 3e 3f cb 6a bc 1b a5 0c bc 65 e8 03 be
       0.13000813 -0.014330684 -0.008584286 -0.1288162
000110 90 dd 6d bd d7 f7 00 be 92 30 f1 3d e7 c9 3a 3d
       -0.058072627 -0.12594543 0.11776842 0.045602705
000120 e4 c0 f4 3d a1 c3 98 bd 3c 1b 0c 3e e1 70 93 bd
       0.119508535 -0.07459188 0.13682264 -0.07199264
000130 79 a9 13 3d 53 f2 dc 3d 50 e3 ae 3d c4 f1 5e bd
       0.036050294 0.10788407 0.0853945 -0.054429784
000140 3c ae f4 3d 2c db a3 3d 34 93 d1 3d cb d4 b6 3c
       0.11947295 0.08000788 0.10233155 0.022318264
000150 0a 7f b5 bd d1 a2 9b 3c 64 fb ee 3d cb a8 9d bd
       -0.088621214 0.018998535 0.11669043 -0.0769821
000160 57 b8 ee bd 61 42 00 3e 42 26 17 3d 5f 00 b1 bd
       -0.11656254 0.12525322 0.03690172 -0.08642649
000170 68 ea 90 bd 27 6f 40 3d c7 47 18 bd 54 79 d1 bd
       -0.070759594 0.046981003 -0.037177827 -0.1022822
000180 d7 40 06 be 68 6c 60 3d ff ec 49 3c fc f4 0c be
       -0.13110672 0.054790884 0.012324571 -0.13765329
000190 38 16 21 bd 9a b3 ef 3d 30 6c 2a bd 8c 3e 6b bd
       -0.03932783 0.11704178 -0.041607082 -0.057432696
0001a0 15 d2 8c bd 00 6d ac bc e8 f7 0a be ae 7f 27 3d
       -0.068760075 -0.021048069 -0.13571131 0.04089325
0001b0 1c c4 8c bc 93 26 90 3d 18 e0 58 3d 16 f3 ea 3d
       -0.017183356 0.070386074 0.052948087 0.11472146
0001c0 8b 7e af bd f4 c2 b1 bc 3a d7 02 bd bc 9a ad 3d
       -0.08569058 -0.021699406 -0.031943537 0.08476779
0001d0 8a 7a d5 bd 8b 90 54 3d 84 7e 2e 3d d1 c4 b9 bc
       -0.10423763 0.05189566 0.042601123 -0.022676857
0001e0 ae 4a 2e bc 95 f6 82 3d 9d 06 ea bd 15 0e f6 bd
       -0.010637922 0.06394688 -0.11427043 -0.12014405
0001f0 5c 48 9a 3d 08 53 ab 3d bb 48 0a 3e e1 d2 31 3d
       0.07533333 0.08365446 0.13504307 0.043414
000200 dc 1a 8c 3d 1c 39 15 3d 83 0d 82 bd 60 aa 97 3d
       0.068410605 0.036431417 -0.063502334 0.07405543
000210 4b 97 98 bd da e0 b5 bc 35 94 86 3b 04 96 ef bd
       -0.07450732 -0.022201944 0.004107023 -0.11698535
000220 c1 e0 55 bd e9 3c b7 3d 33 2a 0f 3e ff 93 e4 bd
       -0.052216295 0.089471646 0.13980941 -0.111610405
000230 72 b0 0b be 59 31 22 bd a0 44 f3 3d ec b7 a7 3c
       -0.13641527 -0.039597843 0.118783236 0.020473443
000240 4c fc dc 3d b1 4f 0b be 83 8e f5 3d 70 35 0b 3e
       0.10790309 -0.13604619 0.119900726 0.13594604
000250 62 71 b5 3c c7 55 07 3e 72 be 91 3d 85 26 5b 3d
       0.022148792 0.13216315 0.07116403 0.053503532
000260 29 a4 d0 3d 07 e4 35 bc 0e 19 c9 bd f5 17 75 bd
       0.10187561 -0.011101729 -0.09819232 -0.0598373
000270 03 b3 6c 3d 50 12 01 3d b7 3a b7 bd d0 35 fc 3d
       0.057787906 0.031511605 -0.08946746 0.123149514
000280 30 26 c5 bd e6 74 e2 3d cf 73 94 3b f1 df a7 bd
       -0.09626424 0.11057453 0.004530407 -0.0819701
000290 1b 78 77 3d b4 05 5d bc 68 1a c2 bd e1 57 f7 bd
       0.060417276 -0.013490129 -0.09477693 -0.120773084
0002a0 b7 71 8c 3d 32 d2 49 bd 81 c6 02 3e a0 cb e0 bc
       0.06857627 -0.049272723 0.12771036 -0.027440846
0002b0 0a f2 ba bd af 64 05 be ed 7e ec bd f1 70 c1 bd
       -0.091281965 -0.13026689 -0.11547647 -0.0944537
0002c0 ea 57 fc bc 0c 45 ca bd 26 6c a3 bd c7 42 83 bd
       -0.03080364 -0.09876451 -0.07979612 -0.06409221
0002d0 c0 33 3c bc 9b c1 28 bd 83 ee ba 3d e6 7d 09 be
       -0.011486948 -0.04120026 0.09127524 -0.13426933
0002e0 f9 c9 01 3e b8 95 f8 3d 53 0e d7 bd f7 e1 23 3d
       0.12674703 0.121379316 -0.10500779 0.04001042
0002f0 c6 36 73 bd 10 7d f0 3d 00 f2 0f be ff c8 6f 3d
       -0.059378408 0.11742604 -0.1405716 0.058541294
000300 1e da 02 3e 73 cc 93 bd da fb 17 3d 99 45 c4 3d
       0.12778518 -0.0721673 0.03710542 0.09583587
000310 fa db a1 3d 6d 50 f4 bd ae 19 8a 3c 2d 6c 02 be
       0.07903285 -0.119294025 0.016857948 -0.12736578
000320 b6 24 e5 bc fd f8 f4 3d 02 56 01 be 9d 24 80 bd
       -0.027971607 0.11961553 -0.12630466 -0.062569834
000330 75 b5 ec bd 0b 5c 3e bd 6a d0 be 3d d4 1e 61 3c
       -0.11558048 -0.046474498 0.093170956 0.01374026
000340 d0 7c b1 3d 08 34 04 be 8d 81 ad bd d1 95 ef bd
       0.08666384 -0.12910473 -0.084719755 -0.11698497
000350 bc a0 95 3d 82 06 0c be 46 76 04 3e 58 e4 87 3c
       0.07306048 -0.13674358 0.12935743 0.016588375
000360 77 b3 a7 bd bf 2f e1 3c 51 63 a4 bd c3 0b 0b bd
       -0.08188527 0.027488587 -0.080267556 -0.033946764
000370 72 7e 96 3d 00 d5 0d 3e 1a 22 3d bd 03 74 cd 3d
       0.07348336 0.13850784 -0.0461751 0.10031893
000380 4c ca 81 3c a3 a5 98 3d e1 29 11 bd 3b 9a 38 bd
       0.015843533 0.07453468 -0.03544033 -0.04506896
000390 0e 9f 97 bc 8c 3e 80 3d ef 25 e3 3d 6a bc 1e bd
       -0.01850846 0.0626193 0.1109122 -0.038753904
0003a0 4d 52 e1 bd 0b c3 2b 3c 42 35 83 3d a9 56 91 bc
       -0.11002026 0.010483514 0.064066425 -0.017741518
0003b0 89 6a 4f 3d 53 79 af 3c 67 d4 ae 3d ce 1a c6 bd
       0.05063871 0.021420157 0.08536606 -0.09673081
0003c0 d3 c1 21 3d a6 8e 2c 3d 19 51 c9 bd 02 44 15 3e
       0.039491486 0.042128228 -0.09829921 0.14576724
0003d0 d3 46 5b bd f5 20 c3 bd d4 05 05 39 10 0c 52 3d
       -0.05353434 -0.095277704 0.0001268604 0.051281035
0003e0 33 b6 f0 3b d2 af 0a be 4e df bc bb 18 a3 a5 bd
       0.0073459386 -0.13543633 -0.0057639247 -0.08087748
0003f0 ff 6d b0 3d 22 2e e7 bd b4 94 ab 3c 4b b0 d3 3b
       0.0861473 -0.11288096 0.02094493 0.0064602247

bias_ih_l0 f4 [50]
000000 ea f2 08 3e de f6 4e bc 16 c3 5c bd 18 b9 e9 3d
       0.13373914 -0.0126321 -0.053896986 0.11412257
000010 d3 24 81 3d 29 1d 5c 3d 6a b0 39 3d 92 e3 c2 bd
       0.06305852 0.053738747 0.045334257 -0.09516062
000020 29 d1 3f 3d 5a 09 e5 bd da a4 a2 3d 4c cf b8 3d
       0.04683033 -0.11183424 0.07941599 0.09023914
000030 bf d3 c9 3c 59 40 a6 bd b1 2f 72 3d f0 96 b3 bd
       0.024637101 -0.08117742 0.059127513 -0.087690234
000040 bc c6 5a 3c db b4 b3 3d cb b0 ed bc 9e 0a 0a 3e
       0.013353046 0.0877473 -0.029014966 0.13480613
000050 a7 4e eb 3d 42 ea ef bd 35 9e 0d 3d 24 d1 9e bc
       0.11489611 -0.11714603 0.034574706 -0.019386835
000060 05 33 83 3c 0a 56 7e 3a 29 e5 b9 3c 5f 33 b9 bd
       0.016015539 0.0009702152 0.02269228 -0.090430014
000070 50 af cd bd 01 28 ad bc 8b f8 98 bd e5 e5 ee bc
       -0.10043204 -0.02113724 -0.07469281 -0.029162357
000080 d0 3b 04 be 60 0b 10 bd e9 6a 91 bd 17 ed 99 bd
       -0.12913442 -0.035167098 -0.071004696 -0.075159244
000090 95 65 e6 3c 8d eb 01 3e 71 74 f8 3d 59 13 43 bc
       0.02812461 0.12687512 0.121315844 -0.011906468
0000a0 c3 71 8f bd 7f 7e ec 3d ed 4a 84 bd 61 f9 14 3e
       -0.0700412 0.11547565 -0.064596035 0.14548256
0000b0 e3 49 a5 3d e9 5d 62 3d d3 de ce bd ee f8 a6 bd
       0.080707334 0.05526534 -0.10101094 -0.08152948
0000c0 c8 ed e2 bd 95 58 30 3d
       -0.110805094 0.04305323

bias_hh_l0 f4 [50]
000000 7b 98 e3 3d 45 6f 25 3d 33 d1 c2 bd 73 6d b1 bd
       0.11113068 0.040389318 -0.09512558 -0.08663454
000010 b5 de e0 3d 48 22 8f 3d 29 61 9a bd 9d e6 97 bc
       0.10979978 0.069889605 -0.07538063 -0.018542582
000020 5b 6e d2 3b ac e1 5f bd 51 e1 b1 bc 25 7b 05 be
       0.006421847 -0.054658577 -0.021713885 -0.13035257
000030 60 a6 ba 3d 28 99 df bb da f3 00 be f8 92 05 be
       0.09113765 -0.0068236776 -0.12593022 -0.13044345
000040 4c 29 d9 bd 12 21 b6 3d 2c 55 ff bd 3b fd 49 3d
       -0.1060358 0.088930264 -0.12467417 0.049313765
000050 1e 38 a6 bd 80 b6 af bd 0a 88 e2 bd a1 a3 02 be
       -0.08116172 -0.08579731 -0.11061104 -0.12757732
000060 0c f7 dd bd bb 77 ff bd 96 9e 7d bd 49 d8 dc bd
       -0.10838136 -0.12474009 -0.061918817 -0.107834406
000070 96 00 d1 bd 52 8f 52 3c 09 f0 94 3d c5 50 ab 3d
       -0.1020519 0.012851553 0.072723456 0.08365015
000080 95 08 8d 3a 59 37 25 3d 50 22 40 bc 3a 26 b7 bd
       0.0010760004 0.040335987 -0.011726931 -0.08942838
000090 80 03 0b be 36 ad 9a bd 20 b8 0e be c0 71 06 3e
       -0.13575554 -0.075525686 -0.13937426 0.1312933
0000a0 64 3a bb 3c a8 9d 30 3d 10 d7 a1 bd 6e 5e d1 bc
       0.022854991 0.043119103 -0.07902348 -0.025557723
0000b0 f5 ae 3d bd d4 3d cb bc 21 84 12 3e f1 24 59 3c
       -0.04630943 -0.024809755 0.14308216 0.013253436
0000c0 c2 08 c6 3d 76 96 60 bc
       0.09669639 -0.013707748

weight_ih_l0 f4 [50, 50]
000000 51 f4 dd bd 19 3f ec bd d5 fb 0f bc 56 5d fd bd
       -0.10837615 -0.115354724 -0.008788069 -0.12371318
000010 99 05 a6 bd da e8 c9 bd 3c ab 03 3d 90 d9 c7 3b
       -0.081065364 -0.09858866 0.032145724 0.0060989335
000020 a5 b3 b0 3d 2d 30 a1 3d 32 28 e0 3a c1 5f ca 3d
       0.086280145 0.07870517 0.0017101823 0.09881545
000030 71 c7 f8 3d ca 4e 00 be 5b 34 44 bd 32 ff a8 3d
       0.121474154 -0.12530056 -0.047901493 0.082518
000040 d8 56 d2 bd 2b f3 a4 bd b0 f1 b7 3b da 9c 69 3d
       -0.102704704 -0.08054193 0.005613528 0.05703435
000050 17 d9 b6 bd 3e a4 93 bd c4 d6 a3 3d b0 d2 10 bd
       -0.08928125 -0.07209061 0.07999948 -0.035357177
000060 c4 e6 b1 3d 78 3c 01 be c3 e0 e4 3d e1 bb cf bd
       0.08686593 -0.12620723 0.111756824 -0.10143257
000070 e1 95 1b 3d 70 0b 90 bd 33 fb fc bd c3 72 c8 3d
       0.037984733 -0.070334315 -0.123526 0.09787514
000080 4b 08 e2 bd 72 b3 c5 bd 2d 52 7f 3d 7d 45 bf 3d
       -0.11036738 -0.09653367 0.06233423 0.09339426
000090 a7 a4 a4 3d bd 06 b1 3d 2a b2 b3 3d ac 25 60 3d
       0.080392174 0.08643863 0.087742165 0.054723427
0000a0 d2 c2 a2 bd 1a 46 5e bd 9a 46 08 bd 69 bc fd bc
       -0.07947315 -0.054266073 -0.033270456 -0.03097363
0000b0 21 b8 c8 3d 0a 72 99 bc df 14 a5 3d b5 57 a2 bd
       0.09800745 -0.018731136 0.080606215 -0.07926885
0000c0 b7 72 53 bd a3 f2 f4 bd 87 5c 0c bd 38 b0 9c bd
       -0.051623072 -0.11960342 -0.03426793 -0.076507986
0000d0 0a 53 6d bd 3a ff 92 3d 73 e6 5a 3d 01 ec 28 3d
       -0.05794052 0.07177587 0.05344243 0.041240696
0000e0 cb 0c 09 3e 2a 3b 8c bd 6a 58 68 bd 27 bc c0 3d
       0.13383786 -0.06847222 -0.056724943 0.09410887
0000f0 75 e1 81 bd 1b a3 9b 3d f9 8b 39 bd 52 7f d0 3d
       -0.06341831 0.07599469 -0.045299504 0.101805344
000100 20 17 a6 3c 0e 1f 40 bd 80 bc 9a bd 45 86 2a bd
       0.020274699 -0.046904616 -0.07555485 -0.041631956
000110 91 4c b9 3d 54 74 dd 3c c2 04 ea bd a9 90 2c bb
       0.09047807 0.027033009 -0.11426689 -0.0026331341
000120 02 e6 d4 bc 9d 6b b5 3d ca 62 9c bd fc 6d a2 3b
       -0.025988583 0.08858416 -0.0763603 0.004956959
000130 91 d8 1f 3d db cb e9 bd 96 1e a8 bd d6 47 8f bd
       0.039024893 -0.114158355 -0.08208959 -0.069961235
000140 fd d3 f0 3d 78 90 d1 bd 7b ab 0d 3e ef 59 9b 3d
       0.117591836 -0.10232633 0.13834946 0.07585513
000150 c2 97 dd 3d 82 7a b3 3d e4 37 88 bd fb 6a 4f 3d
       0.10819961 0.08763601 -0.06651285 0.050639134
000160 ca 41 f3 3d 6f b4 4c bc 7b 22 8b bd 4c ab 9d bc
       0.11877783 -0.012494191 -0.06793686 -0.01924672
000170 1b 5c aa bd a2 a3 b3 3d 02 20 11 bd 2f 39 42 bd
       -0.08318349 0.08771445 -0.035430916 -0.047417816
000180 c8 7d 73 bd 8a bd 19 3e a9 04 c1 bd d7 98 00 be
       -0.059446126 0.1501371 -0.09424717 -0.12558304
000190 99 29 17 bd 36 22 82 bc ac 24 1b 3d 2c 38 b9 3d
       -0.036904905 -0.015885454 0.03787677 0.09043917
0001a0 53 ed 89 3b da 24 8e 3d 5c c0 05 3e 7f 70 a8 bd
       0.0042091995 0.06940623 0.1306166 -0.08224582
0001b0 ca 46 98 3d 05 a2 94 bd 17 52 73 bd 36 06 7f bb
       0.07435377 -0.07257465 -0.05940446 -0.0038913614
0001c0 ec 1c fb 3c c6 73 57 3d ae ae 99 3b 97 9b f6 bd
       0.03065344 0.052600645 0.004690013 -0.12041395
0001d0 77 d5 ca 3c 1e 46 6b 3d 4b 5c a3 bd e8 07 fd 3c
       0.024759991 0.057439916 -0.07976588 0.030887559
0001e0 de 4d 82 3d ca a0 0c 3e 45 f1 51 bd 6a b7 88 bd
       0.06362508 0.13733211 -0.051255483 -0.066756085
0001f0 68 08 83 3c 3c 4f 7d 3d e2 2d ca 3b c7 28 7c bd
       0.01599522 0.061843142 0.0061700204 -0.061562326
000200 44 df 02 3d 41 c8 c2 bb 15 6c af 3d 0f b4 c2 bd
       0.031951204 -0.0059442823 0.08565537 -0.09507
000210 fd 94 a5 3d 4c 66 9d 3d c3 e0 54 3d 09 27 a9 3d
       0.08085058 0.07685527 0.051972162 0.082593985
000220 9a 2e f8 bc 4b 8c d8 3d 0c 0d 41 3a 92 e4 81 bc
       -0.030295659 0.10573634 0.000736431 -0.015856061
000230 85 1c ac 3d 47 3a 84 bd 36 8c dc 3d a2 78 de bc
       0.08403877 -0.06456428 0.107689306 -0.027157132
000240 e4 c5 2f 3d 79 ca 1a bd 4f 14 09 be 44 3f 05 bd
       0.042913333 -0.03779075 -0.13386653 -0.032531038
000250 9a 34 eb bd ba 16 11 3e a3 27 37 3c 36 d7 ec 3d
       -0.11484642 0.14168826 0.011178884 0.11564486
000260 05 57 87 bd 0d 6f ce 3d fd c5 b5 3d 81 8b b0 bd
       -0.066083945 0.10079775 0.08875654 -0.08620358
000270 d7 e9 df 3d a1 d6 23 3d ad c6 27 3d 2b f3 0f bd
       0.10933273 0.039999608 0.040960956 -0.035144012
000280 8b 98 0d 3e 86 31 0b 3e c5 ad 89 bc 7e 07 d1 3d
       0.13827722 0.1359311 -0.016806493 0.10206507
000290 b7 48 28 bd d1 84 0e be 5e 27 de bd d3 5a 01 bd
       -0.04108497 -0.13917853 -0.108473524 -0.031580757
0002a0 8f 2d f7 bd 11 29 1c 3c 2d 00 b1 3d 11 d0 5d bb
       -0.120692365 0.009531275 0.08642612 -0.003384594
0002b0 8d 05 b0 3d 93 46 3a 3c 82 7f 03 3e 7b 33 fe 3b
       0.08594809 0.011369365 0.12841609 0.007757602
0002c0 ca 0c 73 bd 59 41 2b bd ae e8 81 3d 6a a2 9e 3c
       -0.05933837 -0.041810367 0.06343208 0.019364554
0002d0 c1 52 a5 3d 42 58 31 3c 32 79 25 bd cb b7 8e bc
       0.08072425 0.010824265 -0.040398784 -0.017421624
0002e0 f6 65 d5 3d 0d c2 85 3c d0 49 c1 bd d7 f4 7d 3d
       0.10419838 0.016327882 -0.09437907 0.062001076
0002f0 4e ca fc bd 73 b4 02 3e ad cf 14 3d c5 a1 05 be
       -0.12343274 0.12764148 0.036330868 -0.13049991
000300 ba d4 07 be f6 01 ae bd 96 5f 3c 3b cd f9 30 3d
       -0.13264742 -0.08496468 0.0028743497 0.04320698
000310 e2 2a 03 3e 31 d5 10 3e 23 22 02 3d fa 7e c4 3c
       0.12809327 0.14143826 0.031770837 0.023986328
000320 d5 f3 0b 3d a6 8f a9 bd 88 bb 79 3d 8a 15 0d 3e
       0.034168083 -0.08279352 0.06096986 0.13777748
000330 06 46 6e bd ad 1a 90 bd 70 0d 57 bd 04 50 c7 bd
       -0.05817225 -0.07036338 -0.05250305 -0.09732059
000340 a7 14 8d bc 04 09 9c bd 8e 72 ed 3c 94 71 90 bd
       -0.017221762 -0.07618907 0.028985288 -0.07052913
000350 32 a3 c6 bd 46 83 38 3d d3 69 f1 bd 8e 32 b9 3b
       -0.09699096 0.045047067 -0.117877625 0.0056517785
000360 3f 36 6f bd 34 5d cb bd 39 31 a9 3d 0f 88 03 3e
       -0.058401342 -0.099298865 0.082613416 0.12844871
000370 68 fd d3 3d ef 06 a3 3d f2 dd 9b bd 1e 40 4a 3a
       0.10351068 0.07960307 -0.07610692 0.00077152427
000380 c2 3b 00 bd 56 18 c0 3d 88 47 4b 3d 30 24 21 3b
       -0.03130699 0.09379642 0.049628764 0.002458822
000390 38 a0 db bd e6 e1 10 bb ad 5b 9a bd bd 2e 87 3b
       -0.10723919 -0.0022107302 -0.07537017 0.0041254447
0003a0 90 f5 16 3c 1c 6f 29 3c b4 c3 ad 3d 32 95 01 be
       0.00921382 0.010341432 0.08484593 -0.1265457
0003b0 4e fd 31 3d 45 a1 f6 3d 46 b0 d1 3d bf 17 7f bd
       0.04345446 0.120424785 0.102386996 -0.062278505
0003c0 aa ea 48 3c cf fe 20 3e f2 a4 38 3c d5 c6 2e 3d
       0.0122629795 0.15722202 0.011269795 0.04267009
0003d0 af 37 c0 3d b1 55 ed bd 6c df 23 3d b5 a4 bd 3d
       0.09385621 -0.1158861 0.040007994 0.09259931
0003e0 03 f1 a2 3d 8c de 00 bc 44 61 06 3e be 40 cc 3d
       0.079561256 -0.007865559 0.13123041 0.09973286
0003f0 6e 04 ca bc fa a5 92 bd 35 88 0f bd 6d d2 de 3d
       -0.024660315 -0.07160564 -0.035042007 0.10879979

weight_hh_l0 f4 [50, 50]
000000 c9 26 fc 3c ef fa 78 3c fb 16 06 be 1b a8 29 bd
       0.030780213 0.015196546 -0.13094704 -0.041420083
000010 54 22 98 bd 19 0b 94 bd ef 5b 23 bd f0 07 73 3d
       -0.074284226 -0.07228679 -0.039882597 0.05933374
000020 3c 34 05 be a7 80 9c 3c b1 17 cf bd 62 9f c2 3d
       -0.13008207 0.019104315 -0.10111941 0.09503056
000030 38 ae 2b 3d a8 78 90 bd 2c f3 f6 3d 58 dd d8 3c
       0.041914195 -0.07054263 0.120581 0.026472732
000040 21 9c 10 3d 5f 26 0a 3c 31 64 63 bd 8c a2 29 3d
       0.035305146 0.008432 -0.05551547 0.041414782
000050 1c 5c b0 3c d2 c5 73 3d 6e 2b 1c bd 54 74 6b 3c
       0.021528296 0.059514828 -0.038127355 0.0143709965
000060 f5 be 97 3d 95 3f 81 3d 34 ad 8e bd 51 bf ab bc
       0.07409469 0.063109554 -0.069666296 -0.02096525
000070 8a f7 20 bb c0 62 99 bb de c2 2f 3d 93 87 4c 3d
       -0.0024561607 -0.0046809614 0.04291045 0.04993398
000080 ab 24 64 3d 8f 0c 80 3d 2f cf 02 be 39 d5 69 bd
       0.05569903 0.06252395 -0.12774347 -0.05708811
000090 62 ce cb 3d 5a 6e e2 3d d3 a9 b2 bc 5a 65 4a bc
       0.09951474 0.11056204 -0.021809494 -0.012353266
0000a0 bc 37 04 3e 59 fb 93 bc 15 dc d8 bd f5 0b ae 3d
       0.12911886 -0.018064188 -0.10588852 0.084983744
0000b0 2f e6 71 3d 43 1e 9d 3d 62 5f d1 3d 8c 2d a6 3d
       0.05905741 0.076717876 0.10223271 0.08114156
0000c0 d7 3e 62 bd 8c 22 fd bc ff 5e fe 3d 9c cf 5a ba
       -0.05523571 -0.030900262 0.12420463 -0.0008346976
0000d0 c2 e1 16 bc 9e f6 13 3e 2c 83 47 bc 3b e6 60 bd
       -0.009209098 0.14449546 -0.01217727 -0.054907065
0000e0 f8 07 64 3d 22 25 9c 3d 68 1e 60 3d d1 65 e3 3d
       0.055671662 0.0762427 0.054716498 0.11103404
0000f0 3c 5c ee 3d c6 23 d6 bd a1 05 e4 3c 51 e8 94 bd
       0.11638686 -0.10456042 0.027834715 -0.07270873
000100 08 af 9a bc a2 b8 3a 3d a2 a4 0e be a7 bb 79 bc
       -0.01888229 0.045586236 -0.1392999 -0.015242494
000110 dd 30 09 3e d8 0f 80 3d 94 35 0c 3d e6 9c 8d 3c
       0.13397546 0.06253022 0.034230784 0.017286729
000120 56 44 b5 3d 46 a6 ea 3d 95 68 97 bd de f9 36 3d
       0.08850925 0.114574954 -0.07392994 0.044671886
000130 f3 13 df bd 47 2f be 3b 15 76 bf bc a4 8a 05 3e
       -0.10892477 0.0058039757 -0.023371736 0.13041168
000140 62 0c 00 be a1 8a c5 3c 35 bb 44 bc 82 8c 90 3d
       -0.12504724 0.024113955 -0.012007524 0.0705805
000150 b2 ea 4a bd 7f 97 10 3e 18 f5 a3 bd c6 bf cf 3d
       -0.04954023 0.14120291 -0.08005732 0.10144
000160 2f 17 d3 3d 92 18 0a 3d 0f bb 6c bd f5 e0 4d 3d
       0.10307156 0.03371484 -0.05779558 0.050263364
000170 15 a1 d1 3c b7 0b c0 3d c5 e8 4b bd 68 91 05 3e
       0.025589505 0.093772344 -0.049782533 0.1304375
000180 f1 36 fd 3c ad 5e 3f bd f8 9c 04 3d 8c e6 a0 3c
       0.030909987 -0.04672115 0.03237626 0.019641183
000190 35 49 8e 3d ab fe f6 3d e9 56 eb 3d 47 48 99 bc
       0.06947557 0.12060293 0.11491186 -0.018711222
0001a0 9d ba 02 be c6 f4 c6 3d 52 15 62 3d 85 11 ad 3d
       -0.127665 0.097146556 0.055196114 0.08450607
0001b0 ff ae 09 3e 03 1c 94 3d 57 61 48 3d 70 d9 31 bc
       0.13445662 0.07231905 0.048920956 -0.010855064
0001c0 93 79 8d bd d5 ea eb 3d 0a e1 3c bb a4 49 b9 3d
       -0.06907954 0.115194 -0.0028820657 0.09047249
0001d0 86 9c 04 3c 14 52 2d 3d 6a 8d bc bc c3 27 aa bc
       0.008093959 0.042314604 -0.02301665 -0.020770913
0001e0 cc 37 9a 3d 90 92 83 bb ec a2 b9 3d 93 d6 9f 3d
       0.07530174 -0.0040152743 0.09064278 0.07804599
0001f0 de b0 89 3d 1f 0c 0b 3e df 82 97 3c d8 41 d5 bd
       0.06723188 0.13578843 0.018495021 -0.10412949
000200 72 63 c1 3a 88 8f 7b bd bd 35 11 bd 52 e6 82 bd
       0.0014754368 -0.06141618 -0.03545164 -0.06391586
000210 8c 8b bb 3d 73 96 75 bd b4 ca f2 bb 97 51 00 be
       0.09157476 -0.059957933 -0.007409418 -0.12531124
000220 56 7e cc bd 18 42 77 bd e7 9c 16 be 6f 6b ea bd
       -0.09985034 -0.060365766 -0.14708291 -0.114462726
000230 64 fd 16 3d fe 40 e2 bd c8 89 a6 bd d5 b7 a8 bd
       0.036862746 -0.110475525 -0.081317484 -0.08238188
000240 59 a4 05 be 1f b7 c6 3c 36 4f ca bd 65 db fb 3d
       -0.13050975 0.02425724 -0.098783895 0.122977056
000250 8b 70 dc 3d 9e d7 de bc de 1b d5 3d c2 fd bd 3a
       0.10763653 -0.027202424 0.10405706 0.0014495181
000260 08 4b d4 bd b5 45 48 3d a8 b3 cd bd 08 85 3a bd
       -0.103658736 0.048894603 -0.10044032 -0.045537025
000270 85 1f 99 3c 2a 31 58 3d ee 2a 60 3d bc 32 9c bd
       0.018691787 0.05278126 0.05472844 -0.07626864
000280 d8 10 81 3d c4 6a 65 3d ab 7d 22 bd b9 c9 e1 bd
       0.06302041 0.056010023 -0.039670628 -0.11024804
000290 79 35 9c bd d9 00 58 bc b3 db fe 3c b4 2d 05 be
       -0.076273866 -0.013183796 0.03111062 -0.13005716
0002a0 49 7b 9d bd c5 6a 84 3c ac bf df bd 2a 80 ca 3c
       -0.076895304 0.016164193 -0.109252304 0.024719317
0002b0 6a 60 55 3d 77 fe 94 bb cf a6 19 3d f3 5d b4 3d
       0.0520939 -0.004546936 0.037512597 0.08806982
0002c0 ec d8 cc 3d 51 40 ea bd 3f 83 d7 bd af f4 0f be
       0.10002312 -0.11438049 -0.1052308 -0.14058183
0002d0 ac 4b 58 bc 28 9b b8 3d de a5 cd 3c 1f 93 be bd
       -0.013201635 0.09013969 0.025103506 -0.09305405
0002e0 af 77 f1 bd 59 d5 f1 3d 8f 46 30 bc dd 08 87 3d
       -0.11790406 0.11808271 -0.01075901 0.065934874
0002f0 5a d5 0d bd a9 c5 c7 3d b3 e9 0c be 47 a6 37 bc
       -0.034627296 0.097544976 -0.13761024 -0.011209077
000300 e5 73 0a 3e ac 1e 08 be 4d 34 cd 3c 85 7b 03 3d
       0.13520773 -0.1329295 0.025049353 0.03210022
000310 cd 42 a5 3b 51 3f 57 bd e9 74 0f 3e 42 b8 df 3d
       0.0050433637 -0.052550618 0.14009441 0.10923816
000320 fb 60 a1 bd 4b 07 08 be f5 3c 0a 3e 14 91 2b bd
       -0.07879826 -0.13284032 0.13499816 -0.041886404
000330 58 79 c8 3d 2a fb d6 bb 50 59 05 3e 86 01 bd bc
       0.097887695 -0.006560703 0.13022351 -0.023072015
000340 05 42 98 3d 5c c8 43 bd 25 50 6f bd fe 83 ca bc
       0.07434467 -0.0477985 -0.05842604 -0.024721142
000350 82 ce b3 bc 2d 2b 00 bd c8 a3 07 3c e3 13 d5 bd
       -0.021949057 -0.031291176 0.008278795 -0.10404184
000360 bb 4b aa 3d 91 97 ae 3d 58 f1 bc 3d c9 85 2e 3c
       0.08315226 0.08525003 0.0922572 0.010652014
000370 8e 3f 86 3b 63 53 89 3c 94 6d 77 bd 5c 08 e4 bd
       0.004096932 0.016763395 -0.060407236 -0.11134407
000380 35 2b a8 3d 96 dd af 3c a5 71 0b bd f3 f0 d5 3c
       0.08211366 0.021467965 -0.034043927 0.02611587
000390 f7 cc ae 3d ac fc 1f bd 58 bf 85 3d 49 9a eb bd
       0.08535188 -0.039059326 0.065306365 -0.11504037
0003a0 f1 c8 a3 bd c3 ea 80 3c ac 1e 08 bc 37 6d 02 be
       -0.07997311 0.015736943 -0.008308094 -0.12736975
0003b0 bd c0 07 be 14 8f ac 3d 93 d9 9b bd 20 25 d3 3d
       -0.13257118 0.084257275 -0.07609858 0.103098154
0003c0 a4 d8 91 3d be 59 a9 3d d2 78 f9 3d c5 07 1a bd
       0.07121399 0.0826907 0.12181248 -0.037605066
0003d0 02 93 8e bc 58 9e 0c be c3 c3 d0 bd d6 f7 92 3d
       -0.017404083 -0.13732278 -0.101935886 0.07176177
0003e0 ae 91 fb bd 2d c4 3e 3d 70 2c 4a 3d bb 8d b9 bd
       -0.122836456 0.046573807 0.049358785 -0.09060236
0003f0 4c 64 f4 bd aa 6b d8 3d 46 58 a0 3d 8e 88 ba 3d
       -0.119331926 0.1056741 0.07829337 0.09108077

bias_ih_l0 f4 [50]
000000 3b c0 03 be 97 c0 85 3d 35 03 a5 3d 35 ff 91 3d
       -0.12866299 0.06530874 0.08057252 0.07128755
000010 21 6a e5 3d 1e 44 06 bd 03 96 ba bd f7 5d 8d 3d
       0.11201883 -0.032779805 -0.09110644 0.06902688
000020 fb 99 a4 bd 30 3b 82 3d de 9b ec 3d 35 07 a7 bd
       -0.08037182 0.06358945 0.11553167 -0.081556715
000030 f4 1d a2 3d 37 07 04 be b0 08 e2 3d 07 9d c8 bc
       0.07915869 -0.12893377 0.11036813 -0.024488939
000040 b3 48 0d be 0e e5 27 3d 65 3f 04 3e 53 6c d0 3d
       -0.13797264 0.040989928 0.12914808 0.10176911
000050 bc 31 ef 3d 71 52 0b be be 40 ce bc 0e f6 f5 3d
       0.11679408 -0.13605668 -0.025177356 0.12009822
000060 9a 6d 01 3d 98 05 87 3d 74 9d 91 3c 4e a9 08 be
       0.031598665 0.06592864 0.017775275 -0.13345835
000070 65 20 84 bb ab 55 03 be 46 24 b7 bd ea 13 27 bc
       -0.004032182 -0.12825648 -0.089424655 -0.010197619
000080 8f 40 21 bd 9a b2 2c bd 70 91 01 3e c9 35 a8 3d
       -0.03936821 -0.042162515 0.12653136 0.08213384
000090 63 9c f4 bc 9a 54 a7 3d 90 d3 ab bd bd 67 02 3c
       -0.029859727 0.08170433 -0.08389962 0.007959303
0000a0 10 b6 b1 3d 3d 77 2a 3d 52 1f a1 bd 03 88 80 bd
       0.08677304 0.04161762 -0.07867302 -0.06275942
0000b0 9e 67 09 3e cd bc cd bd cf 51 de 3c 70 5b d6 bc
       0.13418433 -0.100457765 0.027138619 -0.026166648
0000c0 06 16 ec 3c a8 1e 7a ba
       0.028819095 -0.00095413113

bias_hh_l0 f4 [50]
000000 ee 3b 52 bd ab 1f 4f 3d e5 67 b6 3d c1 19 6f bd
       -0.051326685 0.05056731 0.08906535 -0.05837417
000010 0c 1d 7f bd 7d 53 31 bd 61 3e f9 bd 1c f2 bb 3d
       -0.06228356 -0.04329251 -0.12170101 0.09177038
000020 ee ea 6a 3d 91 00 09 3e e0 51 24 3c 07 41 6a bd
       0.057352953 0.13379122 0.010029286 -0.05719092
000030 ff 48 e4 bd 24 7d 39 3d 02 60 0c 3e e9 0d 4c bd
       -0.111467354 0.04528536 0.13708499 -0.049817953
000040 82 cc d4 3d ea b4 8d 3d 8b 50 fe 3d 3e 4b f3 bd
       0.10390569 0.06919272 0.12417706 -0.11879586
000050 c2 0b 44 bd a8 9a 4a bc 5d b1 03 bc c0 79 26 3d
       -0.047862776 -0.0123659745 -0.008037892 0.040643454
000060 1e f9 c5 3d 44 fa f1 bd 21 20 12 3d 39 d7 10 be
       0.09666656 -0.118153125 0.03567517 -0.14144601
000070 22 f9 fa bd e6 9a 3c bd 8d ed 93 3c 2d 0b ac bd
       -0.122545496 -0.04604616 0.018057609 -0.08400569
000080 2a f2 65 bd b0 9e ef 3d 3f 22 fa 3d 52 7c ef 3d
       -0.05613915 0.11700189 0.12213563 0.11693634
000090 fe 46 24 bd 25 bb 03 3e 6e 40 0f 3e 5a 39 54 3c
       -0.040106766 0.12864359 0.13989422 0.012953127
0000a0 e2 3e d3 bd b9 be 25 bd 3d 69 b7 bd a6 8f 8b bd
       -0.10314728 -0.04046509 -0.089556195 -0.06814508
0000b0 30 15 a5 3c 0d 42 26 3d d4 aa 48 bd 5c d8 37 3d
       0.020151705 0.040590335 -0.04899104 0.04488407
0000c0 e5 7b 36 3d 7b 0d e3 bd
       0.04455175 -0.110865556

weight f4 [2, 50]
000000 97 20 9f bc 1d bc f6 3d d9 eb e7 bd da 32 c7 3d
       -0.01942472 0.120475985 -0.11324281 0.09726496
000010 fb 99 56 3c f2 88 56 bd e1 cc 19 3d 9e 69 b5 bc
       0.013098235 -0.052376695 0.037548903 -0.022145089
000020 d7 63 e4 bc c8 11 50 bd e9 b0 de 3d 06 07 ae 37
       -0.027879639 -0.050798208 0.10873587 2.0745687e-05
000030 0c d9 09 be 4f af e3 3b 2a 3a f5 3d 7a e7 81 bd
       -0.13461703 0.0069483886 0.119739845 -0.06342979
000040 0d 69 b2 bd 62 a5 7a bd 4b 23 c5 bd 03 10 4b 3d
       -0.08711443 -0.061192878 -0.09625872 0.049575817
000050 f4 5f e8 bd 61 b1 ed bd 16 28 7b 3d 5e 3c 62 3d
       -0.113464266 -0.11606098 0.061317526 0.055233352
000060 55 a9 2b bd f9 81 4e bc bf f8 90 bb 39 45 9a 3d
       -0.041909534 -0.01260423 -0.004424184 0.075327344
000070 0d ed b8 bd 55 f2 c0 ba 36 66 f2 bd 7b 14 aa bd
       -0.09029589 -0.0014720658 -0.118359014 -0.083046876
000080 7c 5d 8a bd 2c 2d f7 bd 37 2a 1a be e0 da 96 3d
       -0.06756112 -0.12069163 -0.15055166 0.07365966
000090 f2 be a6 bd f7 a3 e1 3d d2 9d 15 3e 98 7f d7 3d
       -0.08141889 0.11017602 0.14610985 0.105223835
0000a0 13 07 c0 3b c4 29 d0 bd 80 0c 08 be b8 0d 67 3d
       0.0058602183 -0.10164216 -0.13286018 0.056409568
0000b0 f6 24 ce 3d a6 60 60 3d 53 19 43 bc 32 70 65 bd
       0.100656435 0.05477967 -0.011907893 -0.0560152
0000c0 70 08 f8 3d ec 9c c4 bd f9 f6 28 3d f8 95 92 bc
       0.12110984 -0.09600243 0.041251156 -0.017893776
0000d0 91 47 23 3c 2d 9c 0b 3d a2 de 8f bd af f6 f1 bd
       0.009965793 0.034084488 -0.07024886 -0.11814629
0000e0 3f 08 a5 3c 40 de e0 3d a7 e2 10 bd c3 e9 11 3c
       0.020145534 0.10979891 -0.035372403 0.008905831
0000f0 cd 4e d5 bc 72 1d c8 bd 82 36 06 bb e6 82 db 3d
       -0.026038552 -0.09771241 -0.0020479267 0.10718326
000100 be cd 6d 3d 66 a6 9d 3d a4 bb 08 be a2 9f ea bd
       0.05805754 0.076977536 -0.13352829 -0.11456229
000110 d5 de b5 3d 19 17 14 3e cd 9d aa bd fe fa ef 3d
       0.088803925 0.14461936 -0.08330879 0.11717795
000120 aa 0c fb 3c 28 59 ca bd 03 7b d9 bd 4c 49 75 bb
       0.030645687 -0.098802865 -0.10619166 -0.0037427722
000130 d9 1f 14 3e dc 12 f5 bd 14 fa fc bd 81 57 7d bd
       0.14465274 -0.11966488 -0.12352386 -0.06185103
000140 b5 8d ef 3d ef b5 1b be ab 54 97 3c b9 ab 8b bd
       0.1169695 -0.15206121 0.01847299 -0.06819863
000150 fb 66 5f bd f2 78 e7 bd a3 a6 2d 3d 90 38 b8 3d
       -0.05454157 -0.11302365 0.042395245 0.089951634
000160 f7 81 e0 3d 40 8b 0c 3e 2a 7c 56 bd 7e 1a 08 be
       0.10962289 0.13724995 -0.052364506 -0.13291356
000170 f3 30 90 3d be 1d ec 3d 9b c2 0f be 3e db 0e 3e
       0.07040586 0.1152911 -0.1403908 0.13950822
000180 df c1 8d bd 06 6d 83 bc 1f 10 66 3d b0 6b 3d bd
       -0.069217436 -0.016043197 0.056167718 -0.046245277

bias f4 [2]
000000 33 7c d3 3d f2 02 0b 3d
       0.103264235 0.033938356
