models/rnn_untrained_model.pth (torch, 58704 bytes, 14 tensors)

weight_ih_l0 f4 [50, 2]
000000 76 d5 c0 bd 75 d9 d5 bd 75 a1 83 bc d2 6e cd 3c
       -0.094157144 -0.10441867 -0.0160682 0.025077257
000010 3c 02 b1 3d c6 04 81 bd 60 83 11 3c 7b 28 f0 bd
       0.08643004 -0.062997386 0.00888142 -0.11726471
000020 a5 b2 9e 3c 36 14 45 bd 25 13 58 bd 2a c0 97 3d
       0.019372294 -0.048114978 -0.052752633 0.07409699
000030 df 96 cc bc 47 1d ab 3d a7 db 86 3d db a2 57 3d
       -0.024974285 0.083551936 0.06584864 0.052645545
000040 64 c3 98 bc 94 9b 0c be 72 65 f5 3d de 97 6e bd
       -0.018647857 -0.13731223 0.1198224 -0.0582503
000050 13 8c 04 ba 4f ae 0e ba 2d 5a 49 bd 6f cc ad 3c
       -0.0005056273 -0.0005442844 -0.049158264 0.021215646
000060 1b 47 af bd 0e f3 bc bd 0d 18 24 3d ca cd b2 3d
       -0.08558484 -0.092260465 0.040062 0.087306574
000070 e5 52 aa 3b de 1b a6 3d b2 f6 75 3d 18 75 dc 3c
       0.00519787 0.08110784 0.06004972 0.026911303
000080 93 bf 0d bd 72 77 a4 bd 5f 86 f4 bd 5f 25 39 bb
       -0.034606528 -0.08030595 -0.11939692 -0.0028251035
000090 8e bf a3 b9 c7 f1 0b bc cc 33 e1 bd b5 85 d7 3c
       -0.00031232502 -0.008541531 -0.109962076 0.026308874
0000a0 01 c9 57 3d b2 e7 eb bc d7 98 4d bd 46 a4 72 bd
       0.052681927 -0.028797004 -0.050194588 -0.059238695
0000b0 c5 da ae bd dc 0e 98 3d 9e a9 ae bd 76 58 cb bd
       -0.08537821 0.07424709 -0.08528446 -0.09928982
0000c0 19 d8 31 bd e6 2c d3 3d 7d f6 0b be 77 f2 d0 3d
       -0.043418977 0.10311298 -0.13668247 0.102024965
0000d0 ff 81 5e 3d 4e 28 0d bd 62 0c e6 bb 3b 0d a4 3d
       0.054323193 -0.034462266 -0.007020519 0.08010336
0000e0 38 62 aa bd f3 df cc bd b3 2d c0 3c 19 bc c7 bc
       -0.08319515 -0.100036524 0.023459291 -0.024381684
0000f0 ec 62 4f 3d 46 66 09 be 96 b9 50 bd 6e 61 83 3d
       0.05063145 -0.1341792 -0.05095824 0.064150676
000100 5d 1d 82 3d 5c 26 67 bd fe be 40 bd 3c c4 a0 bd
       0.06353257 -0.056433067 -0.047057144 -0.07849929
000110 85 f3 d6 3d 81 71 93 3d 77 1d 8f bb cb 01 59 3d
       0.104956664 0.071993835 -0.004367526 0.052980226
000120 e8 df 07 3e 97 59 da bd 4b 86 5e 3d c4 1b f4 3c
       0.13269007 -0.10661619 0.05432729 0.029798396
000130 54 a7 3a 3d 78 1b a7 bc e0 88 c5 bd 67 e6 ce 3c
       0.045569733 -0.02039884 -0.096452475 0.025256349
000140 53 11 0c 3e da c3 42 3d 0b a7 6f 3d 21 62 cd 3c
       0.13678484 0.04755006 0.058508914 0.025071206
000150 65 a4 8c 3d 1c 42 76 3d c6 6d e8 3d 6b d9 ae bd
       0.06867293 0.06012164 0.113490626 -0.08537563
000160 d5 c1 9c 3c f6 f5 f6 bd 5c 2f 37 3d 9c 83 0f 3e
       0.019135395 -0.12058632 0.0447229 0.14015049
000170 67 b6 08 3e e0 dc 97 3c 1e ae 07 3e 12 96 bb bd
       0.13350831 0.018537939 0.13250014 -0.09159483
000180 1c f0 55 3d 94 5b e3 bd a3 1a 88 bd d0 5d 86 bc
       0.05223094 -0.111014515 -0.066457056 -0.016402155

weight_hh_l0 f4 [50, 50]
000000 82 7f 18 bc 59 6d f6 3c 4d 13 bc 3d a3 da 46 3d
       -0.009307744 0.030081438 0.09183369 0.048548352
000010 86 98 c1 bd cc 2a 6e 3d 96 3d bd 3b 9a 3f c6 bc
       -0.0945292 0.058146283 0.005775164 -0.02420025
000020 a6 96 99 3d 3f e8 7f 3d c5 c5 da 3d 90 97 15 3d
       0.07499437 0.062477347 0.10682253 0.036521494
000030 14 8d 3f 3d e5 20 b3 bd d6 d3 33 bd d5 63 26 3d
       0.046765402 -0.087465085 -0.043903194 0.04062255
000040 16 ee a8 3c 96 51 df bb 5c e3 cf 3d 79 4d af bd
       0.02062134 -0.0068151457 0.10150787 -0.085596986
000050 b6 d8 a1 3d 55 15 d2 bd 31 77 8b bd af ae ed 3c
       0.079026625 -0.10257975 -0.06809843 0.02901396
000060 f5 f1 7e bb d3 09 bf bd 01 1b a0 bd bf c8 79 bd
       -0.0038901542 -0.09328046 -0.078176506 -0.060982462
000070 e3 e0 03 3e ca 6b fb bd 12 ed 9f 3d b2 9a 5a bb
       0.12878756 -0.122764185 0.078088894 -0.0033356366
000080 d0 25 fb bd a7 2f 08 be 03 21 b8 3b d1 cb ee bd
       -0.122630715 -0.13299428 0.0056191697 -0.11659969
000090 a6 53 7b bc e5 a1 14 bd 71 89 90 3d a4 e8 ed bd
       -0.015339768 -0.036287207 0.07057465 -0.11616638
0000a0 25 37 a3 bd 7e 15 30 bd 91 de c7 3d 16 a3 64 3d
       -0.07969502 -0.042989247 0.09759248 0.055819593
0000b0 77 3d da bd 9b 93 3d bd 53 c5 d0 3d 68 18 a0 bc
       -0.10656255 -0.046283346 0.101938866 -0.019542888
0000c0 6d c2 f0 3d c4 f3 22 bc 4d a2 f6 bd e4 d5 19 bd
       0.11755834 -0.009945814 -0.12042675 -0.037557498
0000d0 cc d7 0a be 50 9c 9c 3d d2 a3 f9 3c 3c 0f 90 3d
       -0.13558882 0.07647002 0.030473623 0.07034156
0000e0 f7 bc 4e 3c 7e 52 38 bd f1 61 fb bd db 61 83 3c
       0.012618295 -0.045000546 -0.1227454 0.016037872
0000f0 51 df 1c 3d ed 9b 0e be 26 79 cb bd 56 f8 ee bb
       0.03829891 -0.13926668 -0.099352166 -0.0072927875
000100 cb 13 62 bd 97 63 ed 3c ec f3 04 be 4f 64 f1 3d
       -0.055194657 0.028978152 -0.12983674 0.117867105
000110 fb 71 1e 3c fa af 86 3d cd 69 cc 3d 16 6e f2 bd
       0.00967073 0.065765336 0.099811174 -0.118374035
000120 c9 03 0b 3d e2 40 c5 3d 65 45 95 3d f0 6d 79 3c
       0.033939157 0.09631516 0.072886266 0.015223965
000130 05 d8 46 bd 87 ac 13 3d 01 29 0c be 76 d7 ba 3c
       -0.048545856 0.036053207 -0.13687517 0.022807818
000140 b8 f1 29 3d 10 32 b9 3c 15 0b 0e 3e 97 65 74 bc
       0.041490287 0.02260688 0.13871415 -0.014916799
000150 0b c2 02 be 42 80 fe 3c d7 ab b2 bd 7b 49 29 bd
       -0.12769334 0.031067017 -0.08724182 -0.041329842
000160 88 47 8e 3c c2 bd a7 3d e4 7d e6 3d 14 30 69 3d
       0.017368093 0.0819049 0.112544805 0.056930616
000170 ef 8c a3 3d c7 fc 88 3d 5f a3 62 3d ae fe 84 3d
       0.07985865 0.066888385 0.055331584 0.06493889
000180 65 f2 05 3e 28 2d 85 bb ea 56 81 bc 59 04 82 bd
       0.13080747 -0.004064221 -0.015788514 -0.063484855
000190 14 56 49 3d 26 67 f9 bd 70 47 ec bc 56 13 5e 3d
       0.049154356 -0.12177877 -0.028842658 0.05421766
0001a0 84 98 b8 3b 35 a0 d5 ba f0 41 fa bd 03 ff 06 3e
       0.0056334157 -0.0016298356 -0.12219608 0.13183217
0001b0 5e a4 99 3d 25 b6 c8 bd 89 18 a3 bc a0 1f c2 bd
       0.07502054 -0.09800366 -0.01990916 -0.09478688
0001c0 7f f5 c5 3a a3 6c 90 3b 52 8f 98 3d 26 3c cc 3c
       0.0015103071 0.0044074818 0.07449211 0.024931025
0001d0 00 4b f8 3c c2 56 b4 bd 8f b6 c0 39 8d 93 89 bd
       0.0303092 -0.0880561 0.0003675711 -0.06717596
0001e0 dd 7d 67 bd f9 04 fb 3d a5 5d 3a bd 64 6d 6c 3d
       -0.056516517 0.12256808 -0.045499463 0.05772151
0001f0 1d d5 03 3d 5a 5a b6 3d 9e 19 00 3d 73 b2 81 3c
       0.032185663 0.08903952 0.03127443 0.015832162
000200 14 e1 90 bd fd c5 65 3d aa b7 0a bd 26 6d 85 bc
       -0.0707418 0.05609702 -0.033866562 -0.016287398
000210 1a 51 ba 3d ad c4 ab bd ec 1d 0c be c8 da aa 3d
       0.090975 -0.08387122 -0.1368329 0.083425105
000220 7e 79 9f bd d2 d0 a8 3d 4a cb bd 3a 96 ff ca 3d
       -0.07786845 0.08242954 0.001448014 0.099120304
000230 1a 7c 10 bd 6a 22 be 3d 92 27 e4 bd 96 93 e8 bd
       -0.035274602 0.09283908 -0.1114036 -0.11356275
000240 e9 a7 b9 3d 4e 5c 8e bd 4f a0 9b bd 80 7e 46 bd
       0.090652294 -0.069511995 -0.07598936 -0.048460484
000250 5e 2f 64 bd a6 d1 b7 3d 17 c4 ae 3d 86 d9 cd 3d
       -0.055709235 0.08975534 0.08533495 0.10051255
000260 57 a9 05 3e 4e ed ac 3d 10 9f 3b bd 4c 32 03 be
       0.1305288 0.084437 -0.04580599 -0.12812155
000270 81 25 36 bd 1a cd 07 be 1c e0 b8 bd 90 77 82 3d
       -0.04446936 -0.13261834 -0.090271205 0.06370461
000280 e8 ae a8 bd 75 2a 0d 3e f9 5a 77 3d c7 16 0d be
       -0.08236486 0.13785727 0.060389493 -0.1377822
000290 ea 01 9b 3c 13 f9 88 bd 8a 03 04 be f6 90 b1 bd
       0.018921811 -0.06688132 -0.12891975 -0.08670227
0002a0 40 c9 fa 3d da 1a 82 bd d3 79 71 3b fa 22 9f bd
       0.12245417 -0.06352778 0.0036846295 -0.07770343
0002b0 2e 1d 9f 3d 33 cf 25 3d 1b 49 a2 3c e5 3e a7 3b
       0.077692375 0.040480804 0.01981025 0.005103933
0002c0 be b1 29 bc 31 e9 7e 3b 17 c7 ea 3d 75 c8 4e 3d
       -0.010357318 0.0038896317 0.114637546 0.05048414
0002d0 ee eb 9f bd 30 40 0f bc 4c e3 c4 bd a3 87 88 3d
       -0.07808672 -0.008743331 -0.09613666 0.06666496
0002e0 9f 22 d7 bd 86 8d 69 3d 46 91 e5 bd 3a eb 9b bd
       -0.1050465 0.057019733 -0.11209349 -0.07613225
0002f0 f6 69 97 bd e5 9d 72 3d d7 17 ad ba 9e 4e a8 bd
       -0.07393257 0.05923261 -0.0013205957 -0.0821812
000300 a3 65 0e 3d 52 05 84 3d 93 c3 66 3d e0 a4 d1 3d
       0.034764897 0.06446327 0.056338858 0.102365255
000310 5b e5 87 3d 66 ed e6 3d 0a 52 9c bc e8 23 f4 3d
       0.06635543 0.11275749 -0.019082088 0.11920911
000320 dd c8 03 3d 67 a5 59 bd 46 46 e9 bd 3f 7f 0f be
       0.03217398 -0.053136256 -0.11390357 -0.14013384
000330 2a f5 b8 3d f4 b7 05 3e 51 8f 05 be 0f ea fe bd
       0.09031136 0.13058454 -0.13042952 -0.12446987
000340 b9 83 d2 bd 7e 8b f2 3d 87 57 e7 bd 62 b5 ec bd
       -0.1027903 0.11843012 -0.112959914 -0.115580335
000350 a0 9c d8 3d d1 f7 eb bd 3e f5 00 3d 3a 3c 65 3d
       0.10576749 -0.115218766 0.03148388 0.05596564
000360 46 2a 6f 3d bc ad 0b be 4e 62 ac 3d ef c1 05 3e
       0.058389924 -0.13640493 0.08417188 0.13062261
000370 e3 7b d8 3c 27 ff df bd 54 7c a0 bd 54 ef 24 3d
       0.026426261 -0.10937338 -0.07836214 0.040267304
000380 a8 9e b7 bd bf 8e fc 3d ce be 6f bd 6c 06 de 3d
       -0.08965808 0.12331914 -0.058531575 0.108410686
000390 e6 ed ec bd 02 67 05 3e 57 d1 e4 3d bc bd a2 bd
       -0.11568813 0.13027576 0.11172741 -0.07946345
0003a0 f6 c4 01 be b5 16 3a 3c bd 26 bc 3d d8 9b 11 3c
       -0.12672791 0.011357953 0.09187076 0.008887254
0003b0 8e b4 bd bc 06 76 9b bc 18 a9 9b bd 58 29 c7 3d
       -0.023157384 -0.018977176 -0.076006114 0.097246826
0003c0 92 22 d5 bd 68 36 32 3d 61 91 f1 3d ba de 87 3c
       -0.104069844 0.043508917 0.11795307 0.016585696
0003d0 58 de 96 3d ed 64 e7 bd 80 9e 54 bd 21 30 29 3d
       0.073666275 -0.11298547 -0.05190897 0.041305665
0003e0 42 aa e7 3d 3d c1 87 bc 27 93 ea 3c 22 63 88 3c
       0.11311771 -0.016571635 0.02863462 0.016648833
0003f0 5e 7f 09 3e 9d 76 88 3c dc cc 15 3d d4 45 09 be
       0.13427493 0.016658122 0.036572322 -0.13405544

bias_ih_l0 f4 [50]
000000 78 ef dd 3b e6 bc ea bd 34 88 67 bd 47 09 25 3c
       0.0067729317 -0.11461811 -0.056526378 0.010073013
000010 7a 6a a6 3b bb 35 24 3d d0 24 9b bd b5 9b b5 3c
       0.005078611 0.040090304 -0.07575381 0.022168973
000020 67 33 e8 bd 61 ae 08 be 90 d1 9f bd e6 93 3a 3d
       -0.11337929 -0.1334777 -0.07803643 0.045551203
000030 23 00 02 be bb 96 01 be 3e 23 ea bd 8b 5e 09 3c
       -0.12695365 -0.12655155 -0.11432503 0.008384357
000040 b0 4e bc 3d f7 5c 3b bd 97 7a b2 bd 57 19 ad bd
       0.09194696 -0.045742955 -0.087147884 -0.08452099
000050 17 1c 18 bb de 30 66 bb b7 4c 0d be 38 d0 c1 bd
       -0.0023210102 -0.0035124342 -0.13798796 -0.09463543
000060 14 ec 29 3d 35 ac 19 3d e6 b9 a0 3d a3 c5 18 3d
       0.041484907 0.037517745 0.07847957 0.037297856
000070 74 7b 76 3d 5a 54 ab bd 3b 80 f1 bd 13 7c d3 bd
       0.060176328 -0.08365698 -0.11792036 -0.103264
000080 db c6 8e bd 51 28 0e 3e 31 53 ee bc 1c 55 36 bd
       -0.069715224 0.13882567 -0.029092403 -0.04451476
000090 d2 77 e1 bc 80 4a ef 3d 90 68 e3 bd 0e c6 a8 bd
       -0.027522955 0.116841316 -0.11103928 -0.08240901
0000a0 31 f3 98 bc c4 4a 2f 3d 20 6c e6 3d ed 9d 78 bd
       -0.01867065 0.04279591 0.11251092 -0.060697485
0000b0 79 0b 96 3d ff 7f 6d bd eb d1 dc 3d fe 57 a2 3d
       0.07326407 -0.057983395 0.10782226 0.079269394
0000c0 73 8f dd 3d b3 9f c4 bd
       0.108183764 -0.09600773

bias_hh_l0 f4 [50]
000000 d7 a8 a4 3d 4f 67 08 3e e6 42 45 3d bf 0c e2 3d
       0.08040016 0.13320659 0.048159502 0.110375874
000010 eb fe d1 bd 1a 83 d4 3d db b9 08 be c2 9d c0 bd
       -0.102537 0.10376568 -0.13352148 -0.0940509
000020 83 7c f8 3d 21 95 cc 3d 41 3f cc 3d 63 aa 17 3d
       0.12133124 0.099893816 0.09973002 0.037027728
000030 9e 07 ae 3c 49 48 ec bd 41 d8 d4 bd bb a3 a3 bc
       0.021243867 -0.11537225 -0.1039281 -0.019975534
000040 35 42 09 3d 93 54 10 3d d3 38 04 be cd 2d b2 3d
       0.033510406 0.035236906 -0.12912302 0.08700142
000050 ed b2 c1 bc 8f 47 b0 bc 64 28 53 3d cc b6 b5 3d
       -0.023644889 -0.021518497 0.05155219 0.08872756
000060 d6 94 0e 3e 96 f5 22 3d 14 f1 84 bd 3d 7b 22 bd
       0.13923964 0.03978499 -0.064912945 -0.03966831
000070 64 b9 e9 bd f9 4d 1c bd ec ce a7 3d 8a c1 3c 3d
       -0.114123136 -0.038160298 0.08193764 0.04608301
000080 f9 81 ef 3c 4f 04 a7 3c a1 42 06 3e dc 45 30 bc
       0.02923678 0.020387797 0.13111354 -0.010758843
000090 9d 69 e5 3d 45 ec b8 3c 7b 90 aa 3c 40 06 f6 3d
       0.11201785 0.0225736 0.020820847 0.12012911
0000a0 b4 f9 28 bd 6d 2d 08 3d ee 80 e8 bc 87 df 3f bd
       -0.04125376 0.033246446 -0.028381791 -0.04684403
0000b0 c2 56 1e 39 b1 bd ce bd 73 b5 45 3d d3 8d d2 bd
       0.00015100374 -0.100947745 0.048268747 -0.10280957
0000c0 a4 29 8c bc 86 d2 ae bd
       -0.0171097 -0.08536248

weight_ih_l0 f4 [50, 50]
000000 3e 2e 10 3e da 4b 04 3e 46 f6 d2 3d b6 cd 30 bd
       0.1408014 0.1291956 0.10300879 -0.04316493
000010 35 c5 3d 3c 77 0f 09 3e 95 14 b1 3d 77 70 fb 3d
       0.011582662 0.13384806 0.08646504 0.1227731
000020 f2 4b 03 be 25 4f 0b 3d 55 6a 8c 3d ce 52 95 bd
       -0.1282194 0.034011025 0.06856219 -0.07291184
000030 74 b6 b8 3d 65 71 a0 bd 66 6b 4e 3d 28 c3 60 bd
       0.09019175 -0.07834128 0.050395392 -0.054873616
000040 c2 d6 e1 3d 78 cf 73 bd ae b1 02 bd 75 5a 63 bc
       0.1102729 -0.05952403 -0.03190773 -0.013876547
000050 e4 87 df 3d 53 ad 4a bd 26 71 01 3d 6d 23 42 3b
       0.10914591 -0.0494817 0.031602047 0.0029623166
000060 27 f9 f3 bd cf cc a8 3d 32 de d1 bd 54 a1 94 bd
       -0.119127564 0.08242189 -0.102474585 -0.072573334
000070 b1 82 a3 bd e0 ce 74 3c ee bf 1d 3d 4d cc fb bd
       -0.07983912 0.014941901 0.038513117 -0.12294827
000080 18 0e 0c 3e 87 7e 7a 3d 5c 9e 3e bd fe 2c ec bc
       0.13677251 0.061155822 -0.046537742 -0.028830048
000090 c7 b0 79 bd 1e df db 3c 86 78 9c bd 34 0e 9a bd
       -0.060959604 0.026839789 -0.076401755 -0.0752224
0000a0 c4 08 fb 3c ae 21 ff 3d 4c 70 07 be 31 91 73 bd
       0.030643828 0.12457596 -0.13226432 -0.059464637
0000b0 db 8c e5 3d 67 a0 07 be 9b 03 30 bc 16 5b 1e bd
       0.11208507 -0.13244782 -0.010743047 -0.038661085
0000c0 74 bf e0 3d 2c 4b 19 bd 94 3f 38 bd af f1 fe bd
       0.10974017 -0.037425205 -0.044982508 -0.12448441
0000d0 f0 5c a5 bd 85 a3 b9 3d 59 27 0f 3e 8d bd 55 bd
       -0.08074367 0.09064392 0.13979854 -0.052182723
0000e0 58 16 a3 3c f8 be a5 bc 64 d1 f0 3d ad 71 97 3d
       0.019908115 -0.020232663 0.11758688 0.07394729
0000f0 2c 50 2a 3d b9 01 17 3d de 94 ab bd 63 b5 d2 bd
       0.041580364 0.036866877 -0.083780035 -0.10288503
000100 18 88 d4 bd c1 22 2e 3d c5 b8 00 3e 20 c5 2c 3d
       -0.1037752 0.042513613 0.12570484 0.04218018
000110 83 2c 65 bd e7 99 07 be 49 12 71 3d 20 b2 b1 3d
       -0.055950653 -0.13242303 0.05885533 0.08676553
000120 90 c7 a5 bc d3 4c 1a bc 94 5c 04 3e df ab 08 3e
       -0.02023676 -0.00941773 0.12925941 0.13346814
000130 31 6b 7f 3d bc de 3b 3d 5d 1d 95 bd 8a a8 cb bd
       0.062358085 0.045866713 -0.07280991 -0.09944256
000140 60 ed c3 3d a1 67 3e bd da dd e8 3d 4a 12 8b 3d
       0.0956676 -0.046485547 0.1137044 0.06790598
000150 0d 6b 93 3d 79 65 d4 bc 17 78 e8 3d 01 7a 95 bd
       0.07198153 -0.025927292 0.1135103 -0.07298661
000160 8e 07 0a be ec 08 9f bd 61 82 01 be 54 d6 e0 3d
       -0.13479444 -0.077653736 -0.12647392 0.1097838
000170 81 7e 42 3a df a9 d0 3d dc 06 c1 bd 7a 76 16 3d
       0.0007419363 0.1018865 -0.094251364 0.03673408
000180 7c 64 e8 bd 8d d2 8a bc 06 b6 0f bd 74 1b ed 3d
       -0.11347291 -0.016946102 -0.0350857 0.11577502
000190 a0 0c 4b bd 76 5f 10 3e ab 71 2c bc 03 07 cc bd
       -0.049572587 0.14098915 -0.010525147 -0.09962275
0001a0 05 ce 93 3d 21 99 b0 bd 3d 5d 0b be 46 dd e0 3d
       0.072170295 -0.08622957 -0.13609786 0.109797046
0001b0 7f aa b2 bd 02 4e 1e 3d d3 88 79 bd c8 87 9a bd
       -0.08723926 0.038648613 -0.0609215 -0.075454295
0001c0 83 a6 45 bc 77 d4 48 bd 06 a0 50 3d e2 01 b6 bd
       -0.012063625 -0.049030747 0.05093386 -0.08887078
0001d0 d4 ae 34 bc 0a 8a 48 3d 74 47 b9 bd d8 fc b7 3d
       -0.01102801 0.04895977 -0.09046832 0.08983773
0001e0 04 88 02 be de 4b 29 bd 12 44 a8 bd a5 cb 23 bd
       -0.12747198 -0.04133212 -0.082161084 -0.039989132
0001f0 e8 fc f6 3d 30 86 92 3d 83 f8 18 3d 17 a8 9e 3d
       0.12059957 0.071545005 0.037346374 0.07746904
000200 04 45 93 3d f7 51 93 3c 06 0d 06 3c d4 be a7 bd
       0.07190898 0.01798342 0.008181816 -0.081906945
000210 c0 96 6b 3d 00 3c 00 bc e6 bf 8d bd 30 d4 9f 3d
       0.057516813 -0.007826805 -0.06921367 0.078041434
000220 ba 9c d3 3b 33 c6 c8 bd 80 64 75 3b 85 b2 a1 bd
       0.0064578922 -0.098034285 0.0037443936 -0.07895378
000230 e2 d6 a2 3d 1c 47 8b 3d 86 46 fc bd 51 93 2d bd
       0.07951142 0.068006724 -0.12318139 -0.04237682
000240 a6 04 a5 bd 1c 5c 02 be 4b 09 07 be ff 82 c8 3d
       -0.08057527 -0.1273045 -0.13187139 0.097906105
000250 6f 38 f3 bb 41 be 01 be 7e 0f 91 bd 4e da 04 be
       -0.007422499 -0.12670232 -0.07083033 -0.12973902
000260 a7 4b 2b 3d 12 9f 6f 3c 2a e5 d0 bd d2 d6 e2 3d
       0.041820195 0.014625328 -0.101999596 0.1107613
000270 c1 b3 fb 3d 66 36 6a 3d e3 3c 89 3d f5 39 17 bd
       0.12290145 0.057180785 0.06701066 -0.036920507
000280 11 ea 00 be 72 54 e6 3d 89 9f 6b bd f2 82 da bd
       -0.12589289 0.112465754 -0.05752519 -0.10669507
000290 0e 88 dc bd 1f ab ac bc 4f 99 5b 3d 00 39 83 bd
       -0.10768138 -0.02107769 0.053613003 -0.06407356
0002a0 6a 0f d1 3d a0 1a 9d 3d f3 d5 30 bd 61 a1 a1 bd
       0.10208018 0.07671094 -0.043172788 -0.07892109
0002b0 59 34 0a be 2f 62 93 bd d8 27 e5 bc 10 ca 64 bd
       -0.13496532 -0.071964614 -0.0279731 -0.055856764
0002c0 c7 92 af 3d 24 43 82 3d ad d9 95 3b fd df 1c 3d
       0.085729174 0.06360462 0.004573068 0.03829955
0002d0 db 99 c5 b9 e2 ff 46 bd f9 b7 4b 3d 96 40 8c bd
       -0.000376894 -0.048583873 0.049735997 -0.06848256
0002e0 08 ff 86 bc 30 ca 7a 3c 7f 0c b1 3d 94 fa 9d bd
       -0.01647903 0.015306994 0.086449616 -0.077138096
0002f0 13 8b f4 3d 80 a9 b9 3d 43 6f 67 3d b0 75 b8 3d
       0.11940589 0.09065533 0.05650259 0.09006822
000300 f9 33 23 bc c8 8e da bc 58 01 02 bd 18 9c b9 bc
       -0.009961122 -0.026679412 -0.031739563 -0.02265744
000310 ff b6 11 bb 82 50 5d 3d 3e 05 8a bc eb 50 90 bc
       -0.0022234318 0.054031856 -0.016848203 -0.01761671
000320 c4 6d 12 bd de ac 0b 3e 2c 6f 70 3d 30 9e 01 3c
       -0.035749212 0.13640162 0.05869977 0.00791125
000330 47 3e b8 bd 6a 8e ca 3d 5c 11 04 bd 70 36 0f be
       -0.089962535 0.098904446 -0.032243118 -0.1398561
000340 33 bb a0 bd 5a ef 53 bd 57 1d 55 bd 12 51 ab 3d
       -0.078482054 -0.051741935 -0.052029934 0.08365072
000350 73 f4 42 bb 11 58 ff 3d 65 fa a3 bd 2f b2 96 3d
       -0.0029747754 0.12467969 -0.08006743 0.073582046
000360 58 da 8f bd 5e ee a0 bd d3 a7 f6 bd af 04 b9 bd
       -0.07024068 -0.07857965 -0.12043729 -0.090340964
000370 cc 24 8c 3c b3 9d 02 3e 20 7e a0 3c ce 6f 88 bd
       0.01710739 0.1275547 0.019591391 -0.0666195
000380 4a 20 b9 3d ea a9 b4 bc 85 4f 87 3d 93 25 d7 3d
       0.09039362 -0.022053678 0.06606964 0.105052136
000390 87 1e 82 bd 9f ef 0d 3d 9f d4 3d 3d 8b c2 44 bc
       -0.06353479 0.03465235 0.04634535 -0.012009273
0003a0 51 19 8a 3d 63 4c 16 3d a9 d8 a1 bd df 99 90 3d
       0.0674311 0.03669394 -0.07902653 0.070605986
0003b0 38 c8 c2 3c d0 b1 df bd 0f 09 2d 3c f4 ac 4a 3b
       0.023777112 -0.10922587 0.010561242 0.0030925842
0003c0 07 c0 69 bd c8 cb 7f bd 8e dc 66 bb 52 12 b9 3d
       -0.057067897 -0.0624502 -0.0035226676 0.090366974
0003d0 96 f9 6b 3d ca 5f 4c 3d 2d 4e f3 3c 73 23 f3 3d
       0.05761107 0.04989604 0.029700363 0.11871996
0003e0 c8 ee d8 bd 26 8d b6 bd 67 d5 25 3d 33 18 e4 3d
       -0.10592419 -0.08913641 0.04048672 0.11137428
0003f0 69 89 6c bd 3c 53 85 bc 7b 15 95 3d c4 05 4b bd
       -0.057748232 -0.01627504 0.07279488 -0.049566045

weight_hh_l0 f4 [50, 50]
000000 e5 ae 57 bd bb 73 74 3c 61 90 c5 3d c7 ad fc 3c
       -0.052657027 0.01492017 0.09646679 0.030844582
000010 4c e4 f2 3d ae fd a5 3d 0e f9 5e bc bb 58 73 3d
       0.118599504 0.08105026 -0.013609184 0.05941079
000020 98 05 d1 3d 87 2f 59 bb 3a fb 20 3d 4d 89 3b bd
       0.10206145 -0.00331399 0.03930209 -0.045785237
000030 33 31 2a bd 54 db ac bd f2 89 99 3c 00 fc db 3c
       -0.041550826 -0.08440271 0.018742535 0.026853561
000040 d8 9d 09 be aa cb 70 3c 51 34 45 bb e7 9c e7 3d
       -0.13439119 0.014696995 -0.0030090997 0.113092236
000050 8c 28 ff bc 1e 41 57 3c ca b5 8c bc 3b 15 03 3e
       -0.031147264 0.013138084 -0.017176528 0.12801068
000060 a7 af 04 be 0f f1 50 3d a1 6c e3 bd 33 90 df 3c
       -0.12957631 0.05101114 -0.11104704 0.02729044
000070 cd e3 fd bd 63 7f 02 3e b4 22 14 bd df 18 25 bd
       -0.12396965 0.12743907 -0.036165908 -0.040306922
000080 93 6a d4 bd 7e b5 69 3d cc a4 b2 3d ff bc 5f bd
       -0.1037189 0.05705785 0.08722839 -0.0546236
000090 16 e9 f2 bd 3e 8a a9 bd 8d 16 20 3d 06 54 d6 bc
       -0.11860864 -0.08278321 0.039084006 -0.026163112
0000a0 8c a2 8d bd 60 71 cd bd 91 59 f7 bd c1 58 0e 3e
       -0.06915769 -0.1003139 -0.1207763 0.13901044
0000b0 71 c4 47 3c 3c dd bc bd a9 85 a4 bd 4a 00 9b bd
       0.012192831 -0.092218846 -0.08033306 -0.075684145
0000c0 d7 fa 94 bd bf 3e b8 3d 12 91 8f 3d e4 a8 84 3c
       -0.072744064 0.08996343 0.07010092 0.016193815
0000d0 aa ce b2 bd 26 17 2d 3d ee 8f 0a be 0b 0c b1 3d
       -0.08730824 0.042258404 -0.13531467 0.08644875
0000e0 d0 2c c1 bd 23 09 dc bd 45 98 e0 3b 41 2d 83 bd
       -0.094323754 -0.1074393 0.0068540894 -0.06405116
0000f0 39 d7 84 3d b6 98 de 3c 38 7c 86 bc 12 52 8a bb
       0.06486363 0.027172428 -0.016416654 -0.0042212093
000100 05 16 ab bc ae e4 82 bd 06 5e 13 bd ce e3 8a 3c
       -0.020884523 -0.063912734 -0.03597834 0.016954329
000110 f3 76 11 3d 80 44 cd 3b f7 f4 fe bc c6 14 4d 3d
       0.03551383 0.0062642694 -0.031122668 0.05006864
000120 dd 96 00 bc 47 aa 05 3d f8 4b e6 bd a2 f4 b6 3c
       -0.007848469 0.032633092 -0.11244959 0.022333447
000130 b8 4a fd bd 44 db 99 3b c5 6e 4d 3d cf 0e 01 3e
       -0.12367767 0.004695328 0.050154466 0.12603305
000140 0f bf da 3d 61 c8 04 be ea d1 7a bd 41 35 b6 3d
       0.10680973 -0.12967063 -0.061235346 0.08896876
000150 9d 31 8a bd f9 1f a0 3d ab 47 92 bb ce 9c 1f bc
       -0.06747744 0.07818598 -0.00446411 -0.009741975
000160 02 e0 06 3e 66 c1 1b 3d d7 17 f5 3d f1 c8 f9 bc
       0.1317139 0.038026236 0.11967438 -0.030491324
000170 83 4b c2 3d 52 31 06 be 7b 33 40 bd 9a 5b c7 bd
       0.09487059 -0.13104752 -0.046924096 -0.097342685
000180 f9 1a b1 3d 61 d1 28 3d 1b 62 74 3d 70 e4 8d bd
       0.08647723 0.041215304 0.059663873 -0.069283366
000190 05 91 81 3d 28 19 82 3d b0 bc ea 3d 93 74 50 bc
       0.063264884 0.063524544 0.114617705 -0.012723106
0001a0 23 ac c1 3c 43 93 4e bd 7a 1f 98 bd 16 60 ad bd
       0.023641651 -0.05043341 -0.07427879 -0.084655926
0001b0 da cf 9b 3d 53 2d 04 3c d3 89 ad 3d 43 81 33 bd
       0.07608004 0.008067447 0.084735535 -0.043824445
0001c0 95 7e a0 3b 19 4a f7 3d 57 7c c9 bd 6d 2e 04 3e
       0.0048979023 0.1207468 -0.09838169 0.12908335
0001d0 37 5e d7 3c e9 00 8c bc ef 2d ef 3b 2e fb 25 3b
       0.026290042 -0.017090278 0.007299177 0.0025326717
0001e0 72 6f 9b 3c 31 dc 11 bd c4 51 19 bd d3 c7 f1 bd
       0.01897404 -0.03561038 -0.037431493 -0.118056916
0001f0 a8 49 78 bd 20 8c 9f bd 2e ea 5f bc 90 0b 8d bd
       -0.06061712 -0.077903986 -0.013666673 -0.06886971
000200 4e 8d 83 3c a5 f9 4b bc 23 f5 e5 3d 02 f1 b7 3d
       0.01605859 -0.012449657 0.11228397 0.089815155
000210 8a fd da 3d ac b3 09 be dd 47 09 bd 6b 7b 9f 3d
       0.1069289 -0.13447446 -0.0335158 0.07787212
000220 9f 67 88 3c 24 eb e4 bd 59 d9 95 3d 91 c2 66 3d
       0.016650973 -0.11177662 0.073168464 0.056337897
000230 15 f0 cd 3d fd 98 de 3d ce d8 88 3d 47 04 f1 bd
       0.10055558 0.10869024 0.06681977 -0.11768394
000240 9b ea 47 3d e6 fb b8 bd 4a 0d b4 3d 24 b4 7c 3d
       0.04880772 -0.09032421 0.08791597 0.061695233
000250 7a 8d 00 3d be be 18 3d 5c 55 93 3b c5 cc 99 bd
       0.031384923 0.03729128 0.0044962596 -0.0750976
000260 58 bc db 3d 21 06 32 3d c0 0a f7 3c 16 d4 fb bd
       0.10729283 0.043462876 0.030156493 -0.122963116
000270 38 93 b0 bb 7f 5a b2 bd 92 be 0d 3e 03 15 6b bb
       -0.0053886436 -0.08708667 0.13842228 -0.0035870678
000280 2a 3f 0c 3e dd ab 80 3a da 4a 47 3d 8d 0c 0f bd
       0.1369597 0.0009816844 0.04865537 -0.03492408
000290 56 7e eb 3d 64 c2 c6 3d 06 04 9e 3c 8c 42 8f bd
       0.11498706 0.09705046 0.019289028 -0.06995115
0002a0 32 3a 44 bd 88 20 d4 3d 7d b6 8c 3d 97 9c 1f bc
       -0.047907062 0.10357767 0.068707444 -0.009741924
0002b0 2f df c1 bd 08 7b 3f bd 04 29 b5 bd 26 e5 17 3c
       -0.09466397 -0.04674819 -0.08845714 0.009270942
0002c0 72 e7 8a 3c 22 38 10 3e 72 c6 09 3e 00 27 b3 bd
       0.016956065 0.14083913 0.13454607 -0.08747673
0002d0 75 78 0d bd a2 69 98 3d 64 61 b2 3d 5e 83 eb bd
       -0.034538705 0.07442023 0.08709982 -0.11499666
0002e0 9f 93 b3 bd 93 58 0a 3c 18 8d 59 bd 2a 17 a4 bd
       -0.08768391 0.008443969 -0.053113073 -0.08012231
0002f0 45 fa ce 3d 54 84 00 be 37 6e 0a bc 2e 8d 05 3e
       0.10106329 -0.12550479 -0.008449129 0.13042137
000300 1f e9 9a 3d a2 4d ca 39 4e a9 01 be d0 44 3f 3c
       0.075639956 0.00038586283 -0.12662241 0.011674121
000310 c7 c0 a1 bd 26 72 f4 3d 5d 2a fb bd e6 8a b2 bd
       -0.078980975 0.119358346 -0.122639395 -0.08717899
000320 4c 3f 93 3c 13 25 a6 3d 86 79 a4 bc 05 94 75 b9
       0.017974518 0.0811254 -0.020077478 -0.00023420162
000330 11 58 90 3d 91 17 d5 bd c8 77 0f 3d d3 ba dd 3d
       0.07048047 -0.104048856 0.03502634 0.108266495
000340 fc 11 03 bd ad ef f7 3d d0 38 08 be 53 8a 7b bd
       -0.031999573 0.121062614 -0.13302922 -0.061411213
000350 10 2d ca bd 35 59 d3 bd 5f a3 53 3b 53 f9 9b 3d
       -0.09871876 -0.10319749 0.0032293422 0.07615914
000360 4d a1 97 bc b1 36 7f bc 1f 9c c1 bd eb 6d 72 3b
       -0.018509531 -0.015577004 -0.09453606 0.0036991786
000370 4e 3e 8e b9 6d b7 00 bd 21 f1 47 3d 4e de c3 3d
       -0.0002713077 -0.03142493 0.048813943 0.09563886
000380 30 0b 8f 3c c9 7d c4 3d c0 d1 ca 3d ac ad 05 be
       0.01746139 0.09594304 0.09903288 -0.13054532
000390 45 d1 0f 3e 22 4f 66 3b aa 5f b8 bb 63 16 cf 3d
       0.14044674 0.0035142382 -0.0056266384 0.10111692
0003a0 b4 bc de bc 2c dd a6 3a b4 34 05 3e a2 ba 0a bd
       -0.02718959 0.0012730709 0.13008386 -0.033869393
0003b0 96 17 f5 3d 0f 8b dd bc 36 ae f0 3c 85 62 9e bd
       0.11967389 -0.027043847 0.029379945 -0.07733635
0003c0 e6 c4 04 3e 6d 47 01 3e 28 30 f4 bd b5 d0 05 3c
       0.12965736 0.12624903 -0.119232476 0.008167435
0003d0 a0 44 0c be c2 65 50 3d 22 3d 8a bd 3d fa 2b bc
       -0.13698053 0.050878294 -0.067499414 -0.010496673
0003e0 2b 05 71 3d a3 b0 e1 bd 64 81 c2 bd 61 80 cb bb
       0.05884282 -0.11020019 -0.094973356 -0.0062103723
0003f0 6d 14 a2 bc b0 cb 3a bd 3e 72 e5 3d 65 ac ca 3d
       -0.01978513 -0.045604408 0.112034306 0.09896163

bias_ih_l0 f4 [50]
000000 92 d4 a9 3d a0 7e c2 3d 60 24 53 bd 89 c1 0d 3d
       0.08292498 0.09496808 -0.05154836 0.034608398
000010 56 95 a0 3d 3d d2 b2 3d 59 58 a8 3d a6 3f 84 bd
       0.078409836 0.08731506 0.08219976 -0.064574525
000020 3f 1d b8 bd 14 3f dc 3d fa 18 46 bd 13 f0 b6 bc
       -0.08989953 0.10754219 -0.048363663 -0.022331273
000030 c5 3e f2 bd e7 2e 1f bd af 96 a3 bc 69 8e 70 bd
       -0.118283786 -0.03886309 -0.019969312 -0.058729563
000040 1a fd 0e 3e 59 ce fd 3d 28 8d d6 3d 41 ed 95 3d
       0.13963738 0.12392873 0.10476142 0.07320643
000050 1d 04 9c bc 61 5d b3 3d 34 36 6c 3d a5 a7 c6 bd
       -0.01904493 0.08758045 0.05766888 -0.096999444
000060 81 7d 22 bd c4 f8 d2 3d b6 b8 0f 3d f4 57 f1 3d
       -0.03967047 0.103013545 0.035088263 0.11784354
000070 25 a8 ca 37 04 4f fb 3c 36 a5 02 3e 6b 97 a4 3d
       2.4158575e-05 0.030677326 0.12758335 0.08036693
000080 cf 09 0f bd 34 98 a2 bd c1 91 07 3e fd 49 e4 3c
       -0.034921464 -0.07939187 0.13239194 0.027867312
000090 85 79 56 3d b4 e3 06 bb 72 b3 ad bd 96 ca 2e 3d
       0.052361984 -0.00205825 -0.08481492 0.04267367
0000a0 dd 78 cc bd 16 9f 07 3c 4d 94 16 3d b1 ef 7b bd
       -0.0998399 0.008277675 0.036762524 -0.061507884
0000b0 cf 60 86 bd 1c b7 6a 3a 44 66 c1 bd ec aa f4 3d
       -0.065614335 0.0008953677 -0.09443334 0.11946663
0000c0 4c 28 c3 3d 3a 81 5f bd
       0.095291704 -0.0545666

bias_hh_l0 f4 [50]
000000 8a fa c2 bd 40 55 d9 bc 4a 5f dd bc 5d d2 6e bc
       -0.09520443 -0.026529908 -0.027022976 -0.014576522
000010 47 34 02 be 5d f3 15 3d c7 5b 89 3d 3a 77 d0 bc
       -0.12715255 0.036609042 0.06706958 -0.025447477
000020 87 b0 a4 bd 44 35 10 3e 9b af 90 bd b5 0f 10 3e
       -0.080414824 0.14082819 -0.07064744 0.14068492
000030 79 fc 4f 3d 78 43 81 3d 96 6b cc 3d 65 5a 81 bd
       0.050777886 0.06311697 0.09981458 -0.063160695
000040 57 9d ec bd 52 59 60 3d 49 9b d4 bc c0 93 ed bd
       -0.11553448 0.054772682 -0.025952952 -0.11600447
000050 21 f0 b4 3d e9 41 7a 3d 9f 4e e2 3d 6c 28 55 bd
       0.088348635 0.061098013 0.11050152 -0.052040502
000060 92 4f 12 3d be 3f 06 3d 3b 6f 77 bd e6 3b 71 bd
       0.035720415 0.032775633 -0.060408812 -0.058895014
000070 a8 e0 ef 3c db 23 86 bd df 3c d2 bc b0 88 0a 3e
       0.02928193 -0.06549808 -0.025663791 0.13528705
000080 ef 7d e4 3d de 36 e8 3d 29 08 8b bd 34 f3 0f be
       0.111568324 0.1133859 -0.06788666 -0.14057618
000090 53 7e 03 3e 0c bb 63 3d 31 7d 1a bd 1a 50 bc bd
       0.12841158 0.055598304 -0.037717048 -0.09194966
0000a0 92 00 ff bd 23 f8 32 3d be 0a ec bd e7 6c 8e 3d
       -0.12451281 0.043693673 -0.115254864 0.06954365
0000b0 60 de ce 3c 23 bb 58 bd 7c b9 81 3c 45 b9 bb bd
       0.025252521 -0.052912842 0.015835516 -0.09166197
0000c0 7f b0 00 be 06 7c 11 3d
       -0.12567328 0.03551867

weight_ih_l0 f4 [50, 50]
000000 b9 26 ef bd 48 87 0a be 0b a7 06 be 8f 76 9e bd
       -0.11677308 -0.13528168 -0.1314966 -0.07737457
000010 8d 50 78 bd 95 88 dd 3d 1e e7 0c be a0 d1 73 bd
       -0.060623694 0.108170666 -0.13760039 -0.059526086
000020 66 73 67 3d 56 d3 2e 3c 47 d3 03 3e b5 54 09 be
       0.056506537 0.010670504 0.12873565 -0.1341122
000030 a1 7e dd bd 68 24 22 bd 70 59 24 bd ea 56 97 bd
       -0.10815168 -0.0395855 -0.040124357 -0.073896244
000040 8c c7 35 3c 3b 68 14 bd 96 01 a9 bd 30 0e 62 bb
       0.011094939 -0.036232214 -0.082522556 -0.003449332
000050 14 17 e4 3c 1b d0 95 3d 04 f5 54 3d c5 f5 0f bd
       0.027843036 0.073150836 0.051991478 -0.035146493
000060 2d 14 86 3d 70 59 d2 bd 2f 06 06 bd e6 d5 cd 3d
       0.06546817 -0.10270965 -0.03272074 0.100505635
000070 99 1f 64 3d cf 87 02 3e 10 02 13 bc ca 3f 0c 3d
       0.055694196 0.1274712 -0.00897266 0.03424052
000080 a6 43 a7 bd 69 59 10 be 87 d3 e6 bd 05 a9 f3 3d
       -0.081672 -0.14096607 -0.112708144 0.11897472
000090 98 04 bd bc 3e fd 01 3d 2f 42 4f bc 80 9c ba bd
       -0.02307348 0.03173565 -0.012650057 -0.09111881
0000a0 8d e3 9e bd 28 01 af 3c 0b 07 82 3d ea 0e 0f 3e
       -0.077582456 0.021362856 0.063489996 0.13970533
0000b0 dd 5c d6 3d 5b 6f b5 bd 61 93 da 3d c0 27 e3 3d
       0.10466931 -0.0885913 0.106726415 0.11091566
0000c0 5e 5f f1 3d e8 18 8f 3c 21 09 bb bd 58 bd f0 bd
       0.11785768 0.01746793 -0.091326006 -0.117548645
0000d0 3c c9 c2 3d cf e5 e4 bd 53 e7 4a bd a8 17 8a bd
       0.09511039 -0.11176645 -0.049537014 -0.06742793
0000e0 50 dd db 3c 70 3d 07 be 4e 13 77 bd f2 6e 8d 3c
       0.026838928 -0.1320703 -0.060321145 0.017264817
0000f0 57 5d 9e 3d ac b0 bf 3d a6 74 36 3d f5 9f 08 3e
       0.07732647 0.09359869 0.04454484 0.13342269
000100 5c de ab 3d 30 27 74 bd 33 16 3b bd 4c fc 81 bd
       0.08392021 -0.059607685 -0.045675468 -0.0634695
000110 6a 40 05 be eb 68 63 bd d5 76 0d 3e 5d 1b 08 3e
       -0.13012853 -0.05551998 0.13814862 0.13291688
000120 bd cd ff bd 54 c0 d6 bd 86 4c e7 3d 10 0a 26 bd
       -0.12490413 -0.104859024 0.112938926 -0.04053694
000130 5d 7f 3f 3d fd ad bf bd 15 ca c2 bd 65 9a 04 3e
       0.046752322 -0.093593575 -0.095112 0.12949522
000140 30 f3 e7 3c b5 b6 0a 3e 1d d7 6d bd a0 84 2f 3d
       0.028314203 0.1354626 -0.058066476 0.04285109
000150 ee a7 0b be 28 e9 f4 bd 13 7b 81 bd 76 22 6f 3d
       -0.13638279 -0.119585335 -0.06322303 0.058382474
000160 e2 5d 92 3d 1f dd 8e bc df 7d fe 3d 6c 84 90 bd
       0.07146813 -0.017439423 0.12426352 -0.070565075
000170 b5 5d 0e be 9e f5 6a 3c 7d 26 c8 3d 00 5d c6 bd
       -0.13902934 0.014340786 0.09772966 -0.09685707
000180 37 14 0c bc 25 1e b3 3d fe f4 c4 bc f2 8a a5 bd
       -0.0085497415 0.08745984 -0.024042603 -0.08083142
000190 b7 63 c9 3d 6d c3 8f 3d c0 fe c8 39 9b bb 36 bd
       0.09833472 0.070196964 0.00038336776 -0.04461251
0001a0 b5 ff 84 bd 80 69 37 3d 9e 23 7d bd 0c 99 a0 bd
       -0.06494085 0.044778347 -0.061801545 -0.078416914
0001b0 c4 0b c1 3d 03 93 01 3e a6 24 eb 3d 38 4e 76 bd
       0.09426072 0.12653737 0.114815995 -0.06013319
0001c0 43 e2 9d 3d 19 6b 05 bd 29 f8 b9 3d e1 28 8d bd
       0.077091716 -0.03257284 0.09080536 -0.06892563
0001d0 e8 5f 9a bd 91 f0 6d 3d f3 68 32 bd 0e e8 ee bd
       -0.07537824 0.05809075 -0.04355712 -0.11665355
0001e0 92 6d 89 3c d2 f5 e0 3d 1f 8c c6 bd a6 d2 02 3e
       0.01677588 0.109843865 -0.09694695 0.12775669
0001f0 a6 55 18 bd 19 f7 44 3d c0 a1 4d 3d bf 1d 0a bd
       -0.037191056 0.048087213 0.050203085 -0.033719774
000200 e5 41 ab 3b b0 65 66 bd 11 29 2e bb 68 b8 0a 3e
       0.005226361 -0.05624932 -0.002657477 0.13546908
000210 a6 a6 09 3e 0f bd 3f 3d 01 91 7f 3d 43 fa c6 bd
       0.13442478 0.04681116 0.062394146 -0.097157024
000220 d4 d6 0e 3d df eb d2 bd 90 1e af bd 0f 00 66 3d
       0.034872845 -0.10298895 -0.08550751 0.0561524
000230 64 c3 e6 bd 64 65 da 3d 72 b2 ba 3d 33 58 bc 3c
       -0.112677366 0.1066387 0.09116067 0.022991275
000240 c9 a5 c9 bd f9 75 fa 3d db 0d 5e bd af 34 91 3d
       -0.09846074 0.12229533 -0.054212432 0.07090127
000250 d2 8c 79 bd 09 e8 2e bd 46 49 a5 3a 26 24 cf 3d
       -0.060925312 -0.042701755 0.0012610338 0.10114317
000260 e3 88 fa bc b2 46 00 bd 43 10 c4 3d ec 54 06 3e
       -0.03058285 -0.03131742 0.09573414 0.13118333
000270 fd 18 0a bd 3f 10 c0 3c c4 09 0b 3e 15 82 62 3c
       -0.033715237 0.023445247 0.13577944 0.013824959
000280 40 f9 1e bc a7 f3 02 bd 0f 78 36 3d 94 a7 f5 3d
       -0.0097029805 -0.031970646 0.04454809 0.119948536
000290 eb c1 29 bd e9 00 17 bd 70 00 f2 3d 69 4a 1d bd
       -0.0414447 -0.036866102 0.1181649 -0.03840104
0002a0 50 74 f4 bd ac d8 c5 bd b8 73 cb 3d b0 cc 03 3e
       -0.11936247 -0.096604675 0.09934181 0.12871051
0002b0 6b 71 e5 3d e9 de 88 bd 2e 9f d8 3d bc 6a 91 bc
       0.112032734 -0.06683142 0.10577236 -0.01775109
0002c0 62 ff a1 bd 31 19 06 3e d8 b6 f4 3d 5e 68 10 be
       -0.079100385 0.13095547 0.11948937 -0.14102313
0002d0 be 88 8f bd 5c 0e 9b bd 43 43 a6 bd 3c 68 83 3d
       -0.070085034 -0.07571098 -0.08118298 0.064163655
0002e0 fe 70 0f 3e e4 9c 35 bd da 5d 37 bd 3c 50 fd 3c
       0.14007947 -0.044339076 -0.04476724 0.030922048
0002f0 45 15 00 3d a2 3e a1 bd 01 5e 13 bd ed 2e 59 3d
       0.031270284 -0.078732744 -0.03597832 0.053023268
000300 83 4e d0 3d 47 90 b5 bd c0 c0 4a 3d 4c e1 20 bc
       0.10171225 -0.08865409 0.049500227 -0.00981934
000310 ba 44 3b bd 31 55 f7 3d b6 09 d1 3d c9 07 e6 3d
       -0.04571984 0.12076796 0.1020693 0.11231954
000320 56 3d 60 3d 46 fb 9f 3d 3b b7 0b 3d c3 b7 c9 bc
       0.054745995 0.078115985 0.03411029 -0.024623757
000330 7c 80 ff 3d a1 86 4a bd 28 44 01 be 87 6c 9f bd
       0.12475678 -0.0494448 -0.12623656 -0.07784372
000340 35 71 08 be e7 b2 ca 3d a1 05 8d bd 0e 9f 7a bd
       -0.13324435 0.09897404 -0.06885839 -0.061186843
000350 50 94 fd bd 67 25 7b 3d 54 8e 07 be ac 87 3b 3d
       -0.12381804 0.061314967 -0.13237888 0.045783684
000360 82 e3 5c bd 59 42 0a be 0d ea a3 3d 31 ab ed 3d
       -0.053927906 -0.13501872 0.08003626 0.11604918
000370 72 81 cb bd fd f2 01 3e 3c 2a 9f 3d d0 4e ba bc
       -0.09936799 0.12690349 0.077717274 -0.022742659
000380 85 41 84 3d 3b 7f 88 bd b5 0a f6 3c 6c b3 2b bd
       0.06457809 -0.06664892 0.030034402 -0.041919157
000390 d8 ee e1 3d 65 0f e7 bd ca 54 09 3e 4a 12 00 3e
       0.11031884 -0.11282233 0.1341125 0.12506977
0003a0 e9 1c fb 3d 1f f2 ba 3a 45 b9 08 be a0 e1 fe 3d
       0.122613735 0.0014262832 -0.13351925 0.12445378
0003b0 99 96 16 bd 00 2e 00 bc 80 f2 0a 3e 5f 0f f8 3d
       -0.036764715 -0.007823467 0.13569069 0.12112307
0003c0 1c a4 d0 3d 9d d3 9e 3d 58 70 c2 bd 0c 14 08 be
       0.101875514 0.07755206 -0.09494084 -0.13288897
0003d0 a2 96 c1 3d 0c 6f 07 be 99 56 c9 3d 9d 1c 8a 3b
       0.09452559 -0.13225955 0.0983097 0.0042148368
0003e0 44 2f 01 be 12 c9 b1 3d 25 19 fd bd 0e d3 4d bb
       -0.12615687 0.08680929 -0.123583116 -0.0031406316
0003f0 61 de 06 3e fb 5c ea bd ad 7b 89 bd 68 88 f3 3d
       0.13170768 -0.11443516 -0.067130424 0.11891252

weight_hh_l0 f4 [50, 50]
000000 b1 e6 dc 3c 4c ae 48 bd 5c bb 6d bd 77 17 2f 3d
       0.026965471 -0.048994347 -0.058040008 0.042746987
000010 c9 7d 82 bd 63 93 78 bd 10 63 0f bd 1e 37 8d bb
       -0.06371648 -0.060687434 -0.035006583 -0.004309549
000020 19 0c c8 3d c4 ba f6 3d 2c d5 f3 bd c1 e0 77 bd
       0.097679324 0.120473415 -0.11905894 -0.060517076
000030 66 d0 5e bc 77 81 8a 3d a5 ba 9f bc 5f eb cc bc
       -0.013599491 0.06762975 -0.019498179 -0.025014577
000040 8a 6d 4c bc be e4 6b bd e9 b2 6b bc 8a 09 d7 3d
       -0.012477288 -0.057591192 -0.014385917 0.10499866
000050 78 01 a1 bc d0 dc 18 bd e7 ce de bd 80 e3 06 be
       -0.01965402 -0.03731996 -0.10879307 -0.13172722
000060 e6 93 ba 3d d3 b5 0a bd c9 f0 08 be c2 61 00 3e
       0.09110241 -0.033864807 -0.13373102 0.12537292
000070 d8 b2 0f 3e b2 60 9a 3c 70 bc aa 3d 57 6f e8 3d
       0.14033067 0.018844936 0.08336723 0.113493614
000080 65 72 8a bd d6 e9 d3 bd 44 d9 24 3d 85 32 e6 3d
       -0.067601 -0.10347335 0.040246263 0.112401046
000090 af 72 5b 3d 64 23 f7 3b bd 07 86 bd 20 46 8f 3c
       0.053576168 0.0075420607 -0.06544445 0.017489493
0000a0 14 2b 0e be 16 e3 51 bd 2c 0f 6a bc 87 be dc bd
       -0.1388362 -0.051241957 -0.014285844 -0.10778528
0000b0 ab 00 be bd 35 dc 92 3d fe e6 fc 3d 6c 35 80 bd
       -0.09277471 0.071709074 0.12348746 -0.062601894
0000c0 79 0a f0 bd c3 27 54 bd 74 02 d1 bd 82 8a 94 bc
       -0.117207475 -0.051795732 -0.10205546 -0.018132452
0000d0 06 83 0b be b0 e6 00 be 93 45 e9 3b 90 5a af bd
       -0.136242 -0.12588 0.0071188896 -0.08562195
0000e0 03 db 2a 3d 93 db b6 bd 5f da cd bc cb a0 5a 3d
       0.041712772 -0.08928599 -0.025128542 0.053376
0000f0 68 36 08 bc 04 fe 26 3d da f9 60 bb fb 35 2d bd
       -0.008313753 0.040769592 -0.003432861 -0.042287808
000100 16 dd a4 bb 95 76 21 3d 89 40 20 3d 4d 17 ee 3c
       -0.0050312383 0.03941973 0.039124046 0.029063845
000110 fc 00 e9 3d 8a 6d b9 3d bb 2f e1 3c d1 aa af 3d
       0.11377141 0.09054096 0.02748858 0.085775025
000120 a0 c5 e7 bd 6d f0 02 3e a7 99 bb 3d a3 eb 97 bd
       -0.11316991 0.12787028 0.09160166 -0.07417991
000130 d8 d4 a6 3d e5 2b 07 3e b8 84 e9 bc 96 4c bd bd
       0.081460655 0.13200338 -0.028505668 -0.09243123
000140 1a 2a b4 3d 44 24 84 bd f2 17 05 be 0e 10 a7 bd
       0.08797093 -0.064522296 -0.12997416 -0.08157359
000150 d7 66 a4 bd 1d ae fe bd 9e a1 c6 bd 92 0f 30 bd
       -0.08027428 -0.12435553 -0.09698795 -0.0429836
000160 71 e8 b2 bd b8 c3 99 3d c0 3b 42 bd 95 62 93 bd
       -0.08735741 0.075080335 -0.047420263 -0.071965374
000170 35 67 28 3d 41 85 77 3c 15 c9 ef 3d b0 e6 ab bd
       0.04111405 0.015107454 0.11708275 -0.083936095
000180 b2 ef 6a bd 06 ef 0d be c0 c1 f7 bd 41 19 20 3d
       -0.057357498 -0.13860711 -0.12097502 0.039086584
000190 22 fc 1c bc a6 88 84 3d 72 e8 35 3d 56 ea cb 3c
       -0.0095815975 0.06471376 0.04441113 0.024892014
0001a0 89 49 30 3b 92 f8 fd 3d ad 19 90 bd fb 83 51 3d
       0.00268993 0.12400927 -0.07036147 0.051151257
0001b0 a3 f7 ac 3d 03 e2 75 3d 88 72 83 bd 78 c3 31 bd
       0.084456705 0.060029995 -0.064183295 -0.043399304
0001c0 e2 a4 94 bd b1 b8 ca 3b 38 5a a2 3d bc 1b d2 bd
       -0.072580114 0.0061865677 0.07927364 -0.10259196
0001d0 07 dd d3 3d 3e 47 0b 3e af 6c eb bd 9a 07 37 bd
       0.10344892 0.13601395 -0.11495339 -0.044684984
0001e0 48 c3 51 bd da 45 f0 3d 8d 5a 05 bc 08 ba af bd
       -0.051211625 0.11732073 -0.008139265 -0.085804045
0001f0 b8 86 db bd 28 f7 f1 bc da 75 6b 3d 06 e1 0d be
       -0.10719055 -0.029536799 0.05748544 -0.13855371
000200 56 6c b9 bd 69 5b 9a bd 9a 40 e7 bd fd f4 4a bd
       -0.090538666 -0.07536966 -0.11291619 -0.049550045
000210 49 02 bd 3d 66 d3 00 3e 40 fb 4f 3d 05 7d c0 bd
       0.092289515 0.12580642 0.05077672 -0.093988456
000220 8a b3 28 3b dd 41 9e 3d b7 5a 96 3d 7d 42 e2 bd
       0.002574178 0.07727406 0.07341521 -0.11047838
000230 84 60 9b 3d 1b 4e 92 bc 89 1f 84 bc 0c a3 2f bd
       0.07586768 -0.01785951 -0.016128318 -0.042880103
000240 c0 9a 39 bd d7 d1 e6 bc 2c 3c d3 bd fe 20 24 3c
       -0.045313597 -0.028176231 -0.10314211 0.010017632
000250 4e dc 08 3e fb 11 ff bd 54 52 28 3d a2 ea 02 be
       0.1336529 -0.124546014 0.04109414 -0.12784818
000260 ff 39 f3 bd c0 58 0f 3e fd ca 07 3e 9e 0b 16 bd
       -0.11876296 0.13998699 0.13261028 -0.036632173
000270 e8 79 a3 bc 86 dd f5 bd 89 75 a5 3b 86 79 cf bd
       -0.01995559 -0.12005143 0.0050494117 -0.10130601
000280 a1 1b e5 bd 9c 30 91 3d 42 5b 24 3c 73 5e 48 3d
       -0.111869104 0.0708935 0.010031523 0.0489182
000290 f0 04 e9 3d 54 15 43 3d 8e 26 37 3b ee 1e 13 3d
       0.11377895 0.047627762 0.0027946564 0.03591817
0002a0 c0 e2 c4 3c 92 4f c9 bc f9 4e bd 3d 11 e5 f0 bd
       0.024033904 -0.024574075 0.092435785 -0.11762441
0002b0 d9 16 0e 3e a5 db 4d bd 1e 60 9e 3d 74 64 cf 3d
       0.13875903 -0.050258297 0.07733177 0.10126582
0002c0 02 07 2f 3d 13 01 06 3c dc 4c d1 3d 8a af cd 3d
       0.042731293 0.008178967 0.10219738 0.10043247
0002d0 c8 32 a1 3d fb 00 45 3d cc e3 ac ba 3f 93 ed bb
       0.07871014 0.04809664 -0.0013190447 -0.007250219
0002e0 b4 a4 16 3d 15 30 c3 bd 2e 79 06 3e 26 aa aa ba
       0.036778167 -0.09530655 0.13132164 -0.0013020679
0002f0 77 d2 a0 bd e5 27 9c bc 56 88 99 bd bb 66 02 3e
       -0.07852643 -0.019061992 -0.07496707 0.12734501
000300 47 de b9 bd 9a d8 0f 3e 67 15 69 bd 65 96 e3 bd
       -0.09075599 0.1404747 -0.056905176 -0.1111267
000310 df 40 7f bb fd eb 8c bd b1 0d 2f 3d aa f7 ab bd
       -0.0038948578 -0.06880949 0.042737667 -0.083968475
000320 9f 54 82 3d 1d 1e 3a 3d e6 91 52 bd 0b 2d 42 bd
       0.063637964 0.045438875 -0.05140867 -0.047406238
000330 76 9e 82 3d 12 a7 db bd b1 e5 73 bd 41 42 ef 3d
       0.0637788 -0.107252255 -0.059545223 0.11682559
000340 7f 7a db bc 27 03 bb 3d bc 27 c9 3d 30 5e f7 3d
       -0.02679181 0.09131461 0.09822032 0.12078512
000350 e0 4a f9 bd bb e3 6f bc e0 ab df bd 61 17 64 bd
       -0.121724844 -0.0146416975 -0.109214544 -0.05568636
000360 e5 d1 da 3d db 41 7a 3b c9 34 65 3d d6 3b de bd
       0.106845655 0.0038186226 0.055958543 -0.108512565
000370 22 e2 a3 bc 95 34 ef ba 0e 69 0f be d6 51 1d bd
       -0.02000529 -0.0018249924 -0.14004919 -0.038408123
000380 94 96 a3 3d 24 db 01 3d ed 1a df bd 35 20 70 bd
       0.07987705 0.03170313 -0.108938076 -0.058624465
000390 c3 7f b2 bd c7 5e 86 3d 0e dd ea bd 2a 38 0b 3b
       -0.08715775 0.06561046 -0.11467944 0.0021243193
0003a0 0e d8 1c bd b9 5e 9c 3d 80 23 d4 3a 3b e1 fb 3d
       -0.038291983 0.076352544 0.0016184896 0.12298819
0003b0 5d fa 20 bd ac 05 70 bc 0c b3 ba bd 21 36 b7 3d
       -0.039301265 -0.01464979 -0.09116182 0.08945871
0003c0 da 62 82 bd 98 8a 83 3d 5e f3 0e 3e 42 a9 53 bd
       -0.06366511 0.06422919 0.13960025 -0.05167509
0003d0 ae b1 e3 3d ec d0 85 3c 51 a7 a8 3d ec c3 82 3c
       0.11117874 0.016334973 0.08235038 0.015962563
0003e0 a7 1e ef bd f9 4b 15 bd ef 58 da 3d 28 fc 61 bd
       -0.11675768 -0.036449406 0.10661494 -0.055172116
0003f0 6f 7f 93 3c 09 d8 d0 3d b1 d8 fb 3c 8f 71 fd 3d
       0.018005101 0.101974554 0.030742975 0.12375175

bias_ih_l0 f4 [50]
000000 e8 ed da 3d 34 e3 f9 3d b6 66 ca 3d 67 2b c9 bd
       0.10689908 0.12201539 0.09882872 -0.098227315
000010 d8 f5 ec 3c 4c 83 e9 bd d5 79 0b be 2e 14 ed bd
       0.028925821 -0.11401996 -0.13620694 -0.115761146
000020 ba c0 df 3d ff 63 ca bd e8 e4 70 3d b1 bc 09 be
       0.109254315 -0.09882354 0.058812052 -0.13450886
000030 f7 2b 63 3d b1 b8 27 bd 44 73 da bd 0f 7b 06 be
       0.05546185 -0.04094762 -0.106665164 -0.1313288
000040 34 ed 5d bc c3 5a 1f 3d eb 57 66 3d 4f 59 f7 bd
       -0.013545323 0.038904916 0.05623619 -0.12077581
000050 1b 65 03 3d 02 99 ba bd 4c ad 56 3d 48 ce 2e bd
       0.032078844 -0.09111215 0.052411363 -0.042677194
000060 31 e1 32 bd 7b ac 25 bd 70 0e 93 bc 4d 8e 06 be
       -0.04367179 -0.040447693 -0.01795122 -0.13140221
000070 74 e3 95 bd ae 1d 05 be 36 76 b7 3c 35 50 05 be
       -0.07318774 -0.12999603 0.022395235 -0.13018878
000080 14 26 d9 bd 1f b0 c3 3d a0 20 22 bd 17 e2 ab 3d
       -0.10602966 0.09555077 -0.039581895 0.083927326
000090 77 74 c7 bb 3b 77 f3 bd a8 41 96 3c a1 97 2f bd
       -0.0060868817 -0.11887976 0.018341854 -0.042869214
0000a0 ed b1 da bd ee d4 cc 3d 51 6c 5f bd 34 dd d4 bd
       -0.10678468 0.100015506 -0.054546658 -0.10393754
0000b0 d9 b6 ce bc de c7 77 bc 4f b1 8a 3d f1 8b c7 3d
       -0.025233673 -0.015123336 0.067721 0.097434886
0000c0 e5 c0 69 3d b5 1b a6 ba
       0.057068724 -0.0012673052

bias_hh_l0 f4 [50]
000000 30 9f f0 3d 9f a9 35 bd 50 45 82 bd fb b0 57 3d
       0.117491126 -0.044351216 -0.063608766 0.052659016
000010 11 35 9a bc e4 06 32 bd b5 d4 e5 bd 24 c6 4c 3c
       -0.018824132 -0.043463603 -0.11222211 0.012498412
000020 8b 73 ee 3c 83 f0 7a 3d 2b 96 08 bd fd 95 81 3c
       0.02910783 0.061264526 -0.033346336 0.01581859
000030 ca d1 f9 3d 34 3a 7a 3d fb a0 a5 3d 13 58 dd bd
       0.12198217 0.061090663 0.08087345 -0.108078144
000040 f6 fc e9 3d ca ac 19 3d b6 9e e4 bd 59 1d 94 3d
       0.114252016 0.0375183 -0.11163084 0.0723216
000050 31 4e 03 3e a9 90 e8 bd a6 df 2d bd d9 e3 58 3d
       0.12822796 -0.11355717 -0.042449616 0.052951667
000060 52 24 b8 3d 4e 52 7b bd 78 89 66 bc c6 18 3c bd
       0.089913025 -0.06135779 -0.014070861 -0.045922063
000070 a5 5d 99 3d a2 a9 ef bd 0e 86 9c 3d 1c 46 db 3d
       0.074885644 -0.11702277 0.076427564 0.10706732
000080 95 56 c7 3d ed 32 48 bd ba 5a 01 3e e9 e6 9f bc
       0.09733311 -0.04887669 0.12632266 -0.019519286
000090 6c 27 82 3d 2e 6b ab 3d 2f f5 93 3d b3 4c 5e 3d
       0.063551754 0.08370052 0.072244994 0.054272365
0000a0 3c f7 60 3c 83 1f ac bd ff 95 c2 bd 11 63 95 bd
       0.01373082 -0.08404448 -0.09501266 -0.07294286
0000b0 62 37 04 3e 2e 99 02 be 9c 1c fd bd 91 8e a5 3d
       0.12911752 -0.12753746 -0.123589724 0.08083833
0000c0 65 75 06 3c 93 a4 f2 bc
       0.0082067 -0.02961949

weight f4 [2, 50]
000000 6c 85 64 3c 1a 56 b5 bd 74 21 83 bd d2 be fc 3b
       0.013947826 -0.08854313 -0.06402865 0.0077131772
000010 80 66 47 3d ea 9b a6 bd f0 c9 10 bd 4b a1 e1 3c
       0.048681736 -0.08135207 -0.035348833 0.02754273
000020 1c 97 80 3d e4 5b f5 3d c5 97 e6 bd 09 1e 16 bd
       0.06278822 0.11980417 -0.112594165 -0.036649738
000030 99 1c d5 3d 06 43 19 bc 28 ba 81 bd 64 52 93 3c
       0.10405845 -0.009354359 -0.063343346 0.017983623
000040 b4 e3 b3 bd 3d 4e db 3d fc fb 64 bd 44 93 b6 3d
       -0.08783665 0.10708282 -0.055904374 0.089148074
000050 70 c2 61 3d 99 ef 91 bc b1 f5 0b 3e c8 38 d6 3d
       0.05511707 -0.017814444 0.13667943 0.10460049
000060 80 46 8d 3c e7 bd 99 3d 68 03 b2 3c e0 93 e1 3d
       0.017245531 0.07506924 0.02173014 0.11014533
000070 0c c3 af 3d 25 e7 2b 3d 25 82 6e bd 81 ac 45 bd
       0.08582124 0.041968483 -0.058229584 -0.048260216
000080 c7 bc 46 bd 5f 02 2c 3c 0e 9d 99 bd 57 9b d1 bd
       -0.048519876 0.010498612 -0.07500659 -0.10234707
000090 4e 9e d6 bd ac bc fd bd df 50 05 be da 9a a9 3d
       -0.10479413 -0.12389502 -0.13019131 0.08281489
0000a0 07 d8 02 be e0 12 72 3d 9c 4a 78 3c d8 bc 06 3e
       -0.1277772 0.05910003 0.015154507 0.13157976
0000b0 18 c8 21 3b ac 0a 0f 3e 91 c1 7f 3b 28 f8 de bd
       0.0024685916 0.13968915 0.0039025287 -0.10887176
0000c0 ce a8 cc 3d 84 6c 20 3d 73 9d 0f 3e 90 bc a9 bb
       0.099931344 0.03916599 0.14024906 -0.005179949
0000d0 a9 14 20 bd fe 58 bf bd c5 3d ff 3d 08 1f a6 bc
       -0.039082203 -0.09343146 0.124629535 -0.020278469
0000e0 08 b3 76 bd 4e e0 a9 bc 07 ae 97 3d 47 1a 8f bd
       -0.06022933 -0.02073684 0.0740624 -0.06987434
0000f0 9c 9c 00 3d f7 f1 ca bd 2e d3 9f bc 47 75 9e 3d
       0.031399354 -0.099094324 -0.019509878 0.07737213
000100 94 c1 24 bc a8 1a 6e bc f4 78 a9 3d 2f a0 e7 bd
       -0.010055918 -0.0145327225 0.08275023 -0.113098495
000110 0e 90 e4 bd 65 e4 d9 bd 8c f7 1b 3d be 3a 5a bd
       -0.11160289 -0.10639266 0.038077876 -0.053278677
000120 d0 6f 75 b9 71 7c 02 be 9a 9b 7e bd da 6c c2 bd
       -0.00023406674 -0.12742783 -0.062160112 -0.09493418
000130 00 dc 89 bd 67 b7 9d 3d 90 82 e9 3c 3c f5 0d be
       -0.06731415 0.07700997 0.02850464 -0.1386308
000140 5b 1d cb bd 73 67 25 3d 41 d9 6b 3d c4 f2 f0 bb
       -0.099177085 0.04038186 0.057580236 -0.0073531587
000150 42 4e 05 3e b3 94 ec bd 2a 90 0b be 8b 40 05 be
       0.13018134 -0.115517996 -0.13629213 -0.13012902
000160 0f fb e4 3d b5 4d 7f 3d 26 91 c8 bb d2 0f c6 bd
       0.11180698 0.062329967 -0.0061208187 -0.09670986
000170 bb d0 10 be 78 82 e5 3d e4 ca e0 3d 83 c6 ee bd
       -0.14142124 0.112065256 0.10976198 -0.11658957
000180 ca 5f e9 3d f9 f5 90 3d ba 6c 01 3e b4 c2 58 bc
       0.113952234 0.070781656 0.12639132 -0.013230015

bias f4 [2]
000000 a6 63 a4 bd 4d 4a f5 bc
       -0.08026819 -0.029942656
